3_3_3_O.pth (torch_old, 129963 bytes, 9 tensors)

layer_1.weight f4 [100, 16]
000000 78 e9 26 3e 2d f6 bf 3d 9c 3e 0f be 1e 5f 03 3e
       0.16299999 0.09373126 -0.13988727 0.12829253
000010 ab f2 ca 3d 78 a0 39 be a5 4c 0c be 09 bf 5c be
       0.099095665 -0.1812762 -0.13701113 -0.21557249
000020 21 ac d9 3d 43 11 8d 3b 5c 3d c4 bd 45 ce b4 3d
       0.10628534 0.0043050363 -0.09582016 0.08828405
000030 09 02 70 3d d7 02 00 3e 8d 7f 5d be eb b0 d1 3d
       0.05859569 0.12501083 -0.21630688 0.102388225
000040 7c 34 d4 3d 42 59 f0 3c 0d 1b 56 3e ec 02 43 3e
       0.10361573 0.029339436 0.20908757 0.19044083
000050 af f9 2d 3d 86 9c 28 be 52 86 89 3e 38 10 a0 bd
       0.042474445 -0.16465959 0.2686029 -0.078155935
000060 2d d2 6e 3e 54 32 37 3d e2 7a 97 bd 1a 8b 86 bb
       0.23322363 0.04472573 -0.07396485 -0.0041059377
000070 5d 86 e9 3d cf 15 2c be ad fb 91 3e 27 2e fa 3d
       0.11402581 -0.16805194 0.28512326 0.12215834
000080 4b 26 61 3e a3 8d 64 bd ac a1 5d 3d 4b e5 64 be
       0.21987264 -0.055799138 0.05410926 -0.22353093
000090 f0 22 51 bd ae 35 c5 bd ed cf f2 3c dd aa ad 3e
       -0.05105871 -0.09629379 0.029640162 0.3391942
0000a0 a2 15 b1 bc b6 0d 96 3e 97 a7 30 be c0 8c f6 3c
       -0.02161676 0.29307336 -0.1725143 0.030096412
0000b0 44 ac 14 3e d6 3a 07 be 0d 6f 0c 3e b1 fb 0c 3d
       0.14518839 -0.13206038 0.13714238 0.03441972
0000c0 76 a2 79 bd ea 3e 84 bd 5c 89 e8 3d 56 84 3e be
       -0.06094595 -0.064573124 0.11354324 -0.1860517
0000d0 d5 8a 35 3e d3 ea e9 3d d2 45 c1 bd e4 cb 44 3e
       0.17728741 0.11421742 -0.09437145 0.19218403
0000e0 8a cc cf bd f0 c6 a8 be f8 7b a4 3d 61 d9 f5 bd
       -0.101464346 -0.32964277 0.08031458 -0.12004352
0000f0 a3 ae 3d 3e 81 65 b7 3d 18 38 44 bd ac 56 c7 bd
       0.1852365 0.08954907 -0.047905058 -0.09733328
000100 04 a7 e9 bd 03 1e 55 3d db 6d dc bc e9 71 57 be
       -0.11408809 0.052030575 -0.026907852 -0.21039547
000110 f6 48 86 bd bb 0f 89 3d d2 5f 9a 3c 6f 1c 22 3e
       -0.06556885 0.066924535 0.018844519 0.15831159
000120 7c 86 0c bd 2b ac 44 3c 30 28 57 be 00 3f 3b be
       -0.03430794 0.012003939 -0.21011424 -0.18285751
000130 cb 32 8e be a4 43 00 be d1 2f b7 3d f6 cf 19 3e
       -0.27773127 -0.12525803 0.08944667 0.15020737
000140 9d b3 39 bc e0 f1 4e 3d ec aa a9 3d 8f 68 67 3d
       -0.011334327 0.05052364 0.08284554 0.0564962
000150 6f 59 0a be 07 be 1b be a3 0a 3c 3c 20 bf 9f bc
       -0.13510679 -0.15209208 0.011477145 -0.019500315
000160 9f 70 c7 bc c1 d5 c9 bd 9a 5d 6d be 17 02 73 3e
       -0.024345694 -0.098552234 -0.23180237 0.23731266
000170 07 05 65 3e 5f f4 3f 3e fb 56 7c 3d 7c 95 b8 3d
       0.22365199 0.18745564 0.06160639 0.09012887
000180 7b 8b 44 be 66 fc 90 3e 6f 02 a7 be 04 e4 00 be
       -0.19193833 0.28317565 -0.32619044 -0.12586981
000190 77 b5 34 be 65 7c a9 ba 28 74 d3 3d 3b 01 8a 3d
       -0.17647348 -0.0012930749 0.103248894 0.06738516
0001a0 61 0f db 3d b3 bd c9 3d a1 35 1d be ea f6 a4 be
       0.10696293 0.098506354 -0.15352489 -0.3221963
0001b0 5a 1a 8d 3e 22 b9 62 be 17 61 33 bd 25 a3 45 be
       0.27559167 -0.22140935 -0.043793764 -0.19300516
0001c0 d3 99 9b be 8b 49 43 be 9e f8 55 3e 47 b6 66 be
       -0.30390796 -0.19071023 0.20895621 -0.22530471
0001d0 ce 69 58 3e 0b 39 63 be d1 de 37 be ea d5 49 3e
       0.21134111 -0.22189729 -0.17956091 0.19710508
0001e0 93 96 a7 bd 8c c3 d7 bd 6f bb 6e bd 3c 41 5a be
       -0.08183017 -0.105353445 -0.05828422 -0.21313947
0001f0 de ec b4 3c 3c cf 70 bd ab 83 e7 3d 21 7f 9a 3d
       0.022085603 -0.058791384 0.113044105 0.07543779
000200 d6 71 b1 bd ff 28 5a 3e 76 f6 38 3d d9 7e 3d 3c
       -0.086642906 0.21304701 0.04515692 0.011565887
000210 bd eb 93 be ae bf 93 3d 85 f8 72 3c 89 44 35 be
       -0.28890792 0.072142944 0.0148297595 -0.17701925
000220 78 23 c6 bb 74 75 6f bd bc 03 14 be 70 55 3a bc
       -0.0060467087 -0.05846162 -0.1445455 -0.011372909
000230 89 ee 16 bd 14 67 53 be 06 d7 ec bd 86 34 c5 bd
       -0.03684858 -0.2064479 -0.1156445 -0.09629159
000240 ca 00 2c be 4e d5 cc 3d e3 5e 30 be 5e e6 27 bd
       -0.16797176 0.10001622 -0.17223696 -0.04099118
000250 bd 61 d3 bd 8c 1f 6d 3a a3 3e 13 3e 09 2e 36 bd
       -0.103213765 0.00090455334 0.14379363 -0.044477496
000260 e3 40 89 3e 37 f7 9d be 35 78 3d be 97 ca fc bd
       0.26807317 -0.30852672 -0.18502887 -0.123433284
000270 85 33 6e bd 4e 17 29 be 47 66 8c be 45 0e 36 3d
       -0.0581546 -0.16512796 -0.2742178 0.044447202
000280 ec 2e 34 3e 4d 91 07 3d 1f a6 49 be 2d 27 15 3e
       0.17596024 0.033097554 -0.19692276 0.14565726
000290 65 3f fc bd ae d3 25 bd 6e 1d 14 be 4d bf f0 bc
       -0.12316779 -0.040485077 -0.14464352 -0.029388094
0002a0 c5 6b aa bd 6e c5 52 be 2d 55 c5 bd 4a 68 7b 3d
       -0.08321337 -0.20583126 -0.096353866 0.061378755
0002b0 78 bb 8a bd 2d 06 8e bd 4a 56 e1 3d a3 8a 15 be
       -0.06774038 -0.06934772 0.110027865 -0.14603667
0002c0 b1 c6 33 be 43 4b 10 be c5 d6 24 3d 4c fe 24 3c
       -0.17556264 -0.1409121 0.040243883 0.010070395
0002d0 60 22 7f 3d d7 d0 6a be 6d 4e fa 3d 81 99 1d be
       0.062288642 -0.22931229 0.1222199 -0.15390588
0002e0 7a 61 3b 3d 17 aa 88 bc 78 c0 59 be ac 89 fd 3d
       0.045747258 -0.016682668 -0.21264827 0.123797745
0002f0 65 13 19 3e 6f 4c 44 3e 61 1e 8e be 98 fa 35 3e
       0.14948805 0.19169782 -0.27757552 0.17771375
000300 c5 0a 53 3d 95 8f cd bd 10 4e 5c 3e 3f 26 6b 3e
       0.051523943 -0.10037152 0.21514153 0.22963808
000310 d3 2d fc bd 5a e4 a4 bd ba 8d eb 3b cd f5 44 3e
       -0.12313428 -0.08051367 0.007188526 0.1923439
000320 aa f7 33 3e 7d 28 11 3e 6b fc 63 3e 69 5f f5 bc
       0.17574945 0.14175601 0.22264259 -0.029952722
000330 7d e4 6f 3e 63 90 3a be 70 6a ad 3d d6 2e 10 3e
       0.23427005 -0.18219142 0.08467567 0.14080366
000340 80 37 e9 3d 33 07 3d be 5d 74 a4 bd 31 80 91 3d
       0.11387539 -0.18459778 -0.08030007 0.07104529
000350 7a bc 31 3e c1 be 02 be dd b9 1b be 92 95 17 be
       0.17357054 -0.1276808 -0.1520762 -0.1480315
000360 b6 fe e8 bd ae fc c7 bd 2c e4 7c be d2 90 28 3c
       -0.11376707 -0.09764992 -0.24696416 0.010288434
000370 fa cc 36 3e c7 41 e8 bc 11 f1 39 3d b5 6a 1f 3e
       0.1785163 -0.028351678 0.045395914 0.15568049
000380 53 73 88 3d 0c 11 6a 3d 47 d6 1d 3e 28 4d 81 3e
       0.06662621 0.057145163 0.15413772 0.25254178
000390 bf 42 07 3e 38 05 7b bd 59 cf 4f 3e e5 04 81 3e
       0.13209055 -0.061284274 0.2029394 0.25199047
0003a0 07 8f 3a 3e 15 c8 93 3c 25 70 46 3d 22 04 f8 3c
       0.18218623 0.018039742 0.048446793 0.030275408
0003b0 e6 9f 80 bd e1 c9 78 bd c6 4f 57 3e 5d 71 6e 3e
       -0.06280498 -0.0607394 0.21026525 0.23285432
0003c0 52 bc 85 be 01 6c 69 3e 10 e3 09 be f0 2e a3 be
       -0.2612024 0.22795106 -0.13465524 -0.31871748
0003d0 9d c5 96 3e dd 3b 4f bd 58 2b 8e 3d 56 82 11 be
       0.29447642 -0.0505942 0.06941861 -0.14209875
0003e0 27 99 45 be a1 17 e8 bc 9d 83 de bd 9c c1 45 3a
       -0.19296704 -0.02833158 -0.10864947 0.00075438037
0003f0 4d fa 43 bd 2e aa 4e 3e 7d 36 5f be 76 84 8b 3d
       -0.047846127 0.20182106 -0.2179813 0.06812374

layer_1.bias f4 [100]
000000 22 b8 d3 bd 4a 59 42 bc 48 df 91 3d 6a d7 6b be
       -0.10337855 -0.0118621085 0.07122666 -0.23031393
000010 2e 3d 54 be 66 9d 02 be b3 be 00 be 61 ce 8b 3e
       -0.20726463 -0.12755355 -0.12572746 0.27305892
000020 29 54 17 3e 81 0f b3 bd 36 47 a1 be c6 7a 86 be
       0.14778198 -0.087431915 -0.31499642 -0.26265544
000030 31 b1 48 bd c3 8d 91 be f5 8f bc bd ac d5 dc 3d
       -0.048997108 -0.28428468 -0.09207145 0.10782942
000040 81 7c 01 be 34 c9 21 be 28 f5 f4 3c b1 9d 6a 3e
       -0.1264515 -0.15799409 0.029902056 0.22911717
000050 38 e9 0b 3e 89 4d 0b 3d 6c 45 2c 3e b7 aa 9a bd
       0.13663185 0.03400949 0.16823357 -0.075520925
000060 0c 0b 88 bd fd b5 1a bd 31 2b 67 bc b6 45 a4 bd
       -0.06642732 -0.037771214 -0.014109419 -0.08021109
000070 34 66 27 3e 52 07 b6 3d f4 df 87 3e f0 e8 d8 bd
       0.16347581 0.08888115 0.2653805 -0.10591304
000080 1e 50 5c be e6 6f 28 be 59 3d b9 3c 17 25 a2 3d
       -0.21514937 -0.16448936 0.02261226 0.079172306
000090 30 e0 a6 3d 3f 5c 37 be ba 69 ec bd cf fa 24 3e
       0.08148229 -0.17906283 -0.11543603 0.16111301
0000a0 29 b4 4d bd 61 c2 5a be a9 e3 70 be 51 5e 6f 3e
       -0.050220642 -0.21363212 -0.23524345 0.23375823
0000b0 ad d2 a3 bc cb 25 44 3e a7 36 e6 bd 5d e6 98 bd
       -0.019997919 0.19155042 -0.11240893 -0.07465813
0000c0 93 76 9e 3d 4b eb 3a be bb 14 52 3d bf ad 42 be
       0.0773746 -0.1825382 0.0512893 -0.19011591
0000d0 d1 23 65 be 45 cf 56 3d 68 92 d8 3d 10 6e ba 3c
       -0.22376944 0.05244376 0.105748 0.02275756
0000e0 19 a3 b7 bd c8 5a d5 3d 91 af 4e 3d b9 ee 69 3c
       -0.08966655 0.10417706 0.050460402 0.014278107
0000f0 43 2a 1c 3e 8f 79 84 bd 56 39 7c be ee a8 8b bc
       0.15250497 -0.06468498 -0.24631247 -0.017048325
000100 a9 6a bb bd f4 35 a2 3d a9 29 1a be d9 24 0e bd
       -0.09151203 0.07920447 -0.15054955 -0.03470311
000110 c1 94 86 bd c6 e6 28 bd 53 64 a4 bc 90 41 d4 3d
       -0.06571341 -0.041235708 -0.02006737 0.103640676
000120 30 99 f2 bd 46 54 53 bd e0 f8 2d be ff 5d 38 bd
       -0.118456244 -0.05159404 -0.1698947 -0.045011517
000130 59 bd 82 bd cd e3 b0 3d 6a 3e 73 3d 5e 98 85 3d
       -0.063837714 0.086371996 0.059385695 0.06523202
000140 47 23 23 3d db cb ae be 74 8e 8c 3d cc 22 99 bd
       0.039828565 -0.34139904 0.06863108 -0.0747734
000150 cc f7 5d bd dd d4 b3 3c 51 69 48 3e e8 93 83 bd
       -0.054191396 0.021952087 0.19571425 -0.06424695
000160 cd aa 81 be d4 47 ed 3d 18 94 3e bd 28 8b d3 3b
       -0.25325623 0.11585966 -0.046527952 0.0064557977
000170 a7 3c 8c be 2f 8b 96 bd 49 e3 b4 bb 3f 5c 72 3e
       -0.27390024 -0.07350766 -0.0055202586 0.23668002
000180 4c b1 61 be 60 86 26 3e 01 e4 27 bc 8d bc 3c be
       -0.2204029 0.16262197 -0.010247231 -0.18431301

layer_2.weight f4 [100, 100]
000000 d0 10 b7 3d d8 bb 6d bd b0 c2 59 bd 05 f1 15 3c
       0.089387536 -0.05804047 -0.053164184 0.009151702
000010 f8 80 24 3d c0 ef 99 bc e4 0e 7e 3d b5 8a 6b bd
       0.040162057 -0.01879108 0.06202592 -0.05750533
000020 e1 15 d6 bd eb 47 90 bd db ce 0d bd 5c 5d 96 bd
       -0.10453392 -0.07044967 -0.0346211 -0.07342026
000030 31 0c 81 3c c4 1f c4 bd 0d 02 fa bc 71 80 37 bd
       0.015752884 -0.09576371 -0.030518556 -0.044800226
000040 3f 2e 87 3d b0 cf 36 3d 62 22 0d bc 38 2f 23 bd
       0.066006176 0.04463166 -0.0086141545 -0.039839953
000050 10 e7 57 bd de c1 81 bd 58 ad f7 3c e1 53 af bd
       -0.052710593 -0.06335805 0.030234024 -0.085609205
000060 df 47 c7 3d 4c c1 d1 bd aa 0d 56 3c 95 bf 7c bd
       0.09730505 -0.102419466 0.013064781 -0.061706144
000070 a4 cc 1d 3d 96 b2 61 bd 52 c4 ca bc cf d4 94 3c
       0.03852524 -0.055101953 -0.024751816 0.018167881
000080 5f 72 1f bd 5d 67 cf bd 72 b0 23 3d 6c 39 d9 bc
       -0.038927432 -0.10127137 0.039963193 -0.026516639
000090 d0 2a 22 bd 4b 5b c4 bd 57 e1 2f bb 6b d3 30 3c
       -0.03959161 -0.09587725 -0.0026837194 0.0107925935
0000a0 14 31 93 bd 68 a2 3a bd de f3 10 3c b2 f5 bc bd
       -0.07187095 -0.04556504 0.008847205 -0.0922655
0000b0 4c 62 96 3d 00 91 6e 3d 7c d5 08 bb 72 f0 8c 3d
       0.073429674 0.05824375 -0.00208792 0.06881799
0000c0 db 34 de bd d6 65 e6 3b 95 fc c2 bd 8d 81 ea b9
       -0.10849925 0.0070311828 -0.095208324 -0.0004472848
0000d0 8e e6 fb 3c 25 b4 df bd 40 57 ad bd bf a4 a3 3c
       0.030749585 -0.10923032 -0.08463907 0.019976018
0000e0 49 69 c3 3c 13 02 a9 bd 95 ea 24 bd 0b f9 97 bd
       0.023853915 -0.08252349 -0.040262777 -0.07420548
0000f0 8a ee 13 3c 1e 6a 69 bd 7f 87 f8 3b 67 89 ba bd
       0.00902904 -0.056985967 0.007584512 -0.09108239
000100 e4 fe 8f 3d a2 b8 7d bd 62 4b c2 bd 20 60 0e bd
       0.070310384 -0.061943658 -0.094870344 -0.03475964
000110 ca fb 17 3d f8 59 c0 3c a6 b2 ac bc ca 0d c5 bd
       0.03710536 0.0234804 -0.02108128 -0.09621771
000120 b1 87 1d bd 01 21 b8 3d 4c 6b cc bb 6b 02 30 3d
       -0.038459484 0.0899067 -0.0062383767 0.042971056
000130 da e0 0e 3d 61 f5 3a bc 26 79 0b be 64 ff 61 3d
       0.034882404 -0.011411042 -0.13620433 0.0551752
000140 a9 00 09 bd 50 f7 10 bc be 22 c8 bd 2a 06 7d bc
       -0.033447895 -0.008848026 -0.097722515 -0.015443364
000150 5c 36 62 bd 5c 67 da bd 16 53 75 3d c0 df 62 bd
       -0.055227622 -0.106642455 0.05989369 -0.055389166
000160 8c 66 ae bd f6 ef 6b bd 48 63 c2 3d cf 0d 62 3d
       -0.08515653 -0.05760189 0.09491593 0.05518895
000170 05 33 a4 3d 1f 2a a1 3d fc cd b1 bd bf 5d 17 be
       0.08017544 0.07869362 -0.086818665 -0.14781855
000180 2a f0 66 3d a2 eb d7 bd 19 61 42 bd 0d e1 f6 bc
       0.056381382 -0.1054299 -0.04745588 -0.03013661
000190 1a 9a 84 bc 55 13 97 bd 7f 67 44 bd ba e5 46 3d
       -0.016186763 -0.07376734 -0.047950264 0.048558928
0001a0 f1 4a f4 3d a1 3c f9 3c 28 b9 ca bd 18 f9 c3 bd
       0.119283564 0.030424418 -0.09898597 -0.09568995
0001b0 e4 71 9c 3d 5f 57 15 3d 37 db 3f bd 14 ab 70 3d
       0.076389104 0.036460277 -0.04683992 0.058756903
0001c0 f4 ea 96 bd ae 61 d9 bb d1 72 01 be 08 48 fa bd
       -0.073690325 -0.006633959 -0.12641455 -0.1222077
0001d0 57 00 2c 39 42 ac 9c bd 8d e6 0e be ab e9 1d bd
       0.00016403325 -0.07650043 -0.13955136 -0.03855292
0001e0 a5 42 93 3d 6f b2 57 3d d8 d4 49 3d 33 04 0d 3a
       0.07190446 0.052660402 0.04927525 0.0005379349
0001f0 07 95 d3 bd 13 96 ec 3b c3 c3 ce 3c a7 cb a1 bd
       -0.10331159 0.0072200387 0.02523983 -0.07900172
000200 77 a3 c2 bc 4c fe 7c 3d e3 31 5a bd b1 50 05 3e
       -0.023759587 0.061765954 -0.053270232 0.13019063
000210 60 51 b2 3d b5 a6 96 bd f8 e5 79 3d 45 2b b6 3d
       0.08706927 -0.073560156 0.06101033 0.08894972
000220 69 35 33 3b b9 aa a0 3b f9 44 f1 bd 95 9d a0 3c
       0.0027345067 0.004903164 -0.117807336 0.019606391
000230 5a 90 c2 bd 8a 23 19 3d 22 ca ca bd 05 3f bc 3c
       -0.09500189 0.03738741 -0.09901835 0.022979269
000240 f8 a2 f1 3d 1d b9 ad 3d 66 19 f1 3b 08 e0 cd bd
       0.11798662 0.08482573 0.007357764 -0.10052496
000250 18 7f b8 3d 20 40 7c 3d c8 36 0c be 4f 8c 59 3d
       0.09008616 0.061584592 -0.13692772 0.053112324
000260 fd 1e 6f bd 34 7c 29 3d b9 7c 05 3d 2a 99 db bd
       -0.058379162 0.041378215 0.032589648 -0.10722573
000270 3d 19 25 3d 82 2a 41 bd 65 ca f3 bd 71 b3 9a 3d
       0.040307272 -0.04715968 -0.11903838 0.07553757
000280 66 23 b3 bd c6 88 4a bd 7c df 48 3a 5a 03 85 bc
       -0.08746986 -0.049446844 0.00076626963 -0.01623695
000290 3f a9 0b 3d 48 de 93 bc c1 f0 d5 bc 14 b7 a3 3d
       0.034096953 -0.018050328 -0.026115777 0.07993904
0002a0 4d 61 cb 3d 43 09 ff bd 70 8f 93 3c e9 8b a9 bc
       0.09930668 -0.124529384 0.018012732 -0.020696597
0002b0 4b b9 cd bd 24 2f d5 bd 6a 73 c9 3d 00 25 91 3d
       -0.100451075 -0.10409382 0.098364666 0.07087135
0002c0 42 53 cc 3b 01 a8 ae 3d ec 8e 33 bd 3e 70 66 bc
       0.006235511 0.08528138 -0.043837473 -0.014064847
0002d0 4a 0a b8 3d 3a 53 16 bd 50 1f f3 bc a9 6e a3 bd
       0.089863375 -0.036700465 -0.029678017 -0.07980091
0002e0 2a 33 96 bc 58 29 a4 3d be 3d af bd 91 e3 fc 3d
       -0.018334944 0.08015698 -0.08556698 0.12348092
0002f0 a2 81 4a bd f8 45 18 be 1c f7 7d bd cd 07 52 bd
       -0.049440034 -0.14870441 -0.06200324 -0.05127697
000300 6b a1 31 3d d4 f5 a6 3d 2e d2 71 3d ba 53 d1 bb
       0.04336683 0.08152357 0.059038334 -0.006388155
000310 3a d2 95 bd 36 4b ef bc 67 10 8e 3d 29 a9 1a 3d
       -0.07315488 -0.029210668 0.06936722 0.03775898
000320 58 f4 87 3d 37 75 dc 3d 5b be 02 3e b6 1e 03 be
       0.06638402 0.107645445 0.12767927 -0.12804684
000330 2f fb 79 bd a4 59 79 bc aa af f1 bd a0 a4 43 bd
       -0.061030563 -0.015219126 -0.118010834 -0.04776442
000340 b7 13 a6 3d b3 bb 1d 3d 45 b8 26 bd 08 26 cf bd
       0.08109229 0.038509082 -0.040703077 -0.10114676
000350 7d 4e ea 3c 8d f0 05 3d 66 97 2c 3e ea 25 ac bd
       0.02860188 0.03270011 0.16854629 -0.08405669
000360 ec 4d 86 3d 0c 60 84 bd 44 96 ff bd bb 8b 29 be
       0.06557831 -0.06463632 -0.12479833 -0.16557209
000370 05 32 ad bc e0 29 b3 bc f9 88 e0 bd a1 e9 29 bd
       -0.021142015 -0.021870553 -0.109636255 -0.04148257
000380 bf 3d 80 3d 52 78 b5 bd 54 04 83 bc ac 67 dd bd
       0.06261777 -0.0886084 -0.015993275 -0.108107895
000390 50 05 c5 bb 79 81 6a 3d 1a a0 39 bb 14 d4 44 3e
       -0.006012596 0.05725238 -0.0028324188 0.19221526
0003a0 f4 a3 6a bd 2b bd aa 3c e3 28 c7 bc f9 31 08 3e
       -0.057285264 0.020842155 -0.024311488 0.13300313
0003b0 e6 fe 56 bc 9d 60 c8 3d 9a a6 fa bc b1 17 96 3d
       -0.013122296 0.097840525 -0.03059702 0.073287375
0003c0 48 65 fc ba f3 13 b6 3d 8a d9 88 3c f9 be 04 3d
       -0.0019256258 0.08890524 0.016705293 0.03240869
0003d0 b5 e8 6c 3c 37 20 f7 3c 84 0b 07 be 0e d6 99 3d
       0.014459779 0.030166728 -0.13187987 0.07511531
0003e0 a6 ad 38 3d 1e 74 4b bd c2 e7 d7 bc 44 4b 15 3d
       0.04508748 -0.049671285 -0.026355628 0.036448732
0003f0 f2 0d c3 3d 8a 8e d2 3d 23 ba 45 bd 64 b9 d6 3d
       0.09524144 0.102810934 -0.048273217 0.10484579

layer_2.bias f4 [100]
000000 1d 74 5b 3d 6c e1 9b 3d a6 de a0 bb fb bd eb bd
       0.05357753 0.07611355 -0.0049093543 -0.11510845
000010 9b 95 8b bd ed 34 7e bd 79 7b c1 bc b0 2f 1b bd
       -0.06815644 -0.062062193 -0.023618447 -0.037887275
000020 5b b9 ca bd 61 73 7b bd 02 66 67 bd 02 11 f4 3b
       -0.09898635 -0.06138933 -0.056493767 0.0074483166
000030 c2 73 47 3d 7d 30 68 bd 8e ee 4b 3d 90 86 91 bc
       0.04869438 -0.056686867 0.04978805 -0.01776436
000040 9b e7 60 bc c9 35 11 bd 8e 29 6d bd bf be 20 bd
       -0.013727094 -0.035451684 -0.057900958 -0.03924441
000050 c8 3d 7e bd 7a 2f a1 3d 54 f6 86 bd ca bb e8 bc
       -0.062070638 0.078703836 -0.06589952 -0.028409857
000060 70 80 7b 3d 6d 1e cf ba e2 c0 3d bd 7b d9 a4 bd
       0.061401784 -0.0015801914 -0.046326526 -0.080492936
000070 00 88 9b 3d 60 90 8d 3c e0 08 c4 3c 5d 98 3b bc
       0.07594299 0.017280757 0.023930013 -0.0114499
000080 18 7a 57 bc d9 b3 9b bd fd 26 8c bd e6 81 5d 3b
       -0.013151668 -0.076026626 -0.06843374 0.003379935
000090 82 d2 d1 bd 72 da 03 bd c6 9e 54 bd c0 d7 cf bc
       -0.10245229 -0.032190748 -0.05190923 -0.025371432
0000a0 de 96 12 bd 65 98 ef 3c c1 53 dd 3c 05 d7 16 3c
       -0.03578841 0.029247472 0.027017476 0.009206538
0000b0 f6 95 0b ba f8 96 81 3d ae d2 0d bd 06 ca b8 3d
       -0.0005324775 0.06327623 -0.034624748 0.09022908
0000c0 16 4a 54 bc 8b 27 b6 3d b1 d8 91 3c ef 60 7f 3d
       -0.012957117 0.08894261 0.017803522 0.062348302
0000d0 c7 7c 94 3c b3 dd b7 bb cf 86 7e bd 78 69 ce bc
       0.018125905 -0.0056111454 -0.062140282 -0.025196776
0000e0 50 f2 3b bd 60 b6 5a 3d d0 73 1c bd 8e 24 81 bd
       -0.045885384 0.053396583 -0.038196385 -0.063058004
0000f0 6e b7 29 bc b7 cc ff bc 43 e2 5a 3c 74 cc 10 bd
       -0.010358674 -0.031225545 0.013359609 -0.03535123
000100 ef f7 26 3c c6 10 82 3d bf 1a fc 3b d2 ba 74 3d
       0.010190948 0.063508555 0.007693618 0.05974848
000110 5d 5b 0a 3d c1 bf 83 3d 67 25 0e bd 49 27 b6 3c
       0.033778537 0.064330585 -0.03470364 0.02223553
000120 0b 68 46 bd 47 63 be 3d 18 9d 90 3c 76 f1 d2 bd
       -0.048439067 0.092962794 0.017653033 -0.10299961
000130 08 ec b5 bc 84 89 4f bd 5f 6c 94 bd 78 75 87 3c
       -0.022207275 -0.050668254 -0.07247233 0.016535506
000140 96 51 c8 bc a2 fd bf 3d 9f d0 5c bd 43 a6 4a 3d
       -0.024452966 0.093745485 -0.053909894 0.049474966
000150 43 d9 45 3a 33 92 67 3c ec cb 5a bd 27 9b 47 3c
       0.0007547328 0.014133978 -0.05341713 0.012182987
000160 b1 15 23 3c 18 9f 4e bd 23 b7 51 3d 71 f5 ec 3c
       0.009953902 -0.050444692 0.051200043 0.02892563
000170 48 40 91 3d da ac 6a 3c 78 05 8f 3c 9a 34 d0 3c
       0.07092339 0.014323438 0.017458662 0.025415707
000180 e4 a0 50 3d b0 52 66 bb 02 e8 93 3d 0e 35 0f 3d
       0.050934687 -0.00351445 0.07221986 0.034962706

layer_3.weight f4 [100, 100]
000000 f5 4c 1c bb e6 0c 29 3d 0e 6d d9 3d 47 53 23 bd
       -0.002384958 0.041272067 0.10616504 -0.03987434
000010 7a 3f fa 3c 3a f5 00 bd a5 5e 84 3d 3b d7 ef 3d
       0.030547846 -0.031483866 0.064633645 0.11710974
000020 1a dc 48 bc f8 39 0b 3e 78 0f 80 b9 d4 6b 55 bd
       -0.012259508 0.13596332 -0.00024425588 -0.052104786
000030 9e 29 ce 3c b9 08 16 3d 19 da 8a bd 4c ed 61 3d
       0.025166329 0.036629412 -0.0677988 0.055157945
000040 54 0e 40 3d df b3 d2 3c 8c 51 9c 3c 3e 6f c6 3d
       0.046888664 0.025720535 0.019081853 0.096891865
000050 eb 94 5d 3d 99 bb 54 3d e4 72 cd 3c 81 aa a1 bc
       0.054097097 0.05193672 0.025079198 -0.019734623
000060 55 a6 30 3d c3 c0 39 bc d1 8d 5c 3c bd ac 81 3d
       0.043127377 -0.011337462 0.013461546 0.06331775
000070 56 1b 3c bb 62 ec 1a bc d6 3c db bd 0a 54 81 bd
       -0.0028702817 -0.009455772 -0.10704963 -0.06314857
000080 37 cd 8a 3b 8a 31 da 3d 53 81 cd bd fc d4 4f bd
       0.0042358893 0.1065398 -0.10034432 -0.050740227
000090 ee ec 13 be 5b 87 27 be 5e dd 09 bd 77 cf 6f bb
       -0.1444585 -0.16360228 -0.033658378 -0.0036592165
0000a0 ee 34 99 bd 3c 27 4a bd ee c3 63 bd 4d 48 61 3d
       -0.07480799 -0.049353823 -0.055606775 0.055000592
0000b0 22 f1 d2 3d 54 38 22 bd ab 3c 05 3e 92 b6 ba 3d
       0.10299899 -0.0396045 0.13011424 0.09116854
0000c0 6e ee 74 bd 72 e9 c9 bd dc c6 a0 3d 9b 89 96 3d
       -0.059797697 -0.09858979 0.078504294 0.07350465
0000d0 fe ab ba 3c 4a d3 9c ba eb 30 54 bd f2 48 02 3c
       0.02278709 -0.0011964825 -0.051804464 0.007951962
0000e0 e9 bd a0 3d dd a3 a0 3c 96 31 9b 3b 7c 20 82 3d
       0.078487225 0.019609386 0.0047361357 0.06353852
0000f0 76 21 f1 3d ab 11 5e 3d a1 c9 05 be 90 0b 02 3c
       0.1177396 0.05421607 -0.13065197 0.007937327
000100 5c ac 25 3d fd a5 64 3c ce d5 73 bd 12 ae 84 3d
       0.040447578 0.01395559 -0.059530072 0.06478514
000110 65 d1 fb 3c 4e c8 de 3b 95 35 b9 3d e0 40 88 3d
       0.030739496 0.0067987805 0.09043423 0.06652999
000120 cb a5 c4 3d 00 61 5b 3d 1d 99 a5 ba 1b e8 66 3d
       0.09601935 0.053559303 -0.0012634132 0.056373697
000130 3a 19 c5 3d 95 6f 3a bd 32 33 75 3b 38 cc f9 bb
       0.09623952 -0.04551657 0.0037414548 -0.0076232217
000140 5d 92 17 bd a0 4b 8e 3a 20 c1 83 bc d8 6f 47 bd
       -0.037004817 0.0010856278 -0.0160833 -0.048690647
000150 9a 97 92 3d d5 b1 ff bd 53 2d 39 be 23 86 2a bd
       0.07157822 -0.12485091 -0.18083696 -0.04163183
000160 55 83 67 3d 16 7c ec bd 6c 3e 19 bc 5d d6 9a 3c
       0.056521732 -0.11547105 -0.009353261 0.018901045
000170 27 d3 81 3c f0 fd 2b 3d 1c b2 a7 3d 7d b2 59 bd
       0.015847756 0.04199022 0.081882685 -0.053148735
000180 3b 96 00 be 12 2c 7f bc 1e a2 d9 3d 44 10 e9 bc
       -0.12557308 -0.015574472 0.106266245 -0.028450139
000190 b6 3c 61 3c ad 0a af bd 8a 4d 04 3d 19 1b 2e 3b
       0.013747385 -0.08546958 0.03230051 0.0026566444
0001a0 fa 93 42 3d d9 5e f9 3d 9b f4 06 3e 63 cd 5a 3e
       0.047504403 0.12176294 0.13179247 0.21367411
0001b0 8c f8 74 3c 03 78 5d bd 47 be 9a 3d dc c3 5a 3d
       0.014951836 -0.05406953 0.07555824 0.053409442
0001c0 7b 56 af bd 42 a8 41 be 90 44 24 3d 96 3a 20 bd
       -0.08561417 -0.18911842 0.04010445 -0.039118372
0001d0 08 15 18 bd 99 c5 54 be 7d bc 80 3d 01 cb 1a 3d
       -0.037129432 -0.20778503 0.06285951 0.037791256
0001e0 6b 98 3b 3d ca 6b 08 bd eb fa 05 bd 9b 84 10 3d
       0.045799654 -0.03330592 -0.032709997 0.035282712
0001f0 22 35 9b 3d 86 56 6c 3b e1 40 4b 3d 1a b6 21 bd
       0.07578494 0.0036062314 0.04962242 -0.039480306
000200 ae a8 f6 bd 42 51 50 3d d4 fd 5d bd 8b 75 30 bd
       -0.12043892 0.050858743 -0.054197147 -0.043080848
000210 6f 83 11 3d b2 b8 08 3e 2d 30 c6 3c a8 c6 b9 bd
       0.035525735 0.13351706 0.024192894 -0.09071094
000220 a9 01 bb 3d 65 de 67 bd 96 17 b2 bd 4e 59 6d 3c
       0.09131176 -0.056608576 -0.08695905 0.014486624
000230 68 cf 4b 3c 88 88 b5 bd 0e 87 77 3d 42 93 f9 bd
       0.012439586 -0.08863932 0.060431533 -0.1218629
000240 fe c7 39 3d d8 18 af 3c 3c de b8 bd 24 93 a1 3d
       0.045356743 0.021374151 -0.09026763 0.07889393
000250 06 8c 68 3d 68 c7 ed bd c3 60 f1 39 42 a4 03 3d
       0.05677416 -0.11610299 0.00046039195 0.03213907
000260 14 f0 84 3d 42 2c 3d bd 92 42 ce 3c a4 87 14 3e
       0.06491104 -0.046184786 0.025178228 0.14504868
000270 88 78 90 3d ca a4 21 3d 97 cf a1 b9 21 91 50 3d
       0.070542395 0.039463796 -0.0003086298 0.050919656
000280 6d bb 0c bd e9 91 58 bd 55 ec f2 3c 5a 50 1b 3d
       -0.03435843 -0.052873526 0.029653708 0.037918426
000290 9e 1d 89 bd 71 c2 0f 3d 1d 51 cd bd d5 d1 0c be
       -0.06695102 0.035097543 -0.10025237 -0.1375192
0002a0 fc 42 51 3d 76 c3 63 bb c4 43 4e 3d 10 20 83 3d
       0.051089272 -0.0034753955 0.050357595 0.064026
0002b0 64 14 a6 bd ed d6 0c 3d 10 d4 20 bd 2d 08 7c 3c
       -0.08109358 0.034384657 -0.03926474 0.015382809
0002c0 91 e1 1a 3e 12 55 8e bd 1f 23 94 3d 6f 8d 97 3d
       0.1512511 -0.069498196 0.07233261 0.07400023
0002d0 80 25 fa 3d 1b 74 92 bc 06 c2 9a bd da 2e 4a 3d
       0.12214184 -0.017877629 -0.07556538 0.049361087
0002e0 25 64 9f 3c cf 82 12 3d 73 b7 20 bd 5a 57 00 3e
       0.019456932 0.03576928 -0.03923745 0.12533322
0002f0 46 df 9d 3d 79 1d ca bb e8 b2 b3 3c 06 34 df 3d
       0.07708602 -0.006168064 0.021935895 0.108985946
000300 3f 9a 2c be 12 f5 26 3d 88 dd 06 3d 73 31 b7 bd
       -0.16855715 0.04076106 0.032926112 -0.089449786
000310 d8 02 d5 3d a5 a2 90 3c 88 6e 6f 3d 28 3e 8b 3d
       0.10400933 0.01765568 0.05845502 0.06798965
000320 41 c4 c6 bd dd 8e 70 bd ce ec 95 bd 1e 3a 7e bc
       -0.09705401 -0.058729995 -0.073205575 -0.015516786
000330 2d 10 b7 bd d2 5a ed 3c 5c c5 78 bd 73 20 c8 bd
       -0.08938632 0.02897397 -0.06073509 -0.09771814
000340 28 07 d0 bd 9f f0 aa bd 42 ff 92 3d ec 57 b9 bc
       -0.10157615 -0.08346676 0.07177593 -0.022624932
000350 e8 59 a0 bd d4 56 9d 3d f8 b0 33 bd c7 3a a9 bd
       -0.07829648 0.07682577 -0.043869942 -0.08263164
000360 7f 1b 52 3d 56 ed 1f bc bf eb 88 3c 88 be a0 bc
       0.051295754 -0.009761175 0.016713975 -0.019622102
000370 96 f6 55 bc 94 33 82 3d e0 ef da bd 3b 40 42 3d
       -0.013059279 0.06357494 -0.10690284 0.047424536
000380 4d 3e d0 3d 06 e5 d5 bd 52 f5 ff bc e4 8e c9 bd
       0.10168133 -0.104440734 -0.031244908 -0.09841707
000390 f1 ff 0e bc 56 86 98 bd 85 45 b4 bc ac 69 9d bd
       -0.008728013 -0.074474975 -0.022005806 -0.07686171
0003a0 4c 2f 6e 3d 8b 72 b3 3c 4c 41 57 3d f5 71 eb bc
       0.058150575 0.021905204 0.052552506 -0.028740862
0003b0 f1 99 fb bc c9 8c cb bd 96 3c b6 bd 4c 88 9d bd
       -0.030713053 -0.09938962 -0.088982746 -0.07692012
0003c0 7d 59 4a 3d ab 2d 60 bd 43 d1 78 bd b2 d0 80 3d
       0.04940175 -0.054731052 -0.060746443 0.062898055
0003d0 bf 76 bb bd 82 1a bc 3d e9 0b b3 bd 63 39 ed bd
       -0.091535084 0.091847435 -0.08742506 -0.11583211
0003e0 c2 d1 c9 bc 6c 51 ed bc 81 94 a2 3d 75 06 b1 bc
       -0.024636153 -0.028969489 0.07938481 -0.021609524
0003f0 c5 64 c2 3c 71 41 b6 3c a8 ea e0 bd f5 fe 22 3d
       0.023729691 0.022248002 -0.10982257 0.039793927

layer_3.bias f4 [100]
000000 b4 51 d0 3d bf 5c 59 bd 52 3c 3e 3d ee 1e 74 3c
       0.10171834 -0.053066965 0.046444245 0.014899952
000010 ad 34 58 bd a2 4d 4c bc 95 c9 b8 3d 32 58 68 3d
       -0.05278461 -0.012469681 0.09022824 0.056724735
000020 d4 43 e1 bd 57 9a 9a 3c 97 5d 9e bc 76 7c 4c bd
       -0.10999265 0.018872423 -0.019331736 -0.049923383
000030 1c 23 b1 3d 7b 71 23 bd be e4 9b bc d1 46 f2 3c
       0.08649275 -0.039903145 -0.019029971 0.029574784
000040 f6 34 1f bd 5a b9 a5 3d c0 a4 bc 3c 27 88 8f 3d
       -0.038868867 0.08091994 0.023027778 0.07008391
000050 42 2b 37 3d 59 7b c7 3d b8 a7 17 3d db 5b 76 3b
       0.04471899 0.097403236 0.037025183 0.0037591371
000060 81 5f 03 be 10 a1 3b 3b 99 b5 8c 3c d8 95 fa 3d
       -0.128294 0.0028629936 0.017176436 0.12235612
000070 55 f8 1b 3c f8 52 69 3d eb e8 61 bd 7e c8 c8 bd
       0.009519656 0.05696389 -0.05515377 -0.09803866
000080 64 ea 15 bd f3 76 59 bd 89 75 6e bd 34 88 01 bc
       -0.036600485 -0.053091954 -0.05821756 -0.0079060085
000090 29 29 b4 bc e6 30 63 3d f1 8d 2a 3d 25 9c 20 3d
       -0.021992283 0.055466555 0.041639272 0.03921141
0000a0 8d 28 4d 3d bb 5b e7 3d 50 d6 e2 bc a7 24 13 3c
       0.0500875 0.11296793 -0.027690083 0.008980907
0000b0 e7 0c d1 bc 54 ba d3 bd 3a 79 71 3d 98 a7 2c 3c
       -0.025518848 -0.10338274 0.0589535 0.010538004
0000c0 3e ff 00 be bd b0 68 3b fe 26 25 3d 61 ed cd bd
       -0.12597367 0.0035505735 0.04032039 -0.10055042
0000d0 c0 34 bf 3d 9a 87 80 bd 65 cb 4d bd f8 44 0d 3d
       0.09336233 -0.06275864 -0.0502428 0.0344896
0000e0 e8 86 35 bc 03 63 3a 3d 8e be b9 bc 9c 9f 3f 3d
       -0.011079527 0.04550458 -0.022673871 0.046783075
0000f0 21 63 91 bc 1e d2 9e bd 5e 8e a1 bd f9 70 89 bc
       -0.017747464 -0.077549204 -0.078884825 -0.016777502
000100 a9 30 a3 bd 0e 11 13 3d 30 12 45 3d 17 44 f1 bd
       -0.079682656 0.035904936 0.048113048 -0.11780565
000110 38 31 e6 3b 91 df 8e 3d a6 12 65 bd e1 b8 0e be
       0.0070249103 0.06976236 -0.055925988 -0.13937713
000120 7d 72 48 bc a3 b6 81 bd f9 7d 8c 3d 79 4d 95 bd
       -0.012234327 -0.06333663 0.06859965 -0.07290167
000130 11 06 b3 bd ba 15 89 3c 4a da 35 3d 2f c8 7d 3d
       -0.087413915 0.016733993 0.04439763 0.061958488
000140 2f f8 5c bd 6c 79 8f bd a2 db ba bd fa b1 40 3e
       -0.053947624 -0.07005581 -0.09123923 0.18817893
000150 07 fb 2e 3b 91 fe 80 bd b9 81 30 3d 7a 30 ea 3d
       0.0026699917 -0.06298555 0.043092463 0.114350274
000160 c5 64 ef 3c c0 a3 b6 3c f4 c3 86 3c a8 8a 85 bc
       0.029222855 0.022294879 0.01645086 -0.016301468
000170 2a a8 e0 bd 83 14 5b bc f7 5a 8c bc 25 92 b6 bd
       -0.10969575 -0.01337159 -0.01713322 -0.089145936
000180 df d1 0a 3d 9e 45 8e 3d cc a7 bf 3d 6e 8b d6 3c
       0.033891555 0.06946872 0.093581766 0.026189532

layer_4.weight f4 [100, 100]
000000 24 e3 ae bd d1 20 5f 3d e6 a5 0d 3d 67 ac 11 be
       -0.085394174 0.054474656 0.03458204 -0.14225923
000010 e0 4e 9d 3b a3 cd 61 bc 2b 71 95 3d cc f3 c0 3c
       0.0048006624 -0.013781938 0.07296976 0.023553751
000020 43 65 d4 3d d1 67 d0 bd de 53 d9 3c a0 ce c5 3d
       0.10370877 -0.101760514 0.026529249 0.09658551
000030 16 b6 86 bd 00 e9 86 bb 1d 6d 0e bd 9f 0c 16 3c
       -0.06577699 -0.0041171312 -0.034772027 0.009158283
000040 6a f7 a2 bd 53 4f 75 3d df 19 cb 3c 3d fb 95 bd
       -0.07957347 0.059890103 0.02479261 -0.073233105
000050 ac bd 19 3d df e0 d9 3c 7b 95 f9 3b 7c 1d 0f 3d
       0.0375344 0.026596485 0.0076166964 0.034940228
000060 e8 20 a2 3d 2f 98 57 bd 41 84 2e bd c1 f3 b8 bd
       0.079164326 -0.052635368 -0.042606596 -0.09030867
000070 f5 73 8c bd f2 79 2e 3e ee ae 58 3d 4c 85 3b bc
       -0.068580545 0.17038706 0.0529012 -0.011445355
000080 7f 19 e0 bb d3 18 e2 bc 83 64 a8 3d f1 79 bd bd
       -0.006838977 -0.027599728 0.08222296 -0.09251774
000090 a1 14 b2 bc d5 66 c5 bb 78 01 da bc 27 50 95 bd
       -0.021738352 -0.0060242214 -0.026612028 -0.072906785
0000a0 9d bb d6 3d b6 41 c2 3d 6b af 9a bd 93 02 b1 bd
       0.10485003 0.094851896 -0.075529896 -0.08643069
0000b0 0b 60 45 bd 42 fa 40 3d 66 94 b3 bc fc 22 d9 bd
       -0.048187297 0.047113664 -0.021921348 -0.10602376
0000c0 9f 5c 91 3d 0d 61 f0 bd c4 35 ac 3d 78 2c a7 bc
       0.07097744 -0.11737261 0.084086925 -0.020406947
0000d0 c5 6a b9 3b 9c 07 4a 3c 84 a5 32 3d 55 76 fa 3c
       0.00565848 0.012330916 0.04361488 0.030574003
0000e0 86 f5 74 3d d2 16 62 3d 3f c0 46 bd da 19 b9 3c
       0.059804462 0.055197544 -0.048523184 0.022595335
0000f0 f5 79 0e bc f7 48 a8 bd e9 ac 9d bd 69 3d 3b 3d
       -0.008696069 -0.08217042 -0.076989956 0.045712862
000100 f2 21 68 3c 6c b8 af 3c ad da 70 bd 05 0d 8e 3d
       0.014168249 0.021450244 -0.058802295 0.06936077
000110 ba 9d a6 bd e2 ca 35 3d 19 c6 d0 bd 7a 81 1c bd
       -0.08135553 0.044382937 -0.10194034 -0.038209416
000120 2d b2 04 3d e4 08 82 bd 65 6c fb bc 8b a8 38 bd
       0.032396484 -0.06349352 -0.030691335 -0.04508261
000130 51 3c 9d 3b bb 32 1b bd 55 4d a6 bc 60 7e 52 3d
       0.00479845 -0.037890177 -0.020300547 0.05139005
000140 f3 0e 8b 3d 3c 38 c1 3d b8 1c e2 bd 24 be 2d 3d
       0.06789961 0.09434554 -0.11040634 0.04241766
000150 7f 8f 71 bd 9b 53 8c 3d 18 51 0d bd 76 38 1f bd
       -0.05897474 0.06851884 -0.034501165 -0.038872205
000160 1e b9 ac 3b 57 34 11 3d c7 11 59 3b d1 75 c6 bd
       0.005271091 0.035450306 0.0033122168 -0.096904404
000170 c9 c4 80 3d 86 58 e8 bd 74 04 1b bd 6a ef d6 3c
       0.06287534 -0.113450095 -0.037846044 0.026237208
000180 d1 b4 96 3d 7b 3b 91 3c de 45 23 3d 90 70 8b bd
       0.07358707 0.017728558 0.039861552 -0.06808579
000190 c7 51 ad bc ae 8c f7 bb fc ad d1 bc e2 d6 0f bd
       -0.021157159 -0.007554612 -0.025595658 -0.035117038
0001a0 63 39 a6 bd 72 a7 a5 3d 99 52 84 bd ce 6f 6e bc
       -0.081164144 0.08088578 -0.06461067 -0.0145530235
0001b0 f9 fc bc bd b7 e3 99 3c a4 03 b2 bd 5a 40 79 bd
       -0.09227938 0.01878534 -0.08692101 -0.060852386
0001c0 2f a6 95 3d ac d1 05 bc bc 2f 03 3e db 72 8e 3c
       0.07307088 -0.008167665 0.12811178 0.017388752
0001d0 09 d9 8a 3c 6a d4 4e 3d 52 0b ad 3d 84 41 26 3d
       0.016949194 0.050495543 0.08449425 0.040589824
0001e0 f1 eb 81 bd 32 a7 16 be 09 67 fb bd 01 cd a3 3d
       -0.063438304 -0.14712217 -0.12275512 0.07998086
0001f0 a8 6c 48 bd 94 b6 f2 bc 35 7b 8a bc b6 94 ae bc
       -0.048931748 -0.029628076 -0.016904453 -0.021311145
000200 37 88 e3 3c fe ac 7f 3d 23 46 a1 bc 4c b0 1d bd
       0.027774913 0.062420838 -0.019686764 -0.038498208
000210 cc 3a a1 3d 38 69 90 bd 2a 00 b8 3c 3b ea 0a 3c
       0.07872543 -0.07051319 0.022461016 0.008478696
000220 34 55 64 3c 08 ca ac 3d 40 fe be 3d ad 7a 94 3d
       0.01393633 0.08436972 0.09325838 0.07249961
000230 da d5 d8 3d 34 32 78 3d 26 81 75 3d 6d 9f da bd
       0.10587664 0.060594752 0.05993762 -0.10674939
000240 7e fe d7 bd c8 c7 bd bd 8d db 01 be 94 cf aa 3d
       -0.105465874 -0.09266621 -0.12681408 0.08340374
000250 a7 a7 68 bc ab 97 d3 3c 71 de 1f bd 1b 30 b7 bd
       -0.014200128 0.025829157 -0.039030496 -0.08944722
000260 ea 6e d9 3d 98 3d 27 3c 7e 76 1d 3c 63 40 da bb
       0.10616858 0.010207556 0.00961077 -0.0066605075
000270 2b 83 8c 3c 8b 80 cc 3d ab 6a 9e bd 16 9d a2 bc
       0.01715239 0.09985455 -0.07735189 -0.019850295
000280 7f 5c c1 bb f1 eb 93 3d 3f 1c 1f bd 84 0d d7 bc
       -0.005900919 0.072227366 -0.038845297 -0.026251562
000290 8c 45 72 bd 71 9a 50 3d 22 f2 a0 3c 2f b4 9f bc
       -0.059148356 0.050928537 0.019646708 -0.019495098
0002a0 2e ed 35 3d 45 da 7c 3b ac 77 99 3d 2f 8a 09 be
       0.044415645 0.0038582247 0.07493529 -0.13431619
0002b0 8d f4 3e bd 66 73 89 bd 92 30 fc bc 8b 6e 4a bb
       -0.04661994 -0.06711464 -0.030784879 -0.0030888643
0002c0 d6 35 85 bc 23 20 5f bd bd 7d b0 bc f2 e4 0e bd
       -0.016261023 -0.054474007 -0.021544332 -0.034886308
0002d0 72 03 34 3d d6 f4 77 3c b1 11 80 3d 8a f1 b0 bc
       0.0439486 0.015134057 0.06253374 -0.02159955
0002e0 85 fd c0 bd 1f b1 1c 3d ff 6d 1b bd ff ab 83 3d
       -0.09423355 0.038254853 -0.037946697 0.0642929
0002f0 82 3c 9c 3c dc 99 71 bc 1b 44 0d 3d e2 89 b9 3d
       0.019071821 -0.014746156 0.03448878 0.09059502
000300 7f 76 95 3d 6f 50 26 3d 18 2c d4 3d d6 92 2e bd
       0.07297992 0.04060405 0.10359973 -0.042620502
000310 46 f4 80 bd a5 75 de bd 14 eb 76 3d 2f a0 3b 3d
       -0.062965915 -0.10862283 0.06028278 0.04580706
000320 de 2e f6 3c 4c e3 ce bd 66 7c 1b 3d fe e7 0e 3e
       0.030051645 -0.10101947 0.037960432 0.13955685
000330 12 db f7 bc c4 ed b1 bd f2 be 7d 3a a3 3e 93 3d
       -0.030255828 -0.08687928 0.0009679637 0.071896814
000340 7c 8f 26 3d 07 cb 18 3c 8f bc c9 bc ab 81 e0 ba
       0.04066418 0.009325749 -0.024626045 -0.0017128488
000350 47 01 e3 3c f6 99 48 bd 60 0f ac 3d c2 47 b4 3d
       0.02771057 -0.048974954 0.0840137 0.08802749
000360 12 97 9e bc 39 bb 48 bc 13 0a 1e 3b 19 02 08 bd
       -0.019359145 -0.012251669 0.0024114891 -0.033205125
000370 47 8e 87 bd b0 d2 18 3c 08 e9 0e 3c 1e c4 a9 bd
       -0.06618934 0.009327576 0.008722551 -0.082893595
000380 52 e2 89 3d b3 ce a1 3c e6 0c aa bd 59 c3 4d 3d
       0.0673262 0.019751882 -0.083032414 0.050235126
000390 0b 5b 15 3d 54 8b 6e bd a5 0c ee 3a 69 69 b1 3d
       0.03646378 -0.058238342 0.0018161727 0.086626835
0003a0 ed 4f dc bd f1 50 ba b9 3f 4a 07 3d a8 e4 99 bd
       -0.10757432 -0.0003553699 0.03302979 -0.07514316
0003b0 f6 d1 11 3e 48 cb 37 bd 19 d6 03 3e e7 bf 6c bc
       0.1424025 -0.0448716 0.1287464 -0.01445005
0003c0 a7 0f dd bd 16 84 19 3e 81 d5 84 bd 88 ac 87 bd
       -0.10794001 0.14991793 -0.06486035 -0.066247046
0003d0 5b e1 3b bd e3 75 9b 3d 7c a5 c3 3b 7c 9d 2d bd
       -0.045869213 0.075908445 0.005970655 -0.042386517
0003e0 60 1a 3c bd 4a ce 2e 3c 1f 80 86 3d 46 13 4c bd
       -0.04592359 0.0106693 0.06567406 -0.049823068
0003f0 92 2d 3b 3d 97 3e c0 3d 68 62 ad bd e5 8e 12 3e
       0.045697756 0.09386938 -0.08466035 0.14312322

layer_4.bias f4 [100]
000000 73 b7 f5 bc d7 7e a5 3d 92 7c 20 3e da ed c5 bd
       -0.029994702 0.080808334 0.1567252 -0.09664507
000010 b4 e7 c4 3c 8b f9 fd 3d 3f 00 87 bd 7f 82 0f 3e
       0.024036266 0.12401112 -0.06591844 0.14014624
000020 58 85 c3 3c 2c a2 c7 3d f7 50 ed bd a7 81 47 3b
       0.023867294 0.09747729 -0.115877084 0.003044227
000030 c6 3d 74 bd 9b 4b fd 3d 5e cd b1 bd 9f 80 87 bb
       -0.059629224 0.12367936 -0.08681749 -0.004135206
000040 67 45 49 3d 1e 13 5d 3d 52 0b c1 bd 46 e3 ac bd
       0.049138453 0.05397331 -0.09425987 -0.084417865
000050 43 c2 5a bc 55 37 50 3d 41 ff d4 bb 5a 07 96 3d
       -0.01335198 0.05083402 -0.006500155 0.07325621
000060 14 7e 7c bd 2d aa b7 bd a9 e2 90 bc 1b 1a 1e bd
       -0.061643675 -0.08968005 -0.017686205 -0.038599115
000070 ed c7 ac bd 48 79 7e bd cc 69 09 3e 83 f0 b2 bd
       -0.0843657 -0.06212738 0.13419265 -0.0873728
000080 9d 37 21 bc cd 3a b2 3d b6 0a 47 bd e1 dd f5 3c
       -0.009839919 0.087026216 -0.0485942 0.030013027
000090 84 4a c3 3d 26 78 27 bd 46 66 13 bd d8 69 34 3d
       0.09535697 -0.040886067 -0.035986207 0.044046253
0000a0 8a 6f f9 bc a9 90 d7 ba c4 b4 82 bb 50 e2 17 3d
       -0.030448694 -0.001644631 -0.003988834 0.037081063
0000b0 46 ce 0d 3d bc 6b 70 bd 1c 2a b0 bc c3 e2 11 3d
       0.034620546 -0.058696494 -0.021504454 0.035616647
0000c0 16 9d 6c 3d cb 3f 1e 3e 1b 93 4f bd 2a a2 17 bc
       0.057766996 0.15454023 -0.0506774 -0.0092549715
0000d0 24 54 0a 3d 12 3c 10 3e 30 88 17 bc bb 1a b2 bc
       0.03377165 0.14085415 -0.009248778 -0.021741262
0000e0 a7 b2 17 3c 5e dc 92 bd f5 24 22 3b cf 76 2d 3e
       0.009258903 -0.07170938 0.0024741266 0.16939853
0000f0 9a f8 f6 3d 2c 34 c4 bd 06 c7 e1 3d be a7 ce 3d
       0.12059136 -0.095802635 0.11024289 0.10090588
000100 85 0a af 3d 3b b4 d9 3d 68 24 11 bd 51 3c 0b 3e
       0.08546928 0.10630079 -0.03543511 0.13597228
000110 68 7d 74 bc eb 29 59 bd 67 db 8c bd 6b 9c e7 bd
       -0.014922477 -0.05301849 -0.06877785 -0.11309131
000120 71 0b ff 3d c0 e7 f5 3d fa d9 92 bd 74 d6 45 3d
       0.12453354 0.120070934 -0.07170482 0.04830022
000130 55 ed 5b 3d 53 5d 81 3d 14 9c e3 bd 38 e1 95 bd
       0.053693134 0.06316628 -0.11113754 -0.07318348
000140 71 da 06 3e f2 77 96 3d 09 df 65 3d 99 6b c7 bd
       0.13169266 0.073470965 0.056120906 -0.097373195
000150 6e 1d 79 bd 46 7c 62 3d e9 5c 22 3d ab 5c 8c bd
       -0.060819082 0.055294298 0.039639387 -0.068536125
000160 48 82 0a 3d 2e f6 ab 3c e8 69 fa bc b9 d8 fa bd
       0.033815652 0.020991411 -0.030568078 -0.12248368
000170 b0 a7 c9 3a 9e dc 66 3b 9b 68 4c bd c9 a1 67 3c
       0.0015385058 0.0035226713 -0.049904447 0.014137694
000180 b0 c8 7e bd dc 55 a2 3d 10 ea 8a 3c 9a b2 2d bd
       -0.06220311 0.079265326 0.016957313 -0.042406656

output_layer.weight f4 [1, 100]
000000 3a 83 ee bb 6e 9d 5a bd 37 76 5e bd 79 9a 4f 3c
       -0.007278827 -0.053372793 -0.054311957 0.0126711065
000010 f2 b5 a2 3b 32 0a 9b 3d 1c 9e c2 bc e4 a7 a9 bd
       0.004965537 0.07570304 -0.023757033 -0.08283976
000020 07 84 3c bd 94 e5 87 bd 39 ef 6a 3d 08 7c 48 bb
       -0.04602435 -0.066355854 0.057357047 -0.0030591507
000030 eb ba b5 3c ce 02 cb 3d 01 ef bb bc c5 52 93 bd
       0.022183856 0.09912644 -0.022941114 -0.071935214
000040 90 02 0a 3d 99 57 eb 3d cd a4 1d 3d 83 dd a4 3d
       0.03369385 0.11491317 0.038487244 0.080500625
000050 9c bb ab 3d 92 92 0f 3d 80 c2 ca 3d 4d 74 91 3c
       0.08385393 0.03505189 0.09900379 0.017755652
000060 ee f7 6a bd cf 9d 28 bd 6e 79 74 bc 43 eb 4f bd
       -0.05736535 -0.041166123 -0.014921529 -0.050761472
000070 19 b0 61 3d e3 84 a7 3c 10 63 cd bd 3e da f4 3b
       0.05509958 0.020449108 -0.1002866 0.0074723056
000080 76 4e 9c ba f3 79 ff bc a5 dd 01 3c 4c 3a 82 3c
       -0.0011925239 -0.03118608 0.007926379 0.015896939
000090 39 51 95 bd 1d 98 8b bd d9 89 72 bd 19 6c 90 bd
       -0.072908826 -0.06816123 -0.059213493 -0.07051868
0000a0 a6 67 46 3d 2f ad b8 3d 95 ef 50 3c 58 eb 62 3d
       0.04843869 0.09017407 0.012752433 0.055400223
0000b0 c5 26 7b 3d 22 38 3e 3d e2 55 bd 3b 35 e8 0d 3d
       0.06131627 0.04644025 0.0057780603 0.034645278
0000c0 ad 07 9b bd 13 53 8e bd 49 ab 7c bc 8d bc 9b ba
       -0.075698234 -0.06949439 -0.015421697 -0.0011881754
0000d0 f4 83 ac 3c b1 e0 ea bd a8 5f e0 3c 75 f3 dc 3b
       0.021059014 -0.11468638 0.027389362 0.0067428895
0000e0 b1 a3 a1 3d 25 92 81 3b be 10 70 3d a1 c5 79 bd
       0.0789255 0.0039541894 0.058609717 -0.06097949
0000f0 e0 37 cb 3d 84 d5 72 bc 87 47 86 3d 3b 19 ad bd
       0.09922767 -0.014821414 0.065566115 -0.08452078
000100 6c fe 75 3c b6 92 2f bd cb 06 98 bb 1d 9f d8 bd
       0.015014272 -0.042864524 -0.0046394817 -0.105772234
000110 0b cf 94 bd f1 b2 a9 bc f6 39 98 bc 6d bf ea 3c
       -0.07266053 -0.020715209 -0.018582325 0.028655732
000120 fd d6 9e bd 27 7e f2 3d b7 f0 31 bb 83 76 3b 3b
       -0.077558495 0.11840468 -0.0027151534 0.0028604574
000130 61 9c a3 3c 5b a4 69 bd 42 c9 ad 3b cb a9 91 3d
       0.019972028 -0.057041507 0.005303533 0.071124636
000140 43 d0 8d bd 0d bc 2c bd 7b d6 bc bd a3 02 43 ba
       -0.069244884 -0.042171527 -0.092205964 -0.00074390526
000150 96 a1 89 bc 16 b6 83 bd af 60 17 bd 45 c9 a7 bc
       -0.016800683 -0.064312145 -0.03695744 -0.020481715
000160 18 dc 5c 3d a4 dc 8f bd 6c f1 06 3e 36 8d 77 3a
       0.053920835 -0.07024506 0.13178033 0.00094433443
000170 5b 68 07 3c a9 a7 eb bc 2a 51 1a ba 90 a7 8a bd
       0.008264626 -0.02876647 -0.0005886728 -0.06770241
000180 dc 3a 1f 3c c7 a6 55 bd 5c a8 98 bd 0f 56 76 3d
       0.009718623 -0.052161004 -0.07453987 0.060140666
