3_3_3_X.pth (torch_old, 129963 bytes, 9 tensors)

layer_1.weight f4 [100, 16]
0	0xbd102423	-0.035190713
1	0x3de258e5	0.110521115
2	0xbe6806d5	-0.22658856
3	0xbe8065df	-0.2507772
4	0xbdb243ee	-0.08704363
5	0x3d250df2	0.040296502
6	0xbd566de9	-0.052350912
7	0x3e14c94e	0.14529917
8	0xbd053740	-0.032523394
9	0x3d3db2f0	0.046313226
10	0xbdd054bb	-0.10172411
11	0xbdb6b074	-0.089203745
12	0xbe851b98	-0.25997615
13	0xbe44d03a	-0.19220057
14	0xbe300ab3	-0.17191581
15	0x3c71766f	0.014737709
16	0x3d90d4c8	0.07071835
17	0x3e74058b	0.2383024
18	0xbda7e545	-0.081980266
19	0xbddaf00d	-0.10690317
20	0x3e5383ed	0.20655794
21	0x3e771d52	0.24132279
22	0xbd83b51f	-0.064310305
23	0x3e4e0bb9	0.2012166
24	0x3d11108b	0.035416167
25	0x3e0713b9	0.13191117
26	0x3e7a7491	0.24458529
27	0xbe54abef	-0.20768712
28	0xbe00c1e8	-0.1257397
29	0x3d1c6566	0.03818264
30	0xbd98d5d8	-0.074626625
31	0x3e7dee9d	0.24798055
32	0xbe32a9b8	-0.17447555
33	0xbe08d028	-0.13360655
34	0xbe59a47c	-0.21254152
35	0xbe6dcec6	-0.23223409
36	0xbe4fc4e6	-0.20289955
37	0x3e4558e8	0.19272196
38	0x3de3c78f	0.11122047
39	0x3dc0e793	0.09419169
40	0xbc9e8550	-0.019350678
41	0xbe07bc9e	-0.13255545
42	0xbc1c5a8f	-0.009543075
43	0xbe847e7e	-0.25877756
44	0xbe4caf32	-0.19988707
45	0xbe43236b	-0.1905648
46	0x3e0b95ec	0.1363141
47	0x3e044019	0.12915076
48	0xbe26c25a	-0.16285077
49	0x3bb52f66	0.005529332
50	0x3e2cc33e	0.16871354
51	0x3e3a19a2	0.1817384
52	0x3dfe3a3d	0.12413452
53	0xbcc191de	-0.023629125
54	0x3dbbae7d	0.091641404
55	0xbe1b7f67	-0.15185319
56	0x3d268a9f	0.040659543
57	0xbdf83fea	-0.12121566
58	0xbe64483c	-0.2229318
59	0xbdfd3fd2	-0.123656884
60	0x3deb0ad1	0.114766724
61	0x3c52306a	0.012828926
62	0xbda69364	-0.08133581
63	0x3c2e0ea4	0.010623608
64	0x3e48f92c	0.19626302
65	0xbd55c4ef	-0.052189764
66	0x3b973157	0.004614036
67	0x3dcae16b	0.09906276
68	0x3de0be0d	0.10973749
69	0x3e9df34e	0.3084969
70	0xbe126ebe	-0.14300057
71	0xbd808168	-0.06274682
72	0x3e11b12d	0.14227743
73	0x3e3218e0	0.17392302
74	0x3e8194bb	0.25308785
75	0x3e60a802	0.2193909
76	0x3cd46e64	0.025931545
77	0xbe0a008e	-0.13476774
78	0x3d5f244d	0.05447798
79	0xbdb81514	-0.08988395
80	0xbe887f13	-0.2665945
81	0x3e13695d	0.14395662
82	0x3e97180d	0.29510537
83	0xbe9c9aad	-0.30586758
84	0x3db40951	0.087908395
85	0xbcf4c34e	-0.029878285
86	0xbd193d7c	-0.03741215
87	0xbe0be73d	-0.13662429
88	0x3caba316	0.020951789
89	0xbe037907	-0.12839137
90	0x3e17ba68	0.14817202
91	0x3e2a10c1	0.16607954
92	0x3e1a8f93	0.15093832
93	0x3db80490	0.08985245
94	0xbe5204c4	-0.2050963
95	0xbe4436ed	-0.19161578
96	0x3dea85a3	0.114512704
97	0x3d5cb289	0.053881202
98	0xbe008960	-0.12552404
99	0xbde388f1	-0.11110104
100	0x3e80ea62	0.2517882
101	0x3e271d3a	0.16319743
102	0xbdf69e7e	-0.12041949
103	0xbd53b7ec	-0.051689073
104	0xbe8b6dbc	-0.27232158
105	0x3d9a1014	0.07522598
106	0xbe225b19	-0.15855063
107	0xbdb28283	-0.087162994
108	0xbcd5696d	-0.026051247
109	0x3ba98742	0.0051735947
110	0x3a81ed67	0.000991267
111	0x3d771417	0.060321894
112	0xbe06bc96	-0.13157877
113	0x3ea6fb1b	0.32613453
114	0x3e426058	0.18982065
115	0xbdd6b579	-0.10483832
116	0xbdf0a706	-0.11750607
117	0x3d92512b	0.07144388
118	0x3e13d186	0.14435396
119	0x3dd01e9d	0.10162089
120	0x3da63816	0.08116166
121	0xbaa43a94	-0.0012529665
122	0xbcd390ab	-0.025825819
123	0x3dd45ea6	0.10369615
124	0xbe80bbc3	-0.2514325
125	0xbd4fca79	-0.050730202
126	0xbc9ca0c7	-0.019119633
127	0xbe230b08	-0.15922177
128	0xbe34e2ab	-0.17664592
129	0xbde77540	-0.113016605
130	0x3b91e0b2	0.0044518346
131	0x3d8690ef	0.06570613
132	0xbdbf0d43	-0.09328701
133	0xbcc5d8a0	-0.024151146
134	0x3e186a7e	0.14884374
135	0xbcd173b9	-0.025567876
136	0x3b863789	0.004095976
137	0xbcb71b41	-0.022351863
138	0x3dd7a923	0.10530307
139	0x3e1c2ec0	0.15252209
140	0x3e912151	0.2834573
141	0x3e3c2f3b	0.18377392
142	0x3e3fca8f	0.18729614
143	0xbdade2c5	-0.084905185
144	0xbe5558d7	-0.20834671
145	0xbe25fdca	-0.16210094
146	0x3e2d5ecf	0.16930698
147	0x3c3a56b7	0.0113732135
148	0xbe0c8105	-0.13721092
149	0xbe899d10	-0.26877642
150	0xbe69a83c	-0.22818083
151	0xbe7a2b2f	-0.24430536
152	0xbd2eb260	-0.04265058
153	0x3e054c2e	0.13017341
154	0x3dcd21b9	0.10016198
155	0xbe791569	-0.24324574
156	0x3e16c8f9	0.14725102
157	0xbe4337ed	-0.19064303
158	0xbde74f6a	-0.11294444
159	0xbdd28c1a	-0.102806285
160	0xbd09865b	-0.033575397
161	0xbd39d65d	-0.04537045
162	0xbe7a6586	-0.2445279
163	0xbdd73dfb	-0.10509869
164	0xbcb98f81	-0.022651436
165	0xbd469074	-0.048477605
166	0xbcddeaae	-0.027089443
167	0x3e00112f	0.12506555
168	0xbe8e3b49	-0.27779606
169	0x3ccbcffa	0.024879444
170	0x3e474ef6	0.19463715
171	0xbe1d1dba	-0.15343371
172	0x3e96d79f	0.2946138
173	0x3db5fdcd	0.08886299
174	0xbe7f2bf8	-0.24919116
175	0x3e03ad0c	0.12858981
176	0xbb0ff284	-0.002196462
177	0xbe15acb2	-0.1461666
178	0x3e78e813	0.2430728
179	0xbd6d632a	-0.0579559
180	0x3cdc57fa	0.02689742
181	0xbdb5df5c	-0.08880493
182	0x3e703b12	0.23460034
183	0x3e1aba14	0.15110046
184	0x3dcc38b2	0.09971751
185	0x3d4071c2	0.046983488
186	0xbccc21e2	-0.0249185
187	0xbc59e0d4	-0.013298232
188	0xbe1e9edf	-0.15490292
189	0x3dfb5431	0.122719176
190	0x3e0faf18	0.14031637
191	0x3e374352	0.17896774
192	0xbe47c447	-0.19508468
193	0x3df362f3	0.118841074
194	0xbe65a995	-0.22427972
195	0xbe12cce4	-0.14335972
196	0xbdbaa459	-0.09113378
197	0x3c3687c7	0.01114077
198	0xbe0b72d4	-0.13618022
199	0xbc94a1e2	-0.018143598
200	0x3ce40e8a	0.027838964
201	0x3e20eedb	0.15716116
202	0xbe99b91e	-0.30024046
203	0xbe666696	-0.22500071
204	0xbe0cb4c4	-0.13740832
205	0x3e3c5160	0.18390417
206	0xbe3ca773	-0.18423252
207	0x3e485825	0.19564874
208	0x3d3fe1ad	0.04684608
209	0x3ccbbbc1	0.024869801
210	0x3da48cfe	0.080347046
211	0xbd4751e1	-0.04866207
212	0x3cd97d88	0.026549116
213	0xbd3aab78	-0.04557368
214	0xbd0f9cdc	-0.035061702
215	0x3ca0db59	0.019635843
216	0xbe6ace95	-0.22930367
217	0xbd85a030	-0.06524694
218	0x3e741ff4	0.23840314
219	0xbe2524d3	-0.16127329
220	0x3b29b256	0.002589365
221	0x3e454420	0.19264269
222	0x3e00a27c	0.12561983
223	0xbcfff65c	-0.031245403
224	0xbe7bff6e	-0.24609157
225	0x3e3bb162	0.18329385
226	0xbe6dce19	-0.23223151
227	0xbcc64801	-0.024204256
228	0xbdf4ebc8	-0.11959034
229	0xbda483a6	-0.080329224
230	0x3ce4d6f4	0.027934529
231	0x3e4aa7d8	0.1979059
232	0x3dac2544	0.08405545
233	0x3e7cf25f	0.24701832
234	0x3dd400af	0.10351693
235	0xbdc6e2df	-0.09711241
236	0x3d8275da	0.06370135
237	0xbe531fdb	-0.2061762
238	0xbd1a4a63	-0.037668597
239	0x3cd5bb29	0.026090221
240	0x3d7155e4	0.058919802
241	0x3e3fecbb	0.1874265
242	0xbdbfb888	-0.093613684
243	0xbc3f484f	-0.011674955
244	0x3da39c86	0.07988839
245	0xbe8d6740	-0.27617836
246	0x3e3bf4af	0.18355058
247	0xbe85c55e	-0.26127142
248	0x3c3b4760	0.011430591
249	0xbccacd38	-0.024756059
250	0xbe46b45b	-0.19404738
251	0x3d9ffff7	0.07812493
252	0x3e305e65	0.17223509
253	0xbdeb8f50	-0.11501944
254	0xbe1930e9	-0.14960064
255	0xbdf14047	-0.11779838

layer_1.bias f4 [100]
0	0xbe1790a2	-0.14801267
1	0x3e781304	0.24226004
2	0x3e2ed01e	0.17071578
3	0xbdc523db	-0.096259795
4	0x3b2790aa	0.0025568404
5	0xbd174eb9	-0.03694031
6	0x3d0d2a80	0.03446436
7	0x3d81782f	0.06321751
8	0xbe3fd5e4	-0.18733937
9	0x3d3076d2	0.043082066
10	0x3d041232	0.032243915
11	0xbba4ead7	-0.005032878
12	0xbd104f6c	-0.035231993
13	0x3c896819	0.01677327
14	0xbe705c5c	-0.23472732
15	0x3d8b9216	0.06814973
16	0x3e08f41b	0.13374369
17	0xbd8b0979	-0.06788916
18	0xbe65c29b	-0.22437517
19	0xbc99665f	-0.018725572
20	0x3e012647	0.12612258
21	0xbe393f01	-0.1809044
22	0xbe42997f	-0.19003867
23	0x3e8aee62	0.27134997
24	0x3e57e855	0.21084721
25	0x3deb3926	0.114855096
26	0x3e05e759	0.13076533
27	0x3d8ef9d5	0.069812454
28	0x3dcd1ee7	0.1001566
29	0x3dea8b09	0.114523
30	0xbd85405d	-0.06506417
31	0x39898814	0.00026232062
32	0x3dfa25e6	0.1221426
33	0xbd2d5dd4	-0.04232581
34	0xbe3cb92f	-0.18430017
35	0xbe2322ef	-0.15931295
36	0x3e0264c9	0.12733759
37	0x3e82ef2f	0.25573108
38	0x3e12390f	0.14279579
39	0x3c4e1fb1	0.012580798
40	0x3e28c500	0.164814
41	0xbe731fab	-0.23742549
42	0xbe61c4a6	-0.22047672
43	0xbe81a904	-0.2532426
44	0x3e63cd8b	0.22246377
45	0xbc866a97	-0.016408248
46	0xbda266db	-0.079297744
47	0x3d02794c	0.03185396
48	0xbe1484a3	-0.14503722
49	0xbe344ee8	-0.17608225
50	0x3da750e7	0.08169728
51	0xbd12c651	-0.03583366
52	0xbe267a85	-0.16257675
53	0xbe38402a	-0.17993227
54	0x3d81ba6d	0.06334386
55	0x3e143e43	0.14476876
56	0x3d8a34dd	0.06748364
57	0xbe313833	-0.17306595
58	0x3d509a85	0.05092861
59	0x3e100a78	0.14066494
60	0xbe880fb9	-0.26574495
61	0xbe3a9dca	-0.18224254
62	0x3cac3692	0.021022115
63	0x3e06583a	0.13119593
64	0xbe092de2	-0.13396409
65	0x3d8f1137	0.06985705
66	0xbe10b44a	-0.14131275
67	0x3e60c87b	0.21951477
68	0x3e0b90ba	0.13629428
69	0x3dfadfae	0.12249695
70	0x3de4953b	0.11161276
71	0x3da7a2b6	0.081853315
72	0xbe20b492	-0.15693882
73	0x3dd617f1	0.10453785
74	0xbc450300	-0.012024641
75	0xbcbbdc24	-0.02293212
76	0x3e286d07	0.1644784
77	0xbce859a7	-0.028363062
78	0xbe863c12	-0.26217705
79	0xbd7b2e8d	-0.06132369
80	0xbe8aebd2	-0.27133042
81	0x3e09ad57	0.1344503
82	0xbda05e5d	-0.07830498
83	0xbe51a2cd	-0.2047226
84	0xbddcca07	-0.10780721
85	0xbe281c21	-0.1641698
86	0xbdaa3bd3	-0.08312192
87	0x3e093a3d	0.13401122
88	0xbe434046	-0.19067487
89	0x3ddb1472	0.10697259
90	0x3e7febf1	0.24992348
91	0x3d6ffc97	0.058590498
92	0x3e158e08	0.14604962
93	0xbe3f5bd7	-0.18687378
94	0x3e3dcd86	0.18535432
95	0x3e84ffce	0.25976413
96	0xbd045364	-0.03230609
97	0x3e6af4e6	0.22944984
98	0xbe7466ac	-0.23867291
99	0xbd88e82d	-0.06684909

layer_2.weight f4 [100, 100]
0	0xbcecc529	-0.028902607
1	0xbd8041e4	-0.06262568
2	0x3d023115	0.03178509
3	0xbc6a602c	-0.014305156
4	0x3c287ea0	0.010284096
5	0xbbd84bb8	-0.0066008233
6	0x3d5f7c2b	0.054561775
7	0x3ca41f09	0.02003433
8	0x3d7a72aa	0.06114451
9	0xbda79e03	-0.08184435
10	0x3abe93ec	0.0014539934
11	0x3d0031b7	0.03129741
12	0xbd96e842	-0.073685184
13	0xbd5f682f	-0.054542717
14	0x3df81d4d	0.12114964
15	0x3c935769	0.017986016
16	0x3db16a5e	0.08662866
17	0x3db19418	0.08670825
18	0x3db52dea	0.08846648
19	0xbdfd71d4	-0.123752266
20	0x3ddfe794	0.10932842
21	0x3cd2e36b	0.025743207
22	0x3cce2b44	0.025167115
23	0x3e0a42be	0.13502023
24	0xba60344f	-0.00085527165
25	0x3d63e341	0.055636648
26	0x3e0922fb	0.1339225
27	0xbd992f1f	-0.07479691
28	0x3d6f1f24	0.058379307
29	0xbd7ac8f3	-0.061226796
30	0x3d0e003a	0.034668185
31	0x3e0f6e74	0.14006978
32	0x3d91369b	0.07090493
33	0x3df59c74	0.11992732
34	0x3d40e459	0.04709277
35	0x3d995797	0.074874096
36	0x3c81070e	0.015750434
37	0xbd73fa7b	-0.05956505
38	0x3d761461	0.06007803
39	0x3c591a41	0.013250888
40	0xbddabd15	-0.10680596
41	0x3dae1551	0.085001595
42	0x3c2cb174	0.010540355
43	0x3c7bd1cd	0.015369845
44	0x3d06261e	0.032751195
45	0xbbc3837b	-0.0059666014
46	0xbd1429a2	-0.036172517
47	0x3cd507c9	0.026004689
48	0xbd9446d2	-0.072400704
49	0xbd801fdd	-0.062560774
50	0x3c04bb02	0.008101227
51	0x3d9f8706	0.077894256
52	0x3dd7a4d5	0.10529486
53	0xbdb7e345	-0.08978895
54	0xbc428354	-0.011872131
55	0xbd3db395	-0.04631384
56	0x3c969242	0.018380288
57	0x3d01c825	0.031685013
58	0xbcdb3eea	-0.026763398
59	0xbc7d265b	-0.015451039
60	0xbd46c11d	-0.04852401
61	0x3c1052a3	0.008808765
62	0xbdad7e95	-0.08471409
63	0xbd300e26	-0.042982243
64	0x3d921f82	0.07134916
65	0xbd4a76a1	-0.04942954
66	0x3d00b16a	0.031419195
67	0x3dea8baf	0.11452424
68	0x3d912633	0.07087364
69	0xbe127eaf	-0.14306138
70	0xbd71bb1c	-0.059016332
71	0xbd46676b	-0.04843847
72	0xbd837597	-0.06418913
73	0xbbaa2312	-0.005192169
74	0xbcc064c5	-0.02348555
75	0x3bd053dc	0.006357653
76	0xbc1eb785	-0.009687309
77	0xbe27c520	-0.16383791
78	0x3d33ec0d	0.043926287
79	0x3e10b1d2	0.14130333
80	0x3db4dec2	0.0883155
81	0x3d51223a	0.05105803
82	0x3c0627a7	0.008188165
83	0xbd0e328a	-0.034716167
84	0x3dbd5abd	0.092458226
85	0xbda7ad38	-0.08187336
86	0xbc707ef1	-0.014678703
87	0xbd33e8e0	-0.04392326
88	0x3cd871e9	0.026421504
89	0x3d8576ef	0.065168254
90	0xbd962e94	-0.07333103
91	0x3ca9fd53	0.020750677
92	0x3d9696c2	0.073529735
93	0x3d6ad96d	0.05733626
94	0x3ca0fecc	0.019652747
95	0x3b384dfb	0.0028122652
96	0x3d153134	0.036423877
97	0x3c3285d7	0.010896168
98	0xbc393cd5	-0.011306007
99	0xbc629a17	-0.013830683
100	0x3cc3a1dd	0.023880893
101	0xbc8b56c0	-0.017009139
102	0xbdcb9aa3	-0.09941604
103	0xbbdb739d	-0.006697132
104	0xbe203acd	-0.1564743
105	0x3d3ba639	0.04581282
106	0xbda9b318	-0.082861125
107	0x3d5af096	0.053452097
108	0x3d8a714a	0.067598894
109	0x3d872336	0.06598513
110	0xbdce1ce5	-0.10064105
111	0x3e0a0881	0.13479806
112	0x3d838e46	0.06423621
113	0x3dcedad9	0.10100336
114	0x3cbe6ec4	0.023246177
115	0x3ce41bd9	0.02784531
116	0x3d609a57	0.05483469
117	0x3c09f81d	0.008420971
118	0x3cea0ced	0.028570617
119	0xbe21693e	-0.15762803
120	0xbcc742cc	-0.024323843
121	0x3dc2183e	0.0947728
122	0x3d6124e3	0.05496682
123	0xbdcf8d61	-0.10134388
124	0xbdf633b7	-0.120215826
125	0xbcfe41ed	-0.031037295
126	0x3d586917	0.052834596
127	0x3dc937e0	0.098251104
128	0xbddfb329	-0.10922844
129	0x3d6dbec3	0.058043253
130	0xbe2157a0	-0.15756083
131	0xbd3de31e	-0.046359174
132	0xbc7487ea	-0.014924983
133	0xbd265852	-0.040611573
134	0x3d37b6c7	0.044852044
135	0xbe3f124b	-0.18659322
136	0x3d5433e3	0.051807296
137	0x3ddf0b77	0.108908586
138	0x3cb25cbb	0.021772733
139	0xbc883806	-0.016628277
140	0xbc86882e	-0.016422357
141	0xbc94c5a4	-0.018160649
142	0xba9d52a8	-0.0012002783
143	0x3d60feab	0.05493037
144	0x3c2dee8c	0.010615956
145	0xbdf13c29	-0.11779053
146	0xbdbc67b3	-0.091994666
147	0xbd7883ee	-0.060672693
148	0x3e03d103	0.128727
149	0xbdf95c88	-0.12175852
150	0xbc242ea3	-0.010020885
151	0xbcadae61	-0.021201314
152	0x3cfa815b	0.03057926
153	0x3cedb391	0.029016288
154	0x3dc5bd9f	0.09655308
155	0x3d8ab1dd	0.06772206
156	0x3db7bafb	0.089712106
157	0x3d880fbf	0.06643628
158	0xbd928229	-0.07153732
159	0x3dcd63b4	0.100287825
160	0xbd31a937	-0.043374266
161	0x3db3382f	0.087509505
162	0x3dc0dd70	0.09417236
163	0x3d76f142	0.060288675
164	0xbdfcfec1	-0.12353278
165	0xbd07eaf5	-0.033183057
166	0x3d66d7b7	0.056358065
167	0x3db396b5	0.087689795
168	0xbbf01913	-0.007327208
169	0xbd9e9930	-0.07744062
170	0x3d455692	0.048178263
171	0xbde301be	-0.11084317
172	0xbcc190f3	-0.023628687
173	0x3c55e1fe	0.013054369
174	0x3c201c76	0.009772411
175	0xbdc402ba	-0.095708326
176	0xbce76bd1	-0.028249653
177	0xbdc55975	-0.09636203
178	0xbc220854	-0.009889681
179	0xbc99e95a	-0.018788029
180	0x3dc6ec73	0.09713068
181	0xbdc1c913	-0.0946218
182	0xbbfe8511	-0.0077673276
183	0xbe08554f	-0.13313793
184	0xbd95d9c6	-0.073169276
185	0xbe13c036	-0.14428791
186	0x3cf5d7c5	0.030010113
187	0xbd554525	-0.052067894
188	0xbd82b7c8	-0.0638271
189	0xbda8b4a2	-0.08237578
190	0xbd1ddf3e	-0.03854298
191	0x3c16e87d	0.009210703
192	0x3dc39359	0.09549589
193	0x3c9ddc0c	0.019269966
194	0xbde276c2	-0.110578075
195	0xbc692d27	-0.014231957
196	0xbcadfb13	-0.021237886
197	0xbdaad353	-0.08341088
198	0xbc6a6cfb	-0.0143082095
199	0x3d3b67c1	0.045753244
200	0x3d8cf504	0.068826705
201	0x3d8eb018	0.06967181
202	0xbaaaa10d	-0.0013017968
203	0x396c102d	0.0002251274
204	0xbd7e7fc9	-0.062133584
205	0xbdc9c0e8	-0.09851247
206	0x3d3d2c99	0.04618511
207	0xbdf21655	-0.11820666
208	0xbe099a95	-0.13437875
209	0x3ccfe3dc	0.025377207
210	0x3dbec1a5	0.093142785
211	0xbe6471a7	-0.2230898
212	0x3dc246be	0.09486149
213	0x3c9e114c	0.019295357
214	0xbd4dbdd5	-0.050229866
215	0x3dd336df	0.103132
216	0x3d0acd17	0.033886995
217	0x3d93443d	0.0719075
218	0x3d9b367b	0.07578751
219	0x3df9499a	0.121722415
220	0x3c5dd60b	0.013539801
221	0xbe069a2e	-0.13144752
222	0xbaa82834	-0.0012829364
223	0x3d535d4f	0.051602658
224	0x3cd3b4fc	0.025843136
225	0x3dd61e99	0.10455055
226	0x3d7472d0	0.059679806
227	0x3ceb9180	0.028755903
228	0xbd936297	-0.07196539
229	0x3d533588	0.051564723
230	0xbde25d74	-0.11052981
231	0xbe3736f8	-0.17892063
232	0xbd1bb88b	-0.03801779
233	0x3d0ecc0a	0.034862556
234	0x3d428c0f	0.04749685
235	0xbdcee8fe	-0.101030335
236	0x3caa5be1	0.020795764
237	0x3cc17d47	0.023619307
238	0xbd90e116	-0.07074182
239	0xbdd2fdc2	-0.10302307
240	0xbdec8b4a	-0.11550005
241	0x3ca67648	0.020320073
242	0xbd9c8853	-0.07643189
243	0xbcf5fec2	-0.030028705
244	0xbddcfa5b	-0.10789939
245	0xbc560fc4	-0.013065282
246	0xbc156f8c	-0.009120833
247	0x3dade464	0.08490828
248	0x3db75b37	0.08952945
249	0xbd9516da	-0.07279749
250	0xbd0d0934	-0.034432605
251	0x3ce5fdf2	0.028075192
252	0x3dcaec1e	0.09908317
253	0xbd18a7c7	-0.03726938
254	0xbd7e0a40	-0.062021494
255	0xbd859042	-0.065216556

layer_2.bias f4 [100]
0	0xbd60d0ea	-0.054886736
1	0x3dbbea0f	0.091755025
2	0xbd9efd7b	-0.07763191
3	0x3dbf00bc	0.09326312
4	0xbd8287c8	-0.063735545
5	0x3d6a041a	0.057132818
6	0xbc931c84	-0.017957933
7	0xbd1cc3ef	-0.038272794
8	0xbcc3daee	-0.023908105
9	0x3d7397e4	0.059471026
10	0x3c22349a	0.0099002365
11	0x3d791126	0.06080737
12	0x3c0a0e69	0.008426287
13	0x3caf89ed	0.021428073
14	0x3db25b3b	0.08708807
15	0xbd91d8cd	-0.071214296
16	0xbca66030	-0.020309538
17	0x3c546b89	0.0129650915
18	0xbad62a60	-0.0016339533
19	0x3cbf9c81	0.023390057
20	0xbbc18d88	-0.0059067644
21	0xbc9adfed	-0.018905604
22	0xbd0a7def	-0.033811506
23	0x3e00a534	0.1256302
24	0x3c81a1d7	0.015824242
25	0xbdfaeee3	-0.12252595
26	0xbdfbd47e	-0.12296389
27	0xbd04083f	-0.032234427
28	0xbcef3182	-0.029198412
29	0x3cfaebe9	0.030630069
30	0x3d754dad	0.05988853
31	0x3d971a5b	0.07378074
32	0x3de523fd	0.11188505
33	0x3d955289	0.07291133
34	0x3dab30d7	0.08358925
35	0x3b8cc6b1	0.004296147
36	0x3d0b473e	0.03400349
37	0x3c71b0a3	0.014751586
38	0xbc993ee9	-0.018706756
39	0xbd565efc	-0.052336678
40	0xbc24296d	-0.010019642
41	0xbdf1710e	-0.117891416
42	0x3cc25ce7	0.02372594
43	0xbd9a1845	-0.0752416
44	0x3c91b784	0.017787702
45	0x3bc774f5	0.0060869404
46	0xbd0efc10	-0.034908354
47	0x3e12b329	0.14326157
48	0xbd955356	-0.07291286
49	0xbdc94375	-0.098273195
50	0x3c350d61	0.011050553
51	0xbd8bf02d	-0.06832919
52	0xbd95a616	-0.07307069
53	0xbd47d33e	-0.04878544
54	0x3d6df584	0.05809547
55	0xbdb60356	-0.08887355
56	0xbde0976e	-0.10966383
57	0x3dcadd64	0.09905508
58	0xbda16a79	-0.07881636
59	0xbcf05072	-0.029335234
60	0xbd97dd35	-0.07415239
61	0x3cbfb84d	0.023403311
62	0x3da1d7bc	0.07902476
63	0xbda76512	-0.081735745
64	0xbdad2b77	-0.08455556
65	0x3d90cac7	0.07069927
66	0xbdca3ded	-0.09875093
67	0x3c84f466	0.01622982
68	0x3d0a9b12	0.033839293
69	0x3d91a548	0.07111603
70	0xbd0e7d58	-0.034787506
71	0x3d765d3a	0.0601475
72	0xbd384e17	-0.044996347
73	0x3bbd49b4	0.0057766084
74	0xbc138b1b	-0.009005333
75	0xbd365a1a	-0.04451952
76	0x3d413208	0.047166854
77	0x3d9891f8	0.07449716
78	0x3d991fb5	0.07476751
79	0x3dbe8752	0.09303154
80	0xbcc9c5ee	-0.024630513
81	0x3caa51d5	0.020790974
82	0x3d7f47d4	0.06232436
83	0xbd9df22b	-0.077122055
84	0xbd008711	-0.03137881
85	0x3da2fb20	0.079580545
86	0xbcedd5f5	-0.029032687
87	0x3de63c06	0.11241917
88	0x3d586a68	0.052835852
89	0xbd789d9a	-0.060697176
90	0x3d9b28b0	0.0757612
91	0xbd192116	-0.03738507
92	0x3d6dae0f	0.058027323
93	0x3dbc4f0f	0.09194767
94	0x3d205702	0.039145477
95	0x3d8ebd7e	0.069697365
96	0xbd0bb109	-0.03410438
97	0xbdda3746	-0.10655074
98	0x3dd4543e	0.103676304
99	0x3c9b85ce	0.018984701

layer_3.weight f4 [100, 100]
0	0x3c18bf87	0.009323007
1	0x3d02fc28	0.031978756
2	0xbccfc539	-0.025362598
3	0x3dbdb63e	0.092632756
4	0xbdbc58ad	-0.09196601
5	0x3d27fc12	0.041011877
6	0xbe16d305	-0.14728935
7	0xbc8fe09e	-0.01756316
8	0x3e091abc	0.13389105
9	0x3c38fb87	0.011290438
10	0x3da72f4e	0.081633195
11	0x3dac39e6	0.08409481
12	0xbd2008a2	-0.039070733
13	0x3c14d0bf	0.009082972
14	0xbda5b5a0	-0.08091283
15	0xbce9698c	-0.028492711
16	0xba9d3554	-0.0011994042
17	0xbcc64cff	-0.024206636
18	0x3d9aa627	0.07551222
19	0x3d9ebf35	0.077513136
20	0x3d823d3b	0.06359335
21	0x3dd8ef4d	0.10592518
22	0x3d5abab1	0.0534007
23	0x3d21cb1d	0.039500345
24	0xbd6b574f	-0.05745631
25	0x3dc76bb5	0.0973734
26	0x3d4daa05	0.05021097
27	0xbd65ae1b	-0.056074243
28	0x3d648d76	0.05579897
29	0xbd088244	-0.033327356
30	0x3df2f4ea	0.1186312
31	0xbd218c8d	-0.03944068
32	0xbccb428e	-0.02481201
33	0x3d2464fa	0.04013536
34	0xbd521cfd	-0.051297177
35	0x3d78dcb6	0.06075736
36	0x3de05730	0.1095413
37	0xbd9daa43	-0.076984905
38	0x3be8ff0d	0.0071104825
39	0x3cb30ca5	0.021856615
40	0xbd9ffb28	-0.07811576
41	0xbdf1ae06	-0.118007705
42	0x3e021c8f	0.12706207
43	0x3dd6b783	0.10484221
44	0x3c77b78f	0.015119447
45	0xbc5e8408	-0.013581283
46	0xbc12f967	-0.008970595
47	0x3d35b227	0.044359352
48	0xbd0a543e	-0.033771746
49	0xbb5285c7	-0.0032123195
50	0xbd55b618	-0.05217561
51	0x3e1bcfb5	0.15215953
52	0x3aa9631c	0.0012923214
53	0x3d972702	0.07380487
54	0xbd987fbc	-0.074462384
55	0x3ca56929	0.020191746
56	0x3d926fa1	0.07150198
57	0xbdd9615a	-0.106142715
58	0x3ca234bb	0.019800534
59	0x3d3c42d2	0.045962162
60	0xbd480b90	-0.04883915
61	0xbd7248e1	-0.059151534
62	0xbca182bb	-0.019715657
63	0x3d25162d	0.04030435
64	0xbd26685d	-0.040626872
65	0xbd81885f	-0.06324839
66	0x3d79e77a	0.06101177
67	0xbcd93937	-0.02651654
68	0xbdb0801e	-0.086181864
69	0xbda69879	-0.081345506
70	0x3d0dd32d	0.03462522
71	0xbd7818b6	-0.06057044
72	0xbd469f97	-0.04849204
73	0xbcd99a6e	-0.026562896
74	0x3dcc8280	0.099858284
75	0x3e0a0fd3	0.13482599
76	0xbe0f2402	-0.1397858
77	0x3d719f33	0.058989715
78	0x3e23842c	0.15968388
79	0x3b823029	0.0039730263
80	0x3d356b80	0.044291973
81	0xbdab7458	-0.083718
82	0x3de1d095	0.11026112
83	0xbcf85291	-0.030312808
84	0xbe058515	-0.13039048
85	0xbcc1fe28	-0.023680761
86	0xbd741d7d	-0.059598435
87	0x3e1ad225	0.15119226
88	0xbd87804b	-0.06616267
89	0xbd4c162c	-0.049825832
90	0x3db852d4	0.09000173
91	0x3d5f032c	0.054446384
92	0x3b92ba8b	0.004477804
93	0x3de1fbaf	0.11034333
94	0x3c7459a4	0.01491395
95	0xbc4130fb	-0.011791463
96	0x3d999059	0.07498235
97	0x3d27cba7	0.040965702
98	0xbd38a812	-0.04508216
99	0xbe09f0a1	-0.13470699
100	0xbd5462d7	-0.051852074
101	0xbdac9fab	-0.08428892
102	0xbdb6ecbe	-0.08931874
103	0xbb81458c	-0.003945058
104	0x398280a5	0.0002489138
105	0xbb7c0b3c	-0.0038458845
106	0xbdb4666a	-0.088085964
107	0xbd7aae6f	-0.06120151
108	0xbe151281	-0.1455784
109	0x3bc6cc05	0.0060668015
110	0xbdae69ad	-0.0851625
111	0x3ce5af62	0.02803773
112	0x3ce84201	0.028351786
113	0xbc062c80	-0.008189321
114	0x3d1bf424	0.038074628
115	0x3db7cb1d	0.08974288
116	0xbc8ed685	-0.017436275
117	0xbd24946b	-0.040180605
118	0xbbd2d0dd	-0.00643359
119	0xbd9988ca	-0.074967936
120	0xbdb8a4d4	-0.090158135
121	0x3d17cb91	0.03705937
122	0x3d8cb4f0	0.068704486
123	0x3cb3a072	0.021927092
124	0xbdf10af3	-0.117696665
125	0xbd9d2f42	-0.07675029
126	0x3db3e434	0.08783761
127	0xbd1932fd	-0.03740214
128	0xbddb315d	-0.10702775
129	0x3cf285d8	0.029604837
130	0x3d1c5be3	0.038173568
131	0x3cfa7814	0.030574836
132	0x3d256a1a	0.04038439
133	0xbd975cc8	-0.073907435
134	0x3d1bb0a9	0.038010273
135	0xbde57d57	-0.11205547
136	0x3d0154d7	0.03157505
137	0xbda7aef5	-0.08187667
138	0xbc63c601	-0.013902188
139	0x3d72258d	0.059117842
140	0x3d3df1ba	0.046373107
141	0x3d1823de	0.03714358
142	0xbcd4d01c	-0.02597814
143	0x3d1f3f14	0.038878515
144	0xbd06da5c	-0.032923087
145	0x3d57d839	0.05269644
146	0x3d2f7c13	0.042842936
147	0x3d74bf85	0.05975296
148	0xbd52892c	-0.05140035
149	0x3c1f2d8a	0.009715447
150	0x3cf13f4d	0.02944913
151	0x3d1cec79	0.038311455
152	0xbda8ebaa	-0.08248074
153	0x3c9b1045	0.018928656
154	0xbd9f870c	-0.0778943
155	0xbde32ac3	-0.110921405
156	0x3da5ce5f	0.08096003
157	0xbe049c01	-0.12950136
158	0x3d82be7b	0.063839875
159	0xbc59a730	-0.0132844895
160	0xbd0d8a09	-0.03455547
161	0xbdbc9233	-0.09207573
162	0xbd3c2c75	-0.045940835
163	0x3b86ea82	0.004117311
164	0xbd924a86	-0.071431205
165	0x3d2c7350	0.042102158
166	0x3b4f28c5	0.0031609994
167	0x3d947041	0.07247973
168	0xbddbd519	-0.107340045
169	0xbdc18068	-0.0944832
170	0xbbc1a31e	-0.0059093377
171	0xbd36d464	-0.044636145
172	0xbddb29ef	-0.107013576
173	0xbda9c94b	-0.08290347
174	0xbe001c86	-0.12510881
175	0x3d7ba225	0.06143393
176	0x3d1e411c	0.038636312
177	0xbdeec5c0	-0.116588116
178	0xbdd0e87b	-0.10200592
179	0x3d96ce93	0.0736362
180	0x3da518ce	0.08061372
181	0x3cbaf317	0.022820992
182	0xbd8b7a1c	-0.068104
183	0x3cdc9a1c	0.026928954
184	0x3d12f3c0	0.03587699
185	0xbd4f8466	-0.050663374
186	0xbc1b629f	-0.009483962
187	0x3d65699e	0.056008928
188	0x3d56de1f	0.052457925
189	0xbdfbde73	-0.12298288
190	0x3d06a0eb	0.032868307
191	0xbce2be5b	-0.02767866
192	0x3c425f50	0.011863545
193	0xbda1593a	-0.07878347
194	0xbd57d718	-0.052695364
195	0x3d05d9b0	0.032678306
196	0x3d2ac5cf	0.04169255
197	0x3cfd4494	0.03091649
198	0x3d60764a	0.05480031
199	0xbdb80e5b	-0.08987113
200	0x3dd2351d	0.10264037
201	0x3cf66212	0.03007606
202	0x3c62a2b4	0.013832737
203	0x3d5a44f9	0.053288434
204	0x3d8fbb35	0.07018129
205	0x3d9c0c55	0.0761954
206	0x3dc911ce	0.09817849
207	0x3dcf3e0c	0.101192564
208	0xbdc34df8	-0.09536356
209	0x3e068e9e	0.13140342
210	0xbd48272c	-0.048865482
211	0x3cb348f1	0.021885367
212	0xbdfdddc2	-0.123958126
213	0xbd89d1b8	-0.06729454
214	0x3d49cea2	0.049269326
215	0xbdd10a4f	-0.10207044
216	0x3d0faf6b	0.0350794
217	0x3dbf0927	0.093279175
218	0x3d4f975b	0.050681453
219	0xbcd683dc	-0.026185922
220	0x3c9f0a30	0.019414037
221	0x3dba9545	0.09110502
222	0xbe06449f	-0.13112114
223	0xbcf73c1f	-0.030180035
224	0xbdb4ab7b	-0.0882177
225	0xbda90d7a	-0.082545236
226	0xbd5bf7ca	-0.053703107
227	0xbd484e19	-0.048902605
228	0x3da7087d	0.08155916
229	0xbc39cc23	-0.011340174
230	0xbd1f1bf6	-0.038845025
231	0xbd01ae0f	-0.031660136
232	0x3dd3aef4	0.10336104
233	0x3e0dc73d	0.13845535
234	0x3d23102b	0.03981034
235	0x3dce39bd	0.100696065
236	0x3c46afa7	0.01212684
237	0x3d6b6902	0.05747319
238	0xbdff2588	-0.124583304
239	0x3dd41341	0.10355235
240	0xbd319f79	-0.043364976
241	0x3c0ab9db	0.008467163
242	0xbcbdfbdb	-0.023191383
243	0x3d7ae3e7	0.0612525
244	0x3da3f0f2	0.08004941
245	0x3ca01bab	0.019544443
246	0x3d0b8830	0.034065425
247	0xbcb09141	-0.021553637
248	0xbdd8a85c	-0.10578987
249	0xbc89db16	-0.016828101
250	0xbcc88b9b	-0.024480632
251	0x3e06d74e	0.1316807
252	0x3b3b777a	0.002860515
253	0x3bd74dbc	0.006570546
254	0xbd87fcd9	-0.06640024
255	0x3da7f04d	0.082001306

layer_3.bias f4 [100]
0	0x3d81ab9b	0.06331559
1	0xbb08ea31	-0.0020891542
2	0xbd9045df	-0.07044577
3	0x3d5b30ea	0.053513445
4	0x3c5d1a1a	0.013494993
5	0xbd9b1f59	-0.075743385
6	0x3dc66404	0.09687045
7	0x3ddc415d	0.107546546
8	0xbdb7bb09	-0.08971221
9	0x3c22cd2a	0.00993661
10	0x3de6b6db	0.11265346
11	0xbdedf693	-0.11619296
12	0xbd050dee	-0.032483988
13	0xbc94e72b	-0.018176636
14	0xbdd30c9c	-0.103051394
15	0xbdbbec3d	-0.09175918
16	0x3c8b4b43	0.017003661
17	0xbd84cdfc	-0.06484601
18	0x3db329f9	0.0874824
19	0x3ce35e31	0.027754875
20	0xbd963969	-0.07335169
21	0xbda6d670	-0.081463695
22	0x3cadd16a	0.02121802
23	0xbda2064b	-0.079113565
24	0xbd1d670f	-0.038428362
25	0x3d2fa8bb	0.042885523
26	0xbd3a647e	-0.045505993
27	0xbbd4c3fa	-0.006493089
28	0x3d2bcbad	0.041942287
29	0xbdb77a41	-0.08958865
30	0xbd50b030	-0.050949275
31	0x3d972fae	0.07382141
32	0x3db6f134	0.089327246
33	0x3e01ff66	0.12695083
34	0x3c906a40	0.017628789
35	0x3c84ce77	0.016211731
36	0x3da60415	0.08106247
37	0xbcf6ac68	-0.030111507
38	0xbe00e27f	-0.12586401
39	0x3dc1b7df	0.09458899
40	0xbdf2fa23	-0.11864116
41	0xbc5c0b66	-0.013430452
42	0x3d588662	0.052862532
43	0xbd7009c4	-0.058603063
44	0x3cbe9dde	0.023268636
45	0xbd56ec3f	-0.052471396
46	0x3d525b70	0.051356733
47	0x3dacf508	0.084451735
48	0x3cff18d1	0.031139763
49	0xbd8842a6	-0.06653337
50	0x3d47c78a	0.04877428
51	0xbd6310ce	-0.055435948
52	0xbae6fcdf	-0.0017622969
53	0x3e0ad20a	0.13556686
54	0x3d09fade	0.03368651
55	0x3c902dc4	0.017599948
56	0x3b506c90	0.003180299
57	0xbdb2c27f	-0.087285034
58	0xbba11f37	-0.004917051
59	0x3d1e50a0	0.03865111
60	0x3def9ca8	0.11699802
61	0xbdca0ad4	-0.098653466
62	0xbda732c7	-0.08163982
63	0xbc9fdc77	-0.019514306
64	0xbd1c8f5a	-0.03822265
65	0xbe027650	-0.12740445
66	0x3caf68c0	0.021412253
67	0x3d77d58d	0.060506392
68	0xbd5754c2	-0.052571066
69	0xbcc60cec	-0.024176084
70	0x3d893ae1	0.067006834
71	0xbd47a860	-0.04874456
72	0x3cab3e62	0.02090377
73	0x3dcaa217	0.098941974
74	0xbd302e64	-0.04301299
75	0xbd3ca483	-0.046055328
76	0xbe017c57	-0.12645088
77	0xbd85b676	-0.06528942
78	0xbc964186	-0.01834179
79	0xbce09a6b	-0.027417382
80	0x3cdc2d4b	0.026877066
81	0xbe09a2f2	-0.13441065
82	0x3cdfbf89	0.02731301
83	0x3d3d53eb	0.04622261
84	0x3cfa60ae	0.030563679
85	0xbd4b8f11	-0.049696986
86	0x3dc66732	0.09687652
87	0xbd8677c3	-0.065658115
88	0xbd369344	-0.044574037
89	0x3de0ca08	0.109760344
90	0xbd08ca3f	-0.033396002
91	0xbd353045	-0.044235487
92	0x3ce83e32	0.02834997
93	0x3c389805	0.011266713
94	0x3d41eafe	0.047343247
95	0xbd9806d0	-0.074231744
96	0x3d6b7c8a	0.057491817
97	0x3d50f80b	0.051017802
98	0x3c863fd8	0.016387865
99	0x3dccb43a	0.09995313

layer_4.weight f4 [100, 100]
0	0x3d879bdb	0.06621524
1	0xbdb20e50	-0.08694136
2	0x3ca524b7	0.020159109
3	0xbe3ca99a	-0.18424073
4	0x3a460e3d	0.0007555222
5	0x3dafed7f	0.08590221
6	0xbd9a581f	-0.07536339
7	0x3cf134a4	0.029444046
8	0x3d6ce584	0.05783607
9	0xbdcf7ee5	-0.10131625
10	0xbc906711	-0.01762727
11	0x3d819fff	0.06329345
12	0x3d5f2b67	0.05448475
13	0x3d8005e3	0.06251123
14	0xbcd5ac45	-0.026083121
15	0x3d90355e	0.07041429
16	0x3d65593e	0.05599331
17	0xbd8d0d78	-0.068873346
18	0xbcf1682e	-0.029468622
19	0xbdfc451b	-0.12317868
20	0xbd77defb	-0.060515385
21	0x39d496ae	0.00040548056
22	0x3d48043e	0.04883217
23	0xbd0cf40d	-0.034412432
24	0xbd9d7d2a	-0.07689889
25	0x3cbfa765	0.02339525
26	0xbbece920	-0.007229939
27	0xbd38f338	-0.045153826
28	0xbd83b02a	-0.06430085
29	0x3d84e30f	0.064886205
30	0x3dd76007	0.10516363
31	0x3d89ec0a	0.06734474
32	0xbdbd8dd6	-0.09255569
33	0x3bc2a652	0.005940237
34	0x3d2022a1	0.039095525
35	0x3c8bd475	0.01706908
36	0x3da1809c	0.078858584
37	0xbe0820c9	-0.13293757
38	0xbdf72ec5	-0.120694675
39	0xbbd0cd7c	-0.006372152
40	0xbc0e1190	-0.008671179
41	0xbc664afe	-0.0140559655
42	0x3daaf54a	0.083475664
43	0x3d1343cc	0.035953328
44	0xbd1f5432	-0.038898654
45	0xbc47b907	-0.01219011
46	0xbd9ec49b	-0.07752343
47	0x3c9c96d0	0.019114882
48	0x3bd7b7f4	0.006583208
49	0x3cce4931	0.025181385
50	0xbe16621c	-0.14685863
51	0xbaa95ca7	-0.0012921289
52	0x3d9d409b	0.07678338
53	0x3dfe6b89	0.124228545
54	0xbda913c3	-0.082557224
55	0xbd6d8832	-0.057991214
56	0xbd175876	-0.036949597
57	0xbda5fcea	-0.0810488
58	0xbccba837	-0.024860485
59	0xbd9b2c3b	-0.07576796
60	0x3c222e5e	0.00989875
61	0xbc3c4627	-0.011491335
62	0xbd641cda	-0.055691577
63	0xbd936daf	-0.07198655
64	0xbdee77aa	-0.11643918
65	0xbcd235f0	-0.025660485
66	0xbd81c4f9	-0.06336398
67	0x3da6e0d7	0.081483535
68	0xbdb3b561	-0.0877483
69	0xbdb26315	-0.08710305
70	0xbb66aba2	-0.0035197516
71	0xbd9d0055	-0.07666079
72	0x3de8fe93	0.11376681
73	0x3d55776e	0.05211585
74	0xbd228590	-0.039678156
75	0xbd77b4c5	-0.06047513
76	0xbc640a57	-0.013918481
77	0x3d74ba56	0.059748016
78	0xbdb3af3f	-0.0877366
79	0xbdc082ad	-0.093999244
80	0xbd05e837	-0.03269216
81	0xbd72b919	-0.059258554
82	0x3c5483ef	0.012970909
83	0xbbd5244c	-0.006504571
84	0x3d1d2dfe	0.03837394
85	0xbbd44ed8	-0.0064791255
86	0xbdcf89bd	-0.10133693
87	0xbd8c4160	-0.06848407
88	0x3d1b7df8	0.03796193
89	0x3d9ff443	0.07810261
90	0xbd0b1ee3	-0.033965003
91	0x3c739c2b	0.014868776
92	0x3cf5c9ad	0.030003393
93	0x3c078fdb	0.008274044
94	0xbdd21c5c	-0.10259315
95	0xbd527107	-0.051377323
96	0xbdc704c4	-0.09717706
97	0xbd62de8e	-0.055388026
98	0x3db841c7	0.08996921
99	0x3dc61ff1	0.09674061
100	0xbd6528ba	-0.055947043
101	0xbdaeebab	-0.08541044
102	0xbcf66a47	-0.030079974
103	0xbd862813	-0.06550612
104	0xbd192209	-0.037385974
105	0x3d8e921e	0.069614634
106	0xbe27faf5	-0.16404326
107	0xbd2a977c	-0.041648373
108	0xbdbb7712	-0.0915357
109	0xbd36be03	-0.044614803
110	0xbd4c6bfe	-0.049907677
111	0xbdb6583c	-0.08903548
112	0xbc195a68	-0.009359933
113	0x3d05473b	0.032538634
114	0xbe0ca7b9	-0.13735856
115	0xbdb54597	-0.08851164
116	0x3dd27c90	0.10277665
117	0xbd35cf83	-0.04438735
118	0xbda0b096	-0.07846181
119	0x3d5b4ca1	0.053539876
120	0xbd3b2aed	-0.045695234
121	0x3d1c94d6	0.03822788
122	0xbd4afd3b	-0.049557906
123	0x3db9055b	0.090342246
124	0x3e01bf9a	0.12670746
125	0xbd3b97a2	-0.045798905
126	0x3e25f0bc	0.16205114
127	0x3d0fa497	0.035069074
128	0xbdabc0c3	-0.08386376
129	0xbd0e7536	-0.03477975
130	0x3b021bc9	0.0019852987
131	0xbc42d53f	-0.011891662
132	0x3e0ae0e3	0.1356235
133	0x3db598b5	0.08867017
134	0x3d8a476d	0.06751905
135	0x3dd0ce85	0.101956405
136	0xbc6ce579	-0.014459007
137	0xbe1a88ef	-0.15091299
138	0xbd333d26	-0.043759488
139	0xbce384e6	-0.027773332
140	0x3d94767c	0.072491616
141	0x3cb8b080	0.0225451
142	0x3dbe26af	0.09284722
143	0xbd770d0c	-0.060315177
144	0xbd3af1e3	-0.045640837
145	0x3dadafe4	0.08480814
146	0xbd293cea	-0.041317858
147	0x3d81db81	0.06340695
148	0x3d98a809	0.07453925
149	0x3d477671	0.04869694
150	0xbc8df281	-0.017327549
151	0x3da0b2d4	0.07846609
152	0xbd70035c	-0.058596954
153	0x3d454e42	0.048170336
154	0x3d4a3082	0.049362667
155	0xbc5dd034	-0.013538409
156	0xbe257f34	-0.16161805
157	0x3ba63660	0.0050724
158	0x3d568b53	0.052378964
159	0xbd8fee89	-0.07027919
160	0xbd7f813f	-0.062379118
161	0xbd8ce3ca	-0.06879385
162	0xbd8ea5fc	-0.06965253
163	0xbd8fe2b7	-0.07025664
164	0x3dafa345	0.08576063
165	0xbd88c64a	-0.06678446
166	0x3dc53350	0.09628928
167	0x3d10ee2d	0.035383392
168	0xbd5f93ed	-0.054584432
169	0xbd01ed3c	-0.031720385
170	0xbce41956	-0.027844112
171	0xbcf56afd	-0.029958243
172	0x3deb4497	0.11487692
173	0x3d8299aa	0.06376965
174	0x3de4e6bf	0.11176824
175	0xbdb51913	-0.08842673
176	0x3d6abd59	0.057309482
177	0xbd8ffbc1	-0.0703044
178	0x3db76649	0.08955056
179	0xbc9b7d20	-0.018980563
180	0x3d9015b3	0.07035389
181	0xbd2e9c4c	-0.042629525
182	0xbc384388	-0.011246569
183	0xbdd8d425	-0.10587338
184	0xbcbea51a	-0.023272086
185	0xbca2014e	-0.019776013
186	0x3dda949b	0.106728755
187	0xbbd2afab	-0.0064296327
188	0x3d5156e8	0.05110827
189	0x3c55d301	0.0130507955
190	0xbbb7b9f4	-0.005606884
191	0xbd85fa8f	-0.06541931
192	0x3db9fe7b	0.090817414
193	0xbd80a062	-0.062805906
194	0x3ce78ba6	0.028264832
195	0xbd104159	-0.03521857
196	0x3bb34841	0.00547126
197	0xbda953da	-0.082679465
198	0xbcb7048d	-0.022341037
199	0xbd67f607	-0.056631114
200	0x3da88e81	0.082303055
201	0x3d70cde4	0.058790103
202	0x3daafb92	0.083487645
203	0xbda93019	-0.08261127
204	0x3c921d63	0.017836278
205	0xbdc3f519	-0.09568233
206	0xbd01c787	-0.031684425
207	0xbdd9564e	-0.106121644
208	0xbca34f9d	-0.019935424
209	0x3d723571	0.059132997
210	0x3cb0f87a	0.021602858
211	0x3d291c13	0.04128654
212	0xbc7b9e3f	-0.015357553
213	0xbd5c4c89	-0.053783927
214	0xbda41e83	-0.08013632
215	0x3d82f14a	0.063936785
216	0x3dee468b	0.11634549
217	0xbd624b7e	-0.055247776
218	0x3d775f68	0.06039372
219	0xbcca8d50	-0.024725586
220	0xbd5d7c2e	-0.054073505
221	0xbd2f8db6	-0.042859755
222	0x3ddb97c0	0.107223034
223	0x3d8a92c1	0.06766272
224	0xbd939580	-0.07206249
225	0x3c989e57	0.01863019
226	0xbe1ed037	-0.15509115
227	0xbd8986fe	-0.06715201
228	0xbd50477e	-0.05084943
229	0x3c6805eb	0.014161567
230	0x3d0540c5	0.032532472
231	0xbce800be	-0.028320666
232	0x3d2df50c	0.042470023
233	0x3db567d2	0.08857693
234	0xbd37654f	-0.04477435
235	0xbe21ff26	-0.15819988
236	0x3d90d0db	0.07071086
237	0xbd2b2b2a	-0.04178921
238	0xbda14970	-0.07875335
239	0x3d19105b	0.037369113
240	0xbdce1d75	-0.10064212
241	0xbcb85500	-0.022501469
242	0x3c6b87b7	0.014375619
243	0xbcca58ee	-0.024700608
244	0x3c4489a4	0.011995707
245	0x3d294cf4	0.041333154
246	0xbe070cbd	-0.13188453
247	0xbce845d0	-0.028353602
248	0x39db73be	0.0004185717
249	0x3d9cfdcb	0.07665595
250	0xbd1460b8	-0.03622505
251	0xbdc7abdf	-0.09749579
252	0xbd1b0d29	-0.037854347
253	0x3d9ac3b2	0.07556857
254	0xbcd147ac	-0.025546871
255	0x3d85c96d	0.065325595

layer_4.bias f4 [100]
0	0x3de392f5	0.11112014
1	0x3cefff1b	0.029296448
2	0x3ddbfd7e	0.10741709
3	0xbcd6d460	-0.026224315
4	0xbdf3c147	-0.11902099
5	0xbdeb2daa	-0.11483319
6	0x3dae4f8e	0.085112676
7	0xbc8564b9	-0.01628338
8	0x3c69b14f	0.014263465
9	0xbde26ef1	-0.11056317
10	0x3dd6ddfa	0.104915574
11	0x3d948963	0.07252767
12	0xbda327b7	-0.079665594
13	0x3c71ede7	0.014766193
14	0xbd24c8c2	-0.04023052
15	0xbbf48047	-0.007461581
16	0xbd99da0f	-0.075122945
17	0x3bb50801	0.005524636
18	0x3c565884	0.013082627
19	0xbdedc9fc	-0.11610791
20	0xbdaaa9fa	-0.08333202
21	0xbd2589ed	-0.04041474
22	0x3d8b11ec	0.06790528
23	0xbd89c46d	-0.06726918
24	0x3e0686d8	0.13137376
25	0x3ddd254d	0.1079813
26	0xbbcce5e9	-0.0062529934
27	0x3de9232c	0.11383662
28	0xbcd0b855	-0.025478521
29	0x3bb712aa	0.0055869417
30	0x3d2b3fac	0.04180877
31	0x3de8685e	0.113480315
32	0xbd7a960a	-0.061178245
33	0x3e111d50	0.14171338
34	0xbcb0f849	-0.021602767
35	0x3d88e3c7	0.0668407
36	0x3dddbfbf	0.10827588
37	0x3de4782c	0.111557335
38	0xbbbe31b9	-0.0058042672
39	0x3e0b3a76	0.1359652
40	0x3e0568cf	0.13028263
41	0xbdb3a29e	-0.08771251
42	0x3e23d8b6	0.16000637
43	0xbddd3831	-0.10801733
44	0x3dffb9e2	0.12486626
45	0xbdc66ed6	-0.09689109
46	0x3d282dcb	0.041059297
47	0xbd4c12c7	-0.049822595
48	0x3d2ae881	0.04172564
49	0xbdebb2f4	-0.11508742
50	0xbd8411c5	-0.06448702
51	0xbd8853af	-0.066565864
52	0xbdf614a8	-0.120156586
53	0xbd0e6a15	-0.034769136
54	0x3ba0162b	0.004885455
55	0xbddb6138	-0.107119024
56	0xbc27e9c2	-0.010248603
57	0x3c65611b	0.0140002025
58	0x3e09d6af	0.13460802
59	0x3daa3240	0.08310366
60	0x3c56f0a6	0.0131188985
61	0x3c5874cf	0.013211443
62	0x3d514770	0.05109352
63	0x3c7942a2	0.01521364
64	0xbdab7383	-0.083716415
65	0xbde69cee	-0.11260401
66	0xbc6b36df	-0.014356344
67	0x3d3557e7	0.044273283
68	0x3d455f38	0.04818651
69	0xbd104cb3	-0.035229396
70	0x3dc66d0c	0.09688768
71	0x3dcc0165	0.099612035
72	0x3dcb11ed	0.099155284
73	0x3e0d67f7	0.1380919
74	0xbd91290f	-0.070879094
75	0xbd8811a6	-0.06643991
76	0x3daa92e2	0.08328797
77	0x3e08e427	0.13368283
78	0x3d9d76ba	0.07688661
79	0xbddaca5e	-0.1068313
80	0xb9bdf0b5	-0.0003622823
81	0xbd4bdc6e	-0.049770765
82	0xbd8bac96	-0.068200275
83	0xbd65cc76	-0.056103192
84	0x3cda63bb	0.026658883
85	0x3b9b5072	0.0047398144
86	0xbd3e4175	-0.046449143
87	0x3e1b4983	0.15164761
88	0xbd856e2b	-0.065151535
89	0x3d3f5200	0.04670906
90	0x3ded73ed	0.11594377
91	0x3c526bec	0.012843113
92	0xbdc693f0	-0.096961856
93	0x3b4a5334	0.0030872347
94	0x3d99dc8c	0.07512769
95	0xbda1dd5b	-0.07903548
96	0x3da9c1ac	0.08288893
97	0x3cb2937a	0.021798838
98	0xbe11a8f3	-0.14224605
99	0xbc79dbfd	-0.015250203

output_layer.weight f4 [1, 100]
0	0xbd814408	-0.06311804
1	0x3dd783e8	0.10523206
2	0xbdc2735b	-0.094946586
3	0xbb94c8d8	-0.004540544
4	0x3ae869f1	0.0017731768
5	0x3b0251f8	0.0019885283
6	0xbceddb9d	-0.029035384
7	0xbb7ca672	-0.0038551358
8	0xbd741206	-0.0595875
9	0x3d990d59	0.07473249
10	0x3deb0822	0.114761606
11	0xbd8a7437	-0.067604475
12	0xbbd72a2e	-0.0065663075
13	0xbd80bf53	-0.06286492
14	0x3ddeea45	0.10884527
15	0xbcdfa730	-0.0273014
16	0xbc8fb155	-0.017540613
17	0xbd8b1bca	-0.0679241
18	0x3d4bc405	0.049747486
19	0x3d719481	0.058979515
20	0xbd8d1cea	-0.068902805
21	0xbd074c5b	-0.033031803
22	0x3ca15315	0.019692937
23	0x3bd5831b	0.006515873
24	0xbe01045b	-0.12599318
25	0x3d896234	0.06708184
26	0x3debc2ef	0.1151179
27	0x3d29e803	0.04148103
28	0x3d8aeefd	0.06783865
29	0x3dadd81d	0.08488486
30	0xbd72e71f	-0.059302446
31	0xbd419618	-0.04726228
32	0x3d9ace9a	0.07558937
33	0xbd7c4096	-0.06158503
34	0x3da71abe	0.081593975
35	0xbd656527	-0.05600467
36	0x3de129cc	0.109943
37	0x3d4d53fc	0.050128922
38	0xbdab0974	-0.083514124
39	0xbdfbbbd2	-0.12291683
40	0xbddcf156	-0.10788219
41	0x3d48b570	0.049001157
42	0x3d78dd47	0.0607579
43	0x3d59d225	0.053178925
44	0xbc8ea587	-0.017412914
45	0xbda6451f	-0.081186526
46	0x3debea7c	0.11519334
47	0xbd0ce3c8	-0.034396917
48	0x3ba7ac04	0.0051169414
49	0x3d24ffcd	0.040283013
50	0x3d906512	0.07050528
51	0x3d1c000a	0.038085975
52	0xbc1bdf40	-0.009513676
53	0x3d899bd8	0.06719178
54	0x3d86b3da	0.06577273
55	0x3bf68bad	0.007523975
56	0x3dce5ea7	0.10076647
57	0xbd67fe61	-0.05663908
58	0xbdd13bb4	-0.102164656
59	0x3df37957	0.11888378
60	0x3c6f6470	0.0146113485
61	0xbc68a434	-0.014199305
62	0xbd56e1c9	-0.05246142
63	0xbc234917	-0.009966156
64	0xbcbd24da	-0.023088861
65	0xbca08165	-0.01959295
66	0xbdc7191e	-0.097215876
67	0x3d81cdc9	0.063380785
68	0x3d81a838	0.06330913
69	0x3dbdf8b2	0.092759505
70	0xbda5f496	-0.08103292
71	0xbd759a74	-0.05996175
72	0xbdc2dee2	-0.09515168
73	0x3dc88684	0.09791282
74	0x3d470249	0.048586164
75	0x3d01073b	0.031501036
76	0xbd90c6ec	-0.07069191
77	0xbd2e573d	-0.042563666
78	0x3d8a307b	0.06747528
79	0xbd81c54c	-0.063364595
80	0x3e0ced36	0.13762364
81	0x3d58b871	0.052910272
82	0x3cf6fb80	0.030149221
83	0x3d96fc7d	0.07372377
84	0xbdf530d8	-0.11972207
85	0xbca8e51b	-0.020617059
86	0x3c264bf6	0.010149946
87	0xbd383db4	-0.04498072
88	0x3c4d7789	0.012540706
89	0x3df46fc6	0.119353816
90	0xbdea28a2	-0.11433531
91	0x3daa6ad0	0.08321154
92	0x3c7da27f	0.015480637
93	0x3d4fbd3b	0.050717574
94	0xbdc24bd5	-0.0948712
95	0x3c82efed	0.015983546
96	0x3dd4687e	0.10371493
97	0xbdd184a9	-0.10230381
98	0xbd5b9b04	-0.05361463
99	0x3c27bf79	0.010238522
