4_4_4_O.pth (torch_old, 132363 bytes, 9 tensors)

layer_1.weight f4 [100, 22]
00000000: 13f2 1b3d ddde 45be a86a c3bd 5159 cbbd
00000010: fa34 d43c 1d79 56bc ef63 e1bd 115a 4bbe
00000020: a158 c1bc 875f a13c 5d8e 19be 84ac 52be
00000030: f3f8 563e 8ffd c2bc 5ad5 3abe d78a 2fbe
00000040: 127d 8c3d 4ebd ed3c 34ac 3cbe df4e 4dbe
00000050: 052e 7ebc bc43 9d3e 7299 08be b328 763d
00000060: d437 793d a69d 5ebd f558 1e3d 2da8 9fba
00000070: f4a0 ad3d d3e7 5dbd 4abf 2ebe 4edd 87be
00000080: d8ec 71be 199e bf3b 9f10 9f3d d4d8 0bbd
00000090: ccc8 e7bd 46ea 4a3e 248a ccbd 9e02 2bbc
000000a0: 0aec b03d 2bdc 4fbe e1e3 3e3d ecd1 92bd
000000b0: d2c8 46bd 6d1b b7bd 457d 95be e089 3abd
000000c0: 08a6 75be 0a3c 58bd e1f9 b33d 0853 05bd
000000d0: 126d 8dbd 41bc 013e 45f2 05be bacf 95bc
000000e0: 6719 f13c 939e dabd 4355 28bd f030 d6bd
000000f0: b17b 523e bce6 2e3e 43c3 89be 165e c03d
00000100: 483d a93d 29b8 5a3c b024 e1bc 2619 f13d
00000110: bcad edbc 2472 1d3e 2adb 793e 02e0 8b3e
00000120: caa4 7b3e 3b48 8c3d 5813 553e ec71 fdbb
00000130: 56d2 0fbd bc58 8d3c 2b70 2c3e a13d 9a3d
00000140: 5e1d 47be 9b44 b7bd 85ee 043e a7c1 4b3e
00000150: f7c8 13be 9e96 43bd 8bf4 223c aec1 353e
00000160: 0ba4 3ebe 93b9 65bd 0e60 67be cfb6 173e
00000170: 72c0 9a3b bfec 3bbe 471b 763e 475a 043d
00000180: d571 343c 7d54 2d3d 5ce8 d73d feac fe3d
00000190: a6d2 c6bd 0653 053d 390f 363e 13d5 f4bd
000001a0: ed08 e3bd f939 16be 2564 44be 6d26 22be
000001b0: a4e0 0d3c 9d0b 683d 6e20 313e 3a70 1f3e
000001c0: 1fca 483e fffd 153e 037a 26be b37c 103e
000001d0: 4dda 643e 70ad da3c 6706 39be 8a74 70bd
000001e0: c9cd 033e 7bf9 cf3d eca2 e13d fbc7 46be
000001f0: d765 e4bd 1582 513e eb5d b7bd 27ae 2e3d
00000200: 31c3 b7bd aac0 313e f11d 103e 3739 0f3d
00000210: 85e2 f33d b4b1 193e c2ad 9abd d98f 293e
00000220: bca4 c1bd 9c94 15be b272 dc3d 4403 5fbd
00000230: aa0d 2b3e 08a4 e2bd 5563 093e 1f0c 653e
00000240: 57ee 893d b884 92bb 4daa 743d fd0e ffbd
00000250: b28d 863e 6e16 04be 1a8c 553e 9d2e 10be
00000260: ef71 c2bd 7e7b 703d 7bfd 6c3e cbdb 4f3e
00000270: 7b66 513e b249 b63b 4e54 303e 456a 343e
00000280: 7b3e 853e b604 143e 2b27 583c 54fc b13d
00000290: 1821 533e bc7c c5bb ad06 2dbb e704 153c
000002a0: b9d4 793e c237 3d3e 8693 263e 094e d43d
000002b0: 2cdb b0bd cc0d f53c 7f43 99ba c823 733e
000002c0: cfcd ed3b 6776 a8bc 88dc 87be 07e5 973d
000002d0: a9b2 f3bd 16ca 283e 3a30 bc3d 3139 0fbe
000002e0: 1ee3 263e abca 123e 371e 0ebe 0bff 5f3b
000002f0: 8f0a 56be dd93 35be 0a9e 02bd 7201 ff3d
00000300: b76b 1bbc a97d 563d f916 c2bd 60ec e83d
00000310: b21a 08bd 743e 61be 8370 efbd c47f b5bd
00000320: bce8 c43d 9001 4cbe 2c5d 103e 8b52 71bd
00000330: b4ff 42be f45f 89bd aafb 013e 4204 7d3d
00000340: 2159 97be 5486 0abe ffcb 31bd 37d1 db3d
00000350: e08f 41bd f373 4abe 62f7 04be a8bc f8bd
00000360: 433a cfbd 83aa 00bd 7c10 efbd 0946 31be
00000370: 522e 193e 8395 393e 4897 4cbd 6691 753e
00000380: 9791 6e3e 4201 0a3e 92d2 f33d 7b66 fe3c
00000390: 9312 043c add3 ce3d 463c 3939 685f 863d
000003a0: 0533 de3d 4fc4 943d b97c bbbd 1fe2 ddbc
000003b0: 6f6c 04be baeb 383e 1891 72bd 2ee4 413e
000003c0: dc34 1e3e 67d8 7e3d 6aa7 f83d 4a26 e23d
000003d0: 3893 363e 114f 33be 745c 4d3e f420 4c3e
000003e0: 07f3 53bd 34a8 313e 278e c43c b1c2 0fbd
000003f0: efb1 043e ec9e 873e ae0b fbbb 574f 3fbd
0.038072657 -0.19323297 -0.095418274 -0.09929145 0.025904167 -0.013090399 -0.11005389 -0.19858576
-0.023601832 0.019698871 -0.14995714 -0.20573622 0.20993404 -0.023802547 -0.1824545 -0.17142807
0.06859793 0.029020932 -0.18425065 -0.20049618 -0.015513902 0.3071574 -0.13339785 0.060097408
0.060844257 -0.054349564 0.038659055 -0.0012180858 0.08477965 -0.054176163 -0.17065158 -0.2653603
-0.23625505 0.005847704 0.07766842 -0.03414233 -0.11317596 0.1981593 -0.09987286 -0.010437636
0.08638771 -0.20298831 0.04660404 -0.07168946 -0.04853136 -0.08940778 -0.29197136 -0.045541644
-0.23989117 -0.052791633 0.08787895 -0.032549888 -0.06905569 0.1266947 -0.130807 -0.018287528
0.029431058 -0.10674777 -0.041096937 -0.10458553 0.20554997 0.17080206 -0.26906785 0.093929455
0.082636416 0.013349571 -0.027483314 0.11772375 -0.029013507 0.15375572 0.2440001 0.27319342
0.24574581 0.06849714 0.2080816 -0.007734528 -0.0351127 0.017254226 0.16839664 0.07531286
-0.19444796 -0.08948632 0.12981613 0.19898091 -0.14432131 -0.04775106 0.009945999 0.17749664
-0.18617265 -0.05608518 -0.22595236 0.1481583 0.0047226483 -0.1835203 0.24033843 0.032312658
0.011013468 0.042316902 0.10542366 0.124353394 -0.09708147 0.03254988 0.17779244 -0.11954703
-0.11085687 -0.14670552 -0.19178827 -0.15834971 0.0086595155 0.0566517 0.17297527 0.15570155
0.19608353 0.14647673 -0.16257481 0.14110069 0.223489 0.02669403 -0.18068849 -0.05870489
0.1287147 0.101550065 0.11017403 -0.19412224 -0.11152237 0.20459779 -0.0895346 0.042646553
-0.08972777 0.17358652 0.14073922 0.034966674 0.119084395 0.15009195 -0.07552673 0.1655878
-0.09455249 -0.14607471 0.10764064 -0.054446474 0.16704431 -0.11066443 0.13416798 0.22367905
0.06734913 -0.0044713877 0.059732724 -0.12454031 0.2627998 -0.12899181 0.20854226 -0.14080282
-0.09494387 0.05871152 0.2314357 0.20298688 0.2044925 0.0055629844 0.1721966 0.17618664
0.2602423 0.14454922 0.013192932 0.08690706 0.20618093 -0.0060268324 -0.0026401684 0.009095407
0.24397554 0.18478301 0.16267213 0.103664465 -0.08635554 0.029913805 -0.0011693089 0.23744118
0.0072572003 -0.020564271 -0.2653544 0.074167304 -0.11899311 0.1648334 0.09188886 -0.1398666
0.16297576 0.14335124 -0.13878714 0.0034179117 -0.20902465 -0.17732187 -0.031889 0.124514475
-0.00948613 0.052365933 -0.09477038 0.1137321 -0.033228584 -0.2199648 -0.11691382 -0.0886226
0.09614703 -0.19922471 0.14098042 -0.05891661 -0.19042856 -0.06707755 0.12693658 0.06177164
-0.29560187 -0.13527805 -0.043407436 0.10733264 -0.04725635 -0.19770794 -0.12984994 -0.12145358
-0.101185344 -0.031412613 -0.11673066 -0.17311873 0.14959076 0.1812344 -0.04994896 0.23981246
0.23297726 0.13477042 0.119053975 0.031054726 0.008061069 0.10098968 0.00017665428 0.06561166
0.10849575 0.072640054 -0.09154648 -0.027085362 -0.12931989 0.18058673 -0.059220403 0.189347
0.15449852 0.062218096 0.12141307 0.11042459 0.17829597 -0.1751063 0.200548 0.19934446
-0.05174544 0.1734932 0.023993565 -0.03509778 0.12958501 0.26488435 -0.0076613044 -0.046706524

layer_1.bias f4 [100]
00000000: a01d 2d3e 1ea8 33be 4d0f 20be 5018 1c3e
00000010: eb46 09be 15a6 6ebc c1c4 48bd b822 773e
00000020: 9651 5abe d5d2 c03c 9377 893e 8cae b6bd
00000030: 61fb 903d dbe4 253e 7bb8 2f3d 26fd b2bd
00000040: 7efc 153d 92f8 023e 4625 043e 0cf1 90be
00000050: cc36 84be 4daf 69bd 8721 25be ab1f 003e
00000060: 67a0 2fbe 7519 343e 3f55 48be 6059 f0bd
00000070: 9421 92bd b765 583e 9d3b 9c3b 8c45 0dbe
00000080: ea30 4e3e 890f 0a3e d5ab 97bd f717 b3bd
00000090: 0634 e4bd c66f 9dbc 8413 94bd 32ae 003e
000000a0: 24d0 853c 208c 31bd 82b5 8cbd a6e4 e9bc
000000b0: 5cd5 5dbe 409e 303e 6bf1 a33c 1ebf 88bd
000000c0: 91f1 f43b abbd 3b3e fcac 493d c753 38be
000000d0: 6653 1cbd 458f 68bd 17c6 fe3d 0040 e0bd
000000e0: 050a a1be 163e 02be ff35 67be b795 08be
000000f0: 24e9 c63d 3b21 393d a1db 9fbc e159 37bc
00000100: 5ffc 273d 9633 d53c 7875 3d3e fe36 483e
00000110: f2fa eabd c0f1 09be 21b5 81be ee19 f83d
00000120: e4aa bbbd 959c 1fbe 614a 15be 18bb 2abe
00000130: a7d2 c13d 9a40 a5bd 1543 ffbd 27a0 323e
00000140: 9d98 29bd f49f 05be 37f0 42be 045d 983d
00000150: 651b 143e b8d8 77bd 20f8 0a3e f7d0 19be
00000160: 3db8 4a3c d99b b0bc 0ca2 24be 4b7c 753d
00000170: 09dd 27be 2bb0 1bbe 2ba9 e33d d747 a0bd
00000180: 7c36 b53a e0c8 173d eb70 303e 5565 25be
0.16905832 -0.175446 -0.15630837 0.1524365 -0.1340596 -0.014565964 -0.049015764 0.24134338
-0.21320185 0.023538033 0.2684904 -0.08920011 0.07079197 0.16200583 0.042900544 -0.087396905
0.03661775 0.12790135 0.12904844 -0.28308904 -0.25823057 -0.057051945 -0.16126071 0.1251208
-0.17151032 0.17587836 -0.19563769 -0.11735797 -0.07135311 0.21132551 0.0047678486 -0.13796061
0.20135847 0.13482489 -0.07405821 -0.08744805 -0.11142735 -0.019218337 -0.07230285 0.1256645
0.0163346 -0.043346524 -0.06870557 -0.02855141 -0.21663421 0.17247868 0.020012578 -0.06677078
0.007475086 0.18334071 0.049237236 -0.18000709 -0.038165472 -0.056777257 0.124401264 -0.10949707
-0.31452957 -0.12718996 -0.22579192 -0.13338362 0.09712437 0.045197707 -0.019513907 -0.011190862
0.041012164 0.026025575 0.18501842 0.19552228 -0.11473645 -0.13471127 -0.25333503 0.12114321
-0.09163454 -0.15587075 -0.14579155 -0.16672933 0.09464007 -0.080689624 -0.12463967 0.17443906
-0.04140531 -0.13049299 -0.19036947 0.07439616 0.14463575 -0.060509413 0.13571215 -0.1502112
0.012373027 -0.021558689 -0.16077441 0.059932988 -0.16392912 -0.15203921 0.111162506 -0.07826202
0.0013825442 0.037056804 0.17230575 -0.16151936

layer_2.weight f4 [100, 100]
00000000: cb51 df3c 5413 973c a4b8 60bd c66b cb3c
00000010: ee6a c2bd 464e 2abd 47e3 e13c f13f 31be
00000020: e7cc 71bc af16 b83d 2296 fcbd fbdc 2b3d
00000030: cd6e d6bc 1b4d 8abc 071d b0bd 9981 e8bc
00000040: 9334 adbd e5ea 103d c8ac f0bc 01a9 c5bd
00000050: 5040 e6bd 7056 eabd 8673 cb3d a034 a53d
00000060: 3045 913b 8161 31bc 30cf 14bd 9a51 6e3d
00000070: 61b7 223d 4178 0dbe 83e4 b13c 8199 dbbd
00000080: cec2 90bd 9eb3 27bd 0a43 7bbd de07 d53c
00000090: c35a 6dbd e41a b1bd a35f 01be c980 b63d
000000a0: 4fcd 7dbd 7bec 9bbd 9e11 08be f4bc 89bd
000000b0: a048 ab3d b62d 913d 8834 99bd ad80 143d
000000c0: 2e3b 0ebd 7864 06be a476 2dbd 9b07 4bbd
000000d0: 3372 dfbc 79c7 aabd 37be 89bd 5d1c 5f3c
000000e0: d386 4fbb 0b08 1ebc 49dd 15be 3abb 173c
000000f0: 2515 fb3c d10a c2bd 2744 423c c40b 8ebd
00000100: eb09 c33c acc0 a6bd 28a4 be3a 6401 1cbe
00000110: 88ff 093d 5b30 0ebc ecdb c93d bb13 c53c
00000120: 6924 643d 0dbc 0cbe bdc5 36bc da47 08bd
00000130: dc36 bb3c 1e92 d2bd dd2b 3bbd e0bb b0bd
00000140: 5419 d6bd 8ee9 8fbd 9195 a0bd eb43 e4bb
00000150: 0c3d 603d 1adc 96bc c0d5 2abc 2028 0cbe
00000160: d40c 6bbd 138b 29bd b254 e1bc e995 62bd
00000170: bf3e 34bc 0068 e0bc bb0f 5abd 3b11 afbd
00000180: 4f29 d7bd 3829 14bd 491e 87bd d7e5 b83d
00000190: 6fd2 c3bc 6103 1c3d 8fce 133e 8918 9c3c
000001a0: a024 63bd dba8 ddbd 26ee 8dbc ed9a 1fbe
000001b0: 8ef6 b6bc 8534 80bd bdd8 38bd df73 cebd
000001c0: 9af6 4d3d c94f e33c 32fb 16be 56b0 1ebe
000001d0: b04b 2abd e523 f9bd 8d6a c53c 2870 3abc
000001e0: 438a c03d 1c88 17bd 0818 dd3b 25e6 d1bd
000001f0: b5e9 883d f0be 543d f798 e1bd c691 8dbc
00000200: b3f1 03bd 74be f1bd 58d6 8a3b fe03 ef3c
00000210: b0e4 b5bd 5edd 17bd 557b 14ba eded ca3d
00000220: 4056 863d adcc b03d be76 8dbd d66e b73c
00000230: 5172 913a fe0f 483c 1177 04bd 57f2 ffba
00000240: 068f 783d e450 59bd 50f5 ce3c 9f0f d03d
00000250: 051a 5abc 91e3 263d c2b4 883d c05a 933d
00000260: a194 773c e70c 82bd 00c6 ce3d 8c40 e73d
00000270: 6e6c c43d 8859 cc3a 3716 5fbc e4b1 993d
00000280: 1516 6abd 9454 c7bd 8d25 9fbc 3d0f 68bd
00000290: febe c7bc 713a 95bc 00f8 c7bd 78ed a4bd
000002a0: cdb0 59be 2418 e23c 47ca 1c3e e789 fb3c
000002b0: 8fa3 e1bd b13a 0d3c ad6d 313c 4f43 b63d
000002c0: 161d 02bd a8d8 6bbd 7d40 083e 15dc c53d
000002d0: 085d 6ebc a15d 4bbd 038c d63d 9dba 493d
000002e0: 0afd fa3d 3f6c 013d 7c03 093d cc71 763d
000002f0: 1f13 1abe dfd2 b33d 89b2 4ebd f9ac 4fbc
00000300: 3533 07bd 64f5 6b3c a1bc d8bd b6e7 b2bd
00000310: 55e5 9e3d 3c7c db3c 5941 ebbd 82ed debd
00000320: 64f0 833d 0f44 22bd 8806 9cbd 66c9 633b
00000330: 8ba5 dbbd 7d11 3ebb d10d a53d 195a c83d
00000340: 3327 f7bd b4d8 94bc 1ac6 b63d e7e8 863d
00000350: b54a e8bd 15c6 ee3d 867d 133e 78ad bc3c
00000360: 8861 cd3d fab9 03be c739 77bd 373d b8bd
00000370: be48 1dbe d86e f3bd ad95 c3bc 60bb 59bc
00000380: bdfc c5bd 4285 98bd aff7 fb3d 9c80 003e
00000390: 813b 89bd 1860 02bc 974b fd3c 517d df3d
000003a0: 307a 07be 32f5 ddbd 94fa 8bbd 1b5a 0f3c
000003b0: f6d5 50bd 37a6 87bd 2a06 813d 399f 283d
000003c0: ece4 dfbd 3af5 603d 4b11 60bb 0040 3b3d
000003d0: acbe 7fbd 57ba 00bd 299b 013d e3be 8abd
000003e0: 974e 0fbe 9da2 dbbc 0f19 1d3d 3bbd 29bd
000003f0: 0faf 4e3d 7e69 d3bd 9ec3 81bd e9ac b1bd
0.027260682 0.018441834 -0.054863587 0.024831664 -0.094930515 -0.041578554 0.027574195 -0.17309548
-0.014758325 0.089887016 -0.12333323 0.04195879 -0.02617588 -0.01688247 -0.085992865 -0.02838211
-0.08457293 0.035380263 -0.029379264 -0.096513756 -0.112427354 -0.11442268 0.09934144 0.08066678
0.0044332966 -0.010826469 -0.036330402 0.05818329 0.039725665 -0.13815404 0.021715408 -0.10722638
-0.07068406 -0.04094278 -0.06134323 0.026004728 -0.057947885 -0.08647707 -0.12634139 0.089112826
-0.061963376 -0.076134644 -0.1328797 -0.06725493 0.083634615 0.07088797 -0.07480723 0.036255527
-0.034724407 -0.13124263 -0.042349473 -0.0495678 -0.027276134 -0.08338828 -0.06725734 0.013617602
-0.0031666055 -0.009645472 -0.14635195 0.009260947 0.030649731 -0.09474719 0.011857069 -0.06935838
0.02380844 -0.08142218 0.0014544772 -0.15234905 0.03369096 -0.008678521 0.098564 0.02405726
0.055698786 -0.1374361 -0.011155543 -0.033271648 0.022853307 -0.10281776 -0.04569613 -0.08629584
-0.1045405 -0.07026969 -0.078410275 -0.0069661043 0.05474572 -0.0184155 -0.0104269385 -0.13687181
-0.05738528 -0.041392397 -0.027506206 -0.055318747 -0.011001288 -0.027393341 -0.053237658 -0.08548208
-0.10505926 -0.03617212 -0.06597573 0.090282135 -0.023904053 0.03808916 0.14434265 0.019054668
-0.05545485 -0.10823222 -0.017325472 -0.15586443 -0.022334363 -0.06260017 -0.045128573 -0.100806944
0.050284006 0.027748005 -0.14744261 -0.15496954 -0.041576087 -0.121650495 0.024098659 -0.011379279
0.09401371 -0.03699504 0.0067472495 -0.10248975 0.06685201 0.051939905 -0.11015504 -0.017281424
-0.032212924 -0.11803904 0.0042369775 0.029176708 -0.08881509 -0.037076347 -0.000566413 0.09908662
0.0655942 0.08632789 -0.06907414 0.022391718 0.0011096691 0.012210844 -0.032340113 -0.0019527179
0.060683273 -0.05305566 0.025263458 0.101592295 -0.013311868 0.040744368 0.06675102 0.071950436
0.0151111195 -0.06350117 0.10096359 0.11291608 0.09590994 0.0015590647 -0.013616136 0.07504633
-0.057149965 -0.09732929 -0.019427085 -0.056655157 -0.024383064 -0.018216344 -0.09764099 -0.08053106
-0.2125885 0.027599402 0.15311538 0.030705405 -0.110175245 0.00861995 0.010829371 0.08899557
-0.03176602 -0.057579666 0.1330585 0.09661118 -0.014548548 -0.04964984 0.10475924 0.049250234
0.122552946 0.031597372 0.03345059 0.06016712 -0.15046357 0.08780455 -0.050463233 -0.012675517
-0.03300782 0.014401767 -0.10582853 -0.087356016 0.07758585 0.026792638 -0.114870735 -0.10885145
0.06442335 -0.039615687 -0.07618433 0.0034757494 -0.10724934 -0.0029002123 0.08059276 0.0978281
-0.120680235 -0.018169738 0.089245036 0.06587391 -0.11342374 0.11658875 0.14403352 0.023031935
0.10028368 -0.12863913 -0.060357835 -0.08996051 -0.1535978 -0.11886376 -0.023875082 -0.013289303
-0.096673466 -0.07447292 0.12303101 0.1254906 -0.067008026 -0.007957481 0.030919833 0.10912574
-0.13230205 -0.10837783 -0.06834903 0.00874951 -0.0509853 -0.066235 0.06300004 0.04116747
-0.10932335 0.054921366 -0.0034189995 0.045715332 -0.0624377 -0.031427708 0.031642113 -0.0677469
-0.13994823 -0.026810938 0.038353976 -0.04144023 0.050459918 -0.103228554 -0.06336139 -0.08675558

layer_2.bias f4 [100]
00000000: 2e33 a0bd 876d f2bd eb1c 183d 8637 adbd
00000010: bee2 fdbd 8f27 15bd 9a0d 86bd d1f8 a9bb
00000020: e258 b4bd ec00 8ebd 6379 183c 7414 e0bc
00000030: 7536 c2bd 4a11 d9bd 063b 82bd 807e aabd
00000040: 6957 d53c 36e4 4a3d 2740 b33c 29b2 9dbd
00000050: 59e1 4a3d aa37 bcbd f3c1 193c cfc3 163d
00000060: 1612 833d f52e 8abd 128e 08be b1db 00bd
00000070: 43b8 86bd 499e 42bd 03b8 30bd 703a a8bd
00000080: cab8 4bbc a9a3 263d acae 383d 7c8f 89bd
00000090: 5b94 4d3d d526 99bd ca76 93bc 92ad 95bc
000000a0: a94c b8bd 4a14 d6bd 783f 4bbb 1fe8 50bd
000000b0: e95f c7bd 44be 46bd 4a66 bdbd 5e26 3c3d
000000c0: 8cea 543d 2f46 813b 9f8e 1f3d 9ecb c6bd
000000d0: 22cf 2639 ca76 543d a97d 8cbd 8017 09be
000000e0: 1379 3fbd 9e2a 5f3d e601 5c3d 230b 6438
000000f0: 71c2 50bc 0216 49bc 2a37 3cbd af1b 95bd
00000100: 8467 ee3c 792a 00be 52d3 1ebd 15b1 8fbc
00000110: 6ae3 373c 9283 163d 5506 10bd f0fb 803c
00000120: 27f9 90bd 1797 e2bd e9a0 6d3d 5b9c da3d
00000130: b281 c43d 72d9 e6bd 93fa cdbb bcf6 353d
00000140: e3aa 633d 1f0a 173d 0c52 55bd 5add 10bd
00000150: da0e db3c 4b19 8f3b e194 8e3d fd10 d5bc
00000160: a43d 8abc 27dd 973b 66c5 353d c5d9 783d
00000170: 9bf3 513d 6f49 d53d 5aa2 debd 980a cebc
00000180: dadc 8cbd e535 c9bc 16d1 16bd 9b97 33bb
-0.07822262 -0.11837297 0.037136953 -0.08457856 -0.12396763 -0.03641468 -0.06545563 -0.005187132
-0.088060156 -0.069337696 0.009306285 -0.027353503 -0.09483043 -0.10599001 -0.06358914 -0.08324909
0.026042657 0.049534045 0.021881176 -0.07699997 0.049531315 -0.091903046 0.00938462 0.03680783
0.06399934 -0.067472376 -0.13335446 -0.031459514 -0.06578114 -0.047514234 -0.043144237 -0.08214271
-0.012434194 0.040683422 0.045088455 -0.067168206 0.05019031 -0.0747811 -0.018000979 -0.018271241
-0.08998997 -0.104530886 -0.0031013172 -0.051002618 -0.0973509 -0.048521295 -0.09248026 0.045935027
0.051981494 0.003945134 0.038954373 -0.09706806 0.00015908157 0.0518711 -0.06859905 -0.13387871
-0.046746325 0.054484002 0.053712748 5.4369808e-05 -0.012741671 -0.0122733135 -0.045951046 -0.07280671
0.029102094 -0.12516202 -0.03877575 -0.017540494 0.011223653 0.03674657 -0.03516229 0.015745133
-0.07078772 -0.11063974 0.058014784 0.10674354 0.0959505 -0.11271943 -0.0062859743 0.044424757
0.055582892 0.036874887 -0.0520802 -0.035367347 0.02674048 0.004367029 0.0696199 -0.026009077
-0.016875096 0.0046345177 0.044377707 0.060754556 0.05125771 0.10414397 -0.1087081 -0.025151536
-0.068780616 -0.024561832 -0.036820494 -0.0027403596

layer_3.weight f4 [100, 100]
00000000: 66dd fe3c ecfb 27bc df90 493c 4187 33bc
00000010: 788c 75bc 5422 31bc fcb5 6b3d 13eb e4bc
00000020: d6dc 3abd 02ae 9fbd 5815 c7bd 1da0 e8bc
00000030: cc43 b7bc 16a0 4cbd 088d 823c 5090 13bc
00000040: b9c0 e23c 28f1 91bc b2d0 e93d a4d7 e8bb
00000050: 9a82 05be b7ad 653d 57a6 f83b 8b19 813c
00000060: bcce 8c3d 76c1 10be 36ed 18bc 25b2 46bc
00000070: f16a dabd e0d1 893d 87b7 9ebb a215 8a3d
00000080: ca9d a4bc 4583 f2bd ed96 aebd 6639 963d
00000090: 79a1 723d 6722 9fbc 67dc 1a3c 2933 723d
000000a0: a9fb cebc 640a f33c e41a 71bd 3dbf 4e3c
000000b0: 4e34 943d 3b84 aebd dc27 553d 2d1e ad3d
000000c0: 426d 823d a9b9 2b3d d92a 98bc a5fb 3e3d
000000d0: 36a9 a6bd fd11 463d 4b5b 48bd cd4b 2e3d
000000e0: 4699 5abc cb4b c03b 6a80 623d 09ae 1a3e
000000f0: 65cc f53d 1910 6ebd 985d 13bc 28e7 92bd
00000100: a61d d83d 9ef8 2bbd c961 22bd 5c46 c7bc
00000110: c584 e03c e4e4 8cbd d4f6 443d a669 d83d
00000120: 69c3 7dbd 05d7 8a3c 5bca 853c 1b0f e4bd
00000130: 2cb7 813d 5fe5 0ebe 1335 943c 721d f43c
00000140: 88fb 893d ab1a bf3d a8a1 0bbd 3704 8ebd
00000150: b5bb 35bd cbe2 99bd 9754 a53c c836 47bd
00000160: e0c6 1bbe 4a1d 0ebd b94f 62bd a53f 92bc
00000170: 1620 163e c134 7fbd 2de1 1d3d 48bf 5e3c
00000180: efa0 0f3d c5b8 00bd ad77 093e 5289 29bd
00000190: b3a9 61bd 2084 25bd f185 9cbd 84c3 51bd
000001a0: 50c3 3dbd 7cce 853d 532e 513c f832 183e
000001b0: ee22 98bb 9e83 523c adb7 303d f523 05bd
000001c0: f292 39bd 2f4c d1bd 39ea 8e3c ac70 6f3d
000001d0: 5e68 2abd af1b 903d b875 e1bd 61ad 2c3e
000001e0: 9b0c b1bc 431a c4bd 43af bbbd e045 c3bd
000001f0: 61d8 ad3c 02e8 f63c 7f58 a83d 0967 f1bd
00000200: 7334 17bd 2719 023d ba98 c53b 3c39 a7bd
00000210: 53c3 3abd 13cc dfbd 32cb 6a3d 5cf9 8d3b
00000220: 74ea d0bd 49f3 acba f86d 6f3d 6ba7 97bc
00000230: d93b 5b3d 7f06 bebc a356 f03d 94b0 93bc
00000240: 9884 a9bc 7c1d 9a3d fbe7 20bd 4c76 49be
00000250: 34ce 803d 1da6 d7bd ce8a 09bd eac1 dbbc
00000260: 75ba 923d 6b85 efbc 4f3a 49bd de23 88bd
00000270: 5175 29bd 1c83 dcbd dfc0 9ebc a3c4 25be
00000280: 5768 c9bb 3a3b 763c be9a b8bc 709b 173e
00000290: f694 b0bd fba0 c9bd 06ee 553d 8908 12bd
000002a0: d3ca 023e 01eb abbd 970d db3d c171 eb3d
000002b0: e3f5 50be 33f1 e6bd 9523 ca3d 1474 903d
000002c0: 15f7 8bbd 1c46 153e 86be 1e3e 853a 06be
000002d0: 6d3f 77bd c603 953d d298 ac3d ab66 063e
000002e0: 5535 c4bc b026 b03d 5410 debd c0af dfbc
000002f0: 32ea d1bd b72d 2d3d eb5f 203c bf01 0f3e
00000300: 24c5 30bd 9529 c3bc 3880 98bd f9dc 003d
00000310: 7c4e 54bd 1a28 da3d 50cd 19bd 48ff d6bd
00000320: e6d3 a4bd e53e 1fbe 502f 7abd 9171 143d
00000330: 73d6 82bd 4fc3 fbbc 6079 3cbd 3362 9f3d
00000340: bdc5 5bbc 9edb c23c ba89 b2bc ff50 29bd
00000350: 281e c63d fa68 e7bd a4fc 993d 9a46 df3b
00000360: c46d 4ebd 3d64 1cbe b22c 0e3e dfe0 473d
00000370: c24e 043c 98e7 2cbd 2820 ce3d d1b8 61bd
00000380: 5198 903d 45a2 8ebc f0e8 04be bf26 c23c
00000390: 3ac6 a5bd 3b38 e93d 1242 ffbb 4546 4bbc
000003a0: 968b 493d 9cd8 b8bd a165 e73c 6d36 eb3b
000003b0: e07a 803c c518 033d 2170 7cbd 125c 8fbd
000003c0: 7460 9fbd 71ad b3bd 1b55 943b c328 85bd
000003d0: 837f 4e3d fa14 8c3c 5dbc a0bd e840 99bd
000003e0: 5f5c 023c 07d3 48bd eb26 ef3d 2967 a9bc
000003f0: 6d0c ad3d 07eb e33d 98e9 edbd 9b41 6ebc
0.03111143 -0.010252934 0.012302606 -0.01095754 -0.014987104 -0.010811407 0.0575466 -0.027944123
-0.04562076 -0.07796861 -0.09720868 -0.02839666 -0.022371195 -0.049957357 0.01593639 -0.009006575
0.027679788 -0.017815188 0.114167586 -0.0071057845 -0.13038102 0.05607387 0.0075881886 0.01575925
0.06875369 -0.141363 -0.009333899 -0.012127434 -0.10664929 0.067294836 -0.0048436555 0.067424074
-0.020094771 -0.11841444 -0.085248806 0.07335167 0.059236024 -0.019425584 0.009451962 0.05913082
-0.025266485 0.02966804 -0.058863536 0.012618837 0.07236539 -0.08521315 0.052039966 0.08453021
0.063684955 0.041925106 -0.018575119 0.046626706 -0.08137743 0.048357 -0.04891519 0.042552758
-0.013342207 0.00586841 0.055298246 0.15105452 0.12001876 -0.05812082 -0.008994482 -0.07172996
0.1055253 -0.041985147 -0.039644036 -0.024325542 0.02740706 -0.06879595 0.048086956 0.10567026
-0.061953936 0.016948232 0.016331842 -0.11135694 0.063337654 -0.13954686 0.018091714 0.029799197
0.06737429 0.093312584 -0.034089714 -0.06934398 -0.044368464 -0.075139605 0.020181937 -0.048636228
-0.15212584 -0.0346959 -0.05525181 -0.017852614 0.14660677 -0.06230617 0.038544822 0.01359541
0.035065588 -0.03142621 0.13424559 -0.041390724 -0.05509348 -0.040409207 -0.07642735 -0.05121185
-0.046328843 0.065335244 0.012767392 0.14863193 -0.004642836 0.012848763 0.043143917 -0.032504994
-0.045306154 -0.10219609 0.01744567 0.05845706 -0.04160344 0.0703653 -0.11008781 0.16863014
-0.021612456 -0.095753215 -0.09164288 -0.09534812 0.021221342 0.030139927 0.08220004 -0.117872305
-0.036915254 0.03176227 0.0060301693 -0.081652135 -0.045596432 -0.10927596 0.05732269 0.0043327045
-0.102009684 -0.0013195063 0.058454484 -0.018512448 0.053523872 -0.023196457 0.11735275 -0.018028535
-0.020693108 0.07525155 -0.039283734 -0.19674033 0.0628933 -0.105297305 -0.03357964 -0.026825864
0.0716447 -0.029238423 -0.049127873 -0.06647466 -0.041371647 -0.10767195 -0.019379077 -0.16188292
-0.0061464715 0.015028769 -0.022534724 0.14805388 -0.08622162 -0.09845158 0.05222895 -0.03565267
0.12772684 -0.08394433 0.106959514 0.11496306 -0.20406298 -0.11276474 0.09870068 0.0705339
-0.068342365 0.14577526 0.15502366 -0.13108261 -0.060363222 0.0727611 0.08427586 0.13125102
-0.023951212 0.08601129 -0.10842958 -0.027305484 -0.10249747 0.042279925 0.009788494 0.1396551
-0.043156758 -0.023823539 -0.07446331 0.031460736 -0.05183266 0.1065218 -0.037549317 -0.1049791
-0.08048229 -0.15551336 -0.061080277 0.036241118 -0.06388559 -0.030732779 -0.04601419 0.07782402
-0.013413844 0.023786362 -0.021794189 -0.04133701 0.096737206 -0.112993196 0.075188905 0.0068138363
-0.05039765 -0.15272613 0.13884237 0.04879844 0.008075418 -0.042213053 0.10064727 -0.055107895
0.07060302 -0.01741136 -0.12979484 0.023700116 -0.08094449 0.11387678 -0.0077898586 -0.01240689
0.049205385 -0.0902569 0.028246703 0.007178119 0.015683591 0.032006044 -0.061630372 -0.06999983
-0.07782069 -0.08773316 0.004526747 -0.06501915 0.050414573 0.017099846 -0.078484274 -0.07483083
0.007956593 -0.049029376 0.11677345 -0.020679073 0.08449636 0.11128812 -0.1161682 -0.014542009

layer_3.bias f4 [100]
00000000: ca45 61b9 0d60 843d 86cf 803d 56c7 373b
00000010: 3077 01bd d0cf 043d 57eb a33d 2add 29bd
00000020: 3a94 a33c 0252 d9bd f02d 76ba 9730 d6bd
00000030: e61c 0bbe e3db ec3d dc9b 36bd c495 903d
00000040: 83b7 be3d 281e f93d ee53 edba e0c4 76bd
00000050: 310d e3bd 5a53 bc3c 9c06 b43c 212b 723d
00000060: 77d6 363d 8d50 ddbd 962d 073d a61f dc3a
00000070: 3d67 86bd 522d 253d 193d 853d 284d 7fbd
00000080: 9c77 92bd a87f 6bba 3936 36bd fc51 17bd
00000090: 00cc a0bc 3e82 eb3c d318 3bba 285f e03d
000000a0: 2e40 23bd ffd1 bcbc 9b9a 5abc d385 113d
000000b0: a11f 603a f303 923d a53f 12bd d22f 1d3d
000000c0: 77d8 eebb 878e 8bbd 3b9f 57bd 66b3 a6bd
000000d0: 6df8 58bd b6a0 d4bd e35b cb3c 6571 a8bc
000000e0: bcaf 1e3d 5e39 b43d c114 db3c c340 bfbd
000000f0: 8faf 563d 9f2e 8d3d 3180 ea3d 9194 ccbd
00000100: dc97 cabd de5c be3c b61b ed3a a673 e03d
00000110: d321 c53c e115 e9bc fd13 533c b6fe c03d
00000120: a9be 39bc 79dc e13d 8f88 753d 66a9 21bd
00000130: b28b bfbc 7687 02be c326 8d3c 0526 073e
00000140: f255 73bd 535d eebc a345 45bd 4f7c 8cbd
00000150: 9885 12bd a138 d2bc 8883 d9bc 5c48 dcbd
00000160: dea5 cb3d 02c0 f0bc f073 91bc 43b5 023e
00000170: 56b1 85bc 7c5e a3bb 233d 553d 070a 803d
00000180: 9468 a5bd c7e1 abbc c96d 04be 392b 483d
-0.0002148367 0.06463633 0.06289582 0.0028042397 -0.031607807 0.032424748 0.08003872 -0.041470684
0.01996814 -0.10611345 -0.00093910005 -0.104584865 -0.13585243 0.115653776 -0.044582233 0.070598155
0.09312346 0.12163955 -0.0018106678 -0.06024635 -0.110865004 0.022988964 0.021975808 0.059123162
0.044638123 -0.108063795 0.03300246 0.00167941 -0.0656266 0.040326424 0.06505794 -0.06232944
-0.0715172 -0.0008983561 -0.044485305 -0.03694342 -0.019628525 0.028748628 -0.0007137183 0.109556496
-0.03985613 -0.023049353 -0.013342525 0.035528015 0.0008549635 0.071296595 -0.035705227 0.038375683
-0.007288988 -0.06814294 -0.05264209 -0.08139686 -0.052971292 -0.10382216 0.024824088 -0.020561883
0.038741812 0.088000044 0.026743295 -0.09338524 0.05241352 0.06893658 0.11450232 -0.09989274
-0.09892246 0.023237642 0.0018089924 0.10959558 0.02406398 -0.028452815 0.012883184 0.09423582
-0.011336961 0.1102838 0.059944686 -0.03946819 -0.023382042 -0.12746987 0.017230397 0.13198097
-0.059408136 -0.029097235 -0.048162114 -0.068596475 -0.035771936 -0.025661768 -0.026551977 -0.10755989
0.09943746 -0.029388431 -0.017755479 0.12764458 -0.016319912 -0.0049856286 0.052060258 0.062519126
-0.08076587 -0.020981682 -0.12932505 0.048869345

layer_4.weight f4 [100, 100]
00000000: 1432 b43d b58e 523b daf0 823b e8ba 70bd
00000010: 1bfd 883d a5e7 6dbd ea11 73bd 8b4f 533d
00000020: 1fe9 60bd 2d9f 2f3d 644a 993d bdb5 5cbd
00000030: 49a0 913d fcd1 be3d be42 363d e8dc 28bd
00000040: 07d7 743d 7dfd 343d 072d 953d 883f 45bd
00000050: bb72 6ebd 3f90 ac3a a520 b3bd c190 8abd
00000060: bfb8 98bc a424 113d 5270 df3c 5f85 aebd
00000070: ea5a 033d db1f 16bc 6d8e 35bd b117 40bd
00000080: 82ea d6bd 401a e9bd c606 32bd 8455 b63c
00000090: f9bc 083d 23d7 00be 0f93 04bd 2490 e43d
000000a0: d54e debc 397c 003e 5454 26bb 030c 46bc
000000b0: d936 623c 1014 6d3d 8e3d 7fbd aa43 013e
000000c0: ed67 843d 43e2 823c 517e 243d 78d9 57be
000000d0: 42f9 bc3d 3a45 22bd 4999 813d b988 e73c
000000e0: 2d78 97bd e612 903d b510 7cbc 2423 923c
000000f0: 9529 b13d 8cca cdbd 1567 86ba 3239 d43d
00000100: 1525 903c 174d 013c 04bd 14bd 78fb f23d
00000110: f3a9 bbbc d5dd a1ba c390 51bd a9c8 173d
00000120: 869d 1e3d 9559 743c af3c de3c 6497 0c3c
00000130: 8bb7 39bd 26b9 81bd 7dd2 96bd 30e1 b73c
00000140: 3b45 1fbd 0d07 f1bd 5e2f 8dbd fb52 86bc
00000150: 9fdc 173d 0a22 36bd 0885 af3c 7e28 e9bd
00000160: 913c bb3c 7f91 17be 6383 cc3c 58b5 a5bc
00000170: 4914 0dbd 0f43 23bd 327c 193d b32d 313d
00000180: 9cab adbc a012 663d c7e3 3a3d 1dce 7d3d
00000190: 8fb7 1c3d 2064 99bd c910 81bd be0f 95bd
000001a0: 84ca 4a3d 61f8 6ebd a20e fc3d 6a76 31bd
000001b0: dda3 8abd 69b3 debc 7a08 8a3d caac 903d
000001c0: 7203 bebd dd81 223d 83f9 efbd 1ba0 2fbd
000001d0: 6d67 44bd deb4 13bd 99df acbd c7ba 9cbd
000001e0: 78a9 a9bd da5f 723d 004a afbb 3b60 10bd
000001f0: f893 57bd fd91 29bd b1fd 753d 76c5 1ebd
00000200: de42 8e3b 9a5b 1cbd aaa3 93bc e9cb 86bd
00000210: b287 a5ba 097e dabc 0798 babd caa3 d33c
00000220: 38e3 443c d81b 0bbd 5391 593d 19ff 043d
00000230: 85b2 873d eb3a 1bbd 8229 8abd 2dba 453d
00000240: e04c 8abd ca63 a1bd a952 ad3c cc4c 1fbd
00000250: 3a46 223d e0bc 2e3d a4a0 0d3d d289 843d
00000260: c410 00be 76fc 4c3d c238 8e3d edf8 ab3d
00000270: 82ef fb3b a58b 54bd 629d 363d 1aa1 9a3d
00000280: 7d55 9b3d 4975 4a3d 4ffc 05be 6ef1 323d
00000290: 315a f7bd acbe f3bc b89f 3b3d 9da0 92bc
000002a0: 711a 343c 5257 bcbd 62ee 293d aed3 15be
000002b0: 9b7f 933d 56a0 d3bd 34d3 71bd 627e 193d
000002c0: 332d 35bc 50a3 c1bd fa82 d2bd 5699 6cbd
000002d0: da91 9039 8ba8 313d 7798 06bd 5e9b c6bd
000002e0: e568 f6bb 7f9e 0ebe 559a adbd 888e 58bb
000002f0: 931f 27bd cb96 7cbc a1d9 9d3d 4bd0 9bbd
00000300: c6ff 16be fef4 863d de4c 5ebd 0340 953c
00000310: 9a5b 6d3d da3c 9a3c 0dca 833d 21ed 9a3c
00000320: 2a9e 203d 35ef 893d ff4b ae3c ea14 c2bd
00000330: 1307 963d 1e02 c8bd 2980 023e 34c9 e4bc
00000340: fbb3 c4bc 6c6c a4bd 7f04 803b 8687 9abd
00000350: 1c66 6dbc ad5f 9c3c 03a1 90bd 2379 033e
00000360: 0a8e 7a3d d76a de3d be37 5dbd 149e 7dbc
00000370: e06d e5bc 0822 8e3d 5c04 3fbd d0ae b1bc
00000380: 0631 a03d 8b3c 6ebd 903f 683d 5fd4 8fbd
00000390: 5476 963d c83b ce3c 4332 79bd 7564 10be
000003a0: 2b04 143d 490c 15be d7f9 283d c9dd cd3d
000003b0: 39d1 563d 3ccf d9bb 1d5d 19bc ea05 d53d
000003c0: ae3d e0bd 8185 d73d fdf5 abbd 9f2c ea3d
000003d0: 5cd1 dd3c bba4 9f3d 7b3a 0ebe 0717 833d
000003e0: df3c 5ebd 9b5b 47bd e3a4 a8bd 76c4 96bd
000003f0: a297 4b3d 53ab 99bd 08cf 9a3d b75e 613c
0.08798614 0.0032128517 0.003995997 -0.058771998 0.06688901 -0.05808224 -0.059343256 0.05158953
-0.05490982 0.04287641 0.07484892 -0.053884257 0.0711065 0.09317395 0.044497244 -0.041226298
0.05977538 0.044187058 0.07283979 -0.04815629 -0.058214884 0.0013165547 -0.08746461 -0.06765891
-0.018642781 0.035435334 0.027275238 -0.08521532 0.032069124 -0.009162868 -0.04432528 -0.046897594
-0.104939476 -0.1138196 -0.04346349 0.022257574 0.033383343 -0.12582068 -0.03236681 0.11160305
-0.0271372 0.12547387 -0.0025379853 -0.012087825 0.013807022 0.05788046 -0.062314562 0.12623468
0.06465135 0.01597703 0.040159527 -0.21079051 0.0922723 -0.0396168 0.06328065 0.028263437
-0.073959686 0.070348546 -0.015384843 0.017839022 0.08650509 -0.100483984 -0.001025411 0.10362472
0.017595807 0.007891915 -0.03631307 0.1186437 -0.022908187 -0.0012349436 -0.051163446 0.0370566
0.038724445 0.014913936 0.027128546 0.008581016 -0.045341056 -0.063341424 -0.07364366 0.022446245
-0.038884383 -0.11768923 -0.068938 -0.01639699 0.037075635 -0.044466056 0.021425739 -0.113846764
0.022856029 -0.14801596 0.024964994 -0.020228073 -0.034443174 -0.039858874 0.037471958 0.043256473
-0.021199994 0.056170106 0.04562738 0.061964143 0.038260993 -0.074898005 -0.0630203 -0.07278393
0.04950954 -0.05834234 0.123074785 -0.04332582 -0.06769536 -0.027185159 0.06739898 0.07064207
-0.09278001 0.03967463 -0.117175125 -0.042877298 -0.047950197 -0.03606116 -0.08441085 -0.076528125
-0.08284277 0.059173442 -0.0053493977 -0.035248023 -0.05263135 -0.04139899 0.060056392 -0.038762532
0.0043414673 -0.038173296 -0.018022377 -0.065818615 -0.0012628941 -0.026671426 -0.09111028 0.025834937
0.012017064 -0.0339621 0.053117108 0.032469843 0.06625847 -0.037897985 -0.06746198 0.048273254
-0.06752944 -0.078803614 0.02115758 -0.0388916 0.039617755 0.042660594 0.034577027 0.064716
-0.12506396 0.050045453 0.069444194 0.08397088 0.0076884637 -0.051890988 0.044583686 0.07550259
0.07584665 0.049428258 -0.1308453 0.043687277 -0.120777495 -0.029754005 0.045806617 -0.017898852
0.010992632 -0.091963425 0.041487105 -0.1463153 0.07202073 -0.10333316 -0.05903931 0.037474044
-0.01105814 -0.094549775 -0.10278888 -0.05776342 0.00027574488 0.043373626 -0.032860246 -0.09697603
-0.0075198286 -0.13927649 -0.08476702 -0.003304394 -0.040801596 -0.015416811 0.07707525 -0.07608088
-0.14746007 0.06589697 -0.054272525 0.018219 0.057948686 0.018827844 0.064350225 0.0189119
0.039213337 0.06735078 0.021276472 -0.09476645 0.07325568 -0.09766029 0.12744202 -0.027927972
-0.024011603 -0.08028492 0.003906786 -0.0754538 -0.014489677 0.01908859 -0.070619605 0.12839179
0.061170615 0.10860222 -0.054008238 -0.015479583 -0.028006494 0.06940085 -0.046635017 -0.021689802
0.078218505 -0.058163207 0.056701243 -0.070229284 0.07346788 0.02517499 -0.06083895 -0.14100821
0.036136787 -0.14555468 0.04125389 0.10052068 0.052445624 -0.0066470187 -0.009360579 0.10401519
-0.109492645 0.10523511 -0.08396528 0.11434292 0.02707737 0.07795092 -0.13889496 0.064008765
-0.05425727 -0.048671346 -0.08234575 -0.07361691 0.049705155 -0.075033806 0.07559019 0.013755492

layer_4.bias f4 [100]
00000000: 4290 143e 92c1 893c 15bb a53d 77a3 8f3d
00000010: ea77 ca3d d6c1 913d 998b d23d 0f2b 26bb
00000020: dd48 b73c 202d d63d a789 74bd 5bbf 453c
00000030: 2d37 cfbd 47de 983c 4eb3 1d3e 9182 983c
00000040: 6911 e63d 4d9b 17bd 57db 40be db31 843d
00000050: 5eb9 88bd 4263 df3d c702 87bd b0f1 c93d
00000060: 91b6 2fbd 5281 063d 621b bdbd 71e4 24bd
00000070: ec8d a3bd 395d f5bd 23a9 d4bc d17d c23d
00000080: afa2 a63d 41ab 853d 2b05 e23d a355 963d
00000090: f494 86bd 48f1 8a3d 660f d0bd e9f6 0c3e
000000a0: ecb3 a4bd 8f89 72bd c4f2 4c3d 44c6 b73d
000000b0: 8bae 7f3d 0ed0 883b c5e5 9dbd 5bfa 8bbd
000000c0: 9122 233d dd23 863d cec1 83bd d6b3 0ebd
000000d0: bc65 f13c ca36 783d 8aeb a1bd 30f9 ea3a
000000e0: 6357 073d 5e9a 1abe 17d3 fc3d 5458 c53c
000000f0: 08c0 e1bc 66ec 353d 8534 a03d 028f ee3d
00000100: dc2b aa3d 6e1c 3f3c 18b5 cd3d 1839 1e3e
00000110: a3bd a03d 4384 ec3d b6c5 19bc 41f0 283e
00000120: cabd 1e3e 0c14 bc3d 8aff 06bb b8cf 04bd
00000130: a1b2 05bc ed9b b63d 34b3 cdbd b9d2 f73d
00000140: 4776 a33c 71c0 c2bd 50cf 52bd ac59 ffbd
00000150: bdc9 e5bc 1947 a6bd 0018 6fbe 3c13 a2bd
00000160: 256e a13d f903 183e c977 c0bc 8e71 a13c
00000170: 6e43 91bd 55da 7abd bb34 00bd 4130 093e
00000180: e0a8 453d d461 bdbd a4d1 b0bc e7d1 a03c
0.14508155 0.016815934 0.08092324 0.070136 0.09886153 0.071170494 0.102805324 -0.0025355255
0.022373611 0.10457826 -0.059701588 0.0120695485 -0.10117946 0.018660678 0.1540043 0.018616946
0.112337895 -0.03701334 -0.18833672 0.06454822 -0.06675981 0.10907604 -0.065923266 0.09860551
-0.04289872 0.032838173 -0.092337385 -0.04025692 -0.07986054 -0.119806714 -0.025959557 0.09496654
0.08136498 0.06526805 0.11036142 0.07340553 -0.06571379 0.06784302 -0.10159187 0.13766064
-0.0804213 -0.059213217 0.050036207 0.08973363 0.062422317 0.0041751927 -0.07709841 -0.06834861
0.039827887 0.06549809 -0.0643345 -0.034839474 0.029467456 0.060599126 -0.07906254 0.0017927047
0.033042323 -0.15097949 0.1234495 0.02408997 -0.027557388 0.0444149 0.07822517 0.1164837
0.08309147 0.011664493 0.100443065 0.15451467 0.0784867 0.115486644 -0.009385517 0.164979
0.15502086 0.09183511 -0.002059909 -0.03242466 -0.008160264 0.08916459 -0.10043946 0.12100739
0.01995386 -0.095093615 -0.05146724 -0.124682754 -0.028050298 -0.081190296 -0.23348999 -0.07913825
0.078823365 0.14845265 -0.023494618 0.019707467 -0.07092939 -0.061243374 -0.031300288 0.13397314
0.048256755 -0.09247175 -0.02158434 0.01963134

output_layer.weight f4 [1, 100]
00000000: 88c6 ec3d 18cd c6bb 0c57 9b3d 85f9 743d
00000010: 2c60 26bd ce83 de3d ee2a f8bd 22b4 263d
00000020: 0c1a 093d 0cf0 80bd 634a c9bc 946f b83d
00000030: 6e32 a0bd 901b 903d 2702 f8bd 22fb b5bd
00000040: a365 c3bc 1a17 433a de89 4b3e af91 ae3c
00000050: 7f95 4b3b 858a 8fbd 8ceb e7bb b886 77bd
00000060: 3a14 d13d ae85 8cbd ba8f c838 124a eab9
00000070: bd7f 28bd eb6c b43d c12e 02be 269e e7bc
00000080: 930d b53d e0f0 9c3c 20bb 8d3d 9aa1 b43d
00000090: 33a5 113c 1ff7 b53d f3d5 3fbc af6e 263d
000000a0: 5ab3 7ebc 9e0c bd3c 3023 183d 97cd 343d
000000b0: 42f5 783d 5d71 93bd 7ee4 f6bb d74a 7e3d
000000c0: 5da5 9a3d 3b22 163e 09de 8abd 8218 87bb
000000d0: 318e 913d f81c 773d 7c17 c1bb c6a8 0abe
000000e0: 5b91 393d 43cf 343d 4bcb a2bd cb21 46bd
000000f0: 945a 83bd 987e a8bd d48b cabc b3b6 cfbd
00000100: 3e94 843d d35d ddbd ab87 743d 4cc7 a0bd
00000110: 5970 8dbd acbe c93d c2ea 123d 8da4 c1bd
00000120: 176c adbd 6b36 e83d d4fd 57bd 7db2 833b
00000130: a505 9dbd f5fb 00bd ce89 0d3d 0c90 9d3d
00000140: 762b d9bd 60ac bfbc 12b1 ccbc c404 52bc
00000150: b5e0 17bd 39b5 e638 22c7 9e3e d8f4 f73b
00000160: b9d6 aebd 524a b8bd 1438 bebc a491 e63d
00000170: ad5c 5b3c 4006 8d3d a117 943d 0f22 a93d
00000180: b3a6 b13d d828 2f3d 0245 eebd cb50 83bc
0.11561304 -0.0060669295 0.07584962 0.059808273 -0.04061906 0.108649835 -0.12117563 0.04069913
0.033472106 -0.06295785 -0.024571603 0.09005657 -0.07822119 0.07036507 -0.121097855 -0.088857904
-0.023852175 0.0007442102 0.19876811 0.021309702 0.0031064448 -0.070088424 -0.00707764 -0.060431212
0.10208936 -0.06861435 9.563514e-05 -0.00044687145 -0.041137446 0.08809837 -0.12713148 -0.028273653
0.0884048 0.019157827 0.06920457 0.088198856 0.008889484 0.08885025 -0.011708724 0.0406329
-0.01554569 0.023077305 0.037142932 0.04414138 0.06078077 -0.07199357 -0.0075345626 0.06208309
0.07551072 0.14661495 -0.06780631 -0.0041227946 0.07107199 0.06033036 -0.005892692 -0.13540944
0.045304637 0.044142973 -0.07948931 -0.04837207 -0.06413761 -0.08227271 -0.024724878 -0.10142269
0.064735875 -0.10808911 0.059699696 -0.07850513 -0.06906194 0.09850821 0.035868414 -0.09455214
-0.08467882 0.113385044 -0.052732304 0.00401908 -0.07667092 -0.031490285 0.03455525 0.076934904
-0.10603993 -0.023397624 -0.024986777 -0.012818519 -0.03707953 0.0001100101 0.310113 0.0075670294
-0.08537049 -0.089985505 -0.0232201 0.112582475 0.013388795 0.06885958 0.07231069 0.08258449
0.086743735 0.04276356 -0.11634256 -0.016029736
