4_4_4_X.pth (torch_old, 132363 bytes, 9 tensors)

layer_1.weight f4 [100, 22]
00000000: 174f 86bd 295c c93d 2d44 1abe ffcb 0ebe
00000010: deb6 51bd dbb5 0dbc 7c65 ba3d 913f 543d
00000020: 94d4 42bd cf42 51bc 6448 573c 23d9 d5bc
00000030: 07fd a1be 0e0b 90bd 08a0 17be 036f 87bb
00000040: a752 a73d 992c 253e 73c8 80be 9a3f abbd
00000050: 10ff b33d 0b82 a13d fe20 a2bc 9086 503e
00000060: dfff babd cbcb 893d 2087 293e 2930 43be
00000070: 46f0 c1bc 2528 bcbc 56d5 88bd 82a5 093e
00000080: 79fd 0fbe 7674 40bd b547 edbc a2d5 54be
00000090: dd24 c5bd 9d3b 4c3e 7402 093e ad07 6e3c
000000a0: 25c9 823d 51e0 07bc 6c09 9c3d 86ed 2cbe
000000b0: c853 74be 6a46 b5bd 7b4c db3d 01ee 073e
000000c0: ab5f debd 9f7d 18bd b832 8c3d 8ce0 373e
000000d0: 483b b53d 12ef 67bd 0936 183d fba1 36bd
000000e0: 72b2 e3bb 2f2b 8abe 606c d2bd 6120 abbd
000000f0: d1ae 513d ba79 b83d 72a9 22be ab44 8e3d
00000100: 36d7 1c3d aa62 aabd a286 aebc 3e87 173e
00000110: 6cbe 403e 7a4f 4f3e 54f1 03be 4f10 07bd
00000120: 0b51 b63d 90ef 603e 4a93 fb3d b27e af3e
00000130: 16aa c33d 028a 47be 44fb ae3d fe57 c3bd
00000140: 7c3e 1abe 4c8f 2e3e 37e3 453e 9ae7 47be
00000150: 071e 8e3d 9f2a be3d 63fc d3bb 89d4 13be
00000160: 8555 d33d c177 49be 483f d43d 01fe 033e
00000170: f6a0 4b3d 1e4a 073d b908 9cbd 7e7b adbd
00000180: 2b00 943d cde8 efbd f69e 10be db4f 6bbd
00000190: 94f0 803e 122e 0b3e 614c 69b9 c31d 11be
000001a0: 8629 56be a385 3dbd e439 cabd 63dd 2abe
000001b0: ddff dfbb ba6d b93d c694 13be 17d8 ae3d
000001c0: 2705 07be 9bde 3d3e ba09 7c3d fd62 47be
000001d0: 423d d9bc b8fa 25bc d51f e43c daae d7bd
000001e0: 53ea a33d 9d16 83bc 3e72 90bd 8561 ab3c
000001f0: ac80 19be b01a 35be db53 423b 9d4d 91be
00000200: 3bfe f7bc dc10 0fbe cd2f a6bd 609e 9a3a
00000210: 0eee 04be d4a9 f5bc 2774 863e ae97 ae3a
00000220: f20d 923d 3741 d93c ce19 f23d 7a18 4f3d
00000230: 38b7 373e 7c8b 393e 70a7 a83e b926 1a3c
00000240: 44db 0cbe 09ff 86bd f529 d23d d82c 603d
00000250: 7a2c d43c 1438 bdbd b4e5 30be ba91 55be
00000260: 65b3 64bc b7de c13d 40ea d83d b754 6ebe
00000270: aff1 b03d 370a 60be 6716 fcbd 8f85 26be
00000280: c163 a0bd c9eb 02bc 14c1 86be c4e6 46be
00000290: 917e 79bd cd09 d5bd 30d5 27be 275a 173e
000002a0: 55e3 4bbe fb7d 4bbd c3e1 913d e5d3 e3bd
000002b0: 71b1 093e f9b2 543c 2f95 45be 7e8e 193e
000002c0: 4ca4 35bb f617 c0bd e89f f53d 451a 5fbe
000002d0: 6ca9 56bd 3ac3 9bbd 5be7 433e 6b3a 8c3d
000002e0: 4435 f23d 0396 b5bc 0407 cebd 66a3 19bd
000002f0: 00f2 2cbe 77e8 573d 14b8 053e 478b 023e
00000300: 07ce 74be ec45 abbd 7215 3ebe 319c 22be
00000310: 64d3 cdbd 4a28 c33d 56d9 e6bd 4874 42ba
00000320: e06b ea38 f222 473e 921d 5abe 8d45 44be
00000330: b00e b2bc 22fb 173e 904a 0ebd c4ea 253e
00000340: 5032 bf3d 18d6 25bc 0e0a 47bc 854c 093c
00000350: 0d89 cf3d 4aca c3bd 5cdd 313d e68e c9bc
00000360: a533 cfbd aa53 46bd de55 623e 7a44 6cbe
00000370: a57d 4f3d db97 993e 8a33 f13c 2c66 c43d
00000380: fd9d c9bd 6e5f da3d bd21 6dbd abaa 6cbc
00000390: bfa9 3ebd b342 c63d 8db1 933d 37fb 513e
000003a0: 23db 953d 4433 743e 72aa 373e 3fc6 9fbd
000003b0: 341a 0c3e 3d86 95bc 8097 babd 1b36 c13d
000003c0: 93de 4e3e 1e05 0f3e a354 0dbe 78f7 143d
000003d0: a39f 2a3e f646 89be e70a f23d c7e0 2cbe
000003e0: 5847 9cbd 67fa 15bd 3edf 4cbd 710d 44bd
000003f0: 06c4 d13d df67 ddbb ee61 15be b71f 23be
-0.06558054 0.09832031 -0.1506507 -0.13945006 -0.051199786 -0.008649315 0.09101388 0.051818434
-0.04756601 -0.012772276 0.013139818 -0.026104515 -0.31638357 -0.070333585 -0.14807141 -0.0041331067
0.081700616 0.16130294 -0.2515293 -0.083617404 0.08788884 0.07886132 -0.019791123 0.20363832
-0.09130835 0.067283235 0.16555452 -0.1906134 -0.023674142 -0.022968361 -0.066813156 0.13442042
-0.14061536 -0.046986066 -0.028964857 -0.2078462 -0.09626172 0.19944616 0.13379842 0.014528197
0.063860215 -0.008293227 0.076189846 -0.16887483 -0.23860085 -0.08851321 0.10707947 0.13274385
-0.10858091 -0.037229177 0.06845611 0.17956752 0.088491976 -0.05662448 0.037160907 -0.04458807
-0.0069487626 -0.2698607 -0.10274577 -0.08355785 0.05119211 0.090075925 -0.15884951 0.06946691
0.03829118 -0.083196 -0.021304432 0.14797685 0.1882264 0.20245162 -0.12885028 -0.032974537
0.089021765 0.21966386 0.122839525 0.34276348 0.09553926 -0.1948624 0.08544019 -0.095382676
-0.15062898 0.17046851 0.19324957 -0.19521943 0.06939321 0.09285473 -0.006469296 -0.14436544
0.10319046 -0.19674589 0.103636324 0.12889864 0.04971405 0.033029668 -0.07618851 -0.0847082
0.072265945 -0.11714325 -0.14123139 -0.057449203 0.25183547 0.13591793 -0.00022249065 -0.1417151
-0.20914277 -0.046270024 -0.09874323 -0.16686015 -0.006835921 0.09054132 -0.14412221 0.085373096
-0.13185559 0.18541948 0.061532713 -0.19471355 -0.026518468 -0.010130577 0.02784721 -0.10531397
0.08003678 -0.016001994 -0.0705304 0.020920524 -0.1499049 -0.17685962 0.0029652033 -0.28379527
-0.030272594 -0.13971275 -0.08114586 0.0011796467 -0.12981436 -0.029988207 0.26260492 0.001332035
0.07131566 0.026520355 0.11821328 0.050560452 0.17940986 0.18119615 0.32940245 0.009408646
-0.13755518 -0.06591613 0.10261909 0.054730266 0.025900114 -0.09239212 -0.17275125 -0.20856372
-0.013958787 0.094663076 0.10591555 -0.23274504 0.086398475 -0.21878897 -0.123089604 -0.16261886
-0.078315265 -0.007990786 -0.26319182 -0.19423968 -0.06091172 -0.1040226 -0.16389918 0.14780484
-0.19910939 -0.04968069 0.07123139 -0.111244 0.13446595 0.0129821235 -0.1929519 0.14995763
-0.0027716337 -0.0937957 0.1199339 -0.21787365 -0.052407667 -0.07605596 0.19131224 0.0684708
0.11826566 -0.022166258 -0.10059932 -0.037509345 -0.1688919 0.05271193 0.13058501 0.12748443
-0.23906718 -0.08362946 -0.18562868 -0.15879895 -0.10050085 0.09529169 -0.11271922 -0.000741784
0.00011178083 0.19446924 -0.21300343 -0.19167157 -0.02173552 0.14841893 -0.034739077 0.16202837
0.09335768 -0.010121845 -0.012148393 0.00838006 0.10133562 -0.09560068 0.043423995 -0.024604272
-0.10117272 -0.048419632 0.22103068 -0.23072997 0.050656933 0.2999867 0.029443521 0.095898
-0.09844587 0.10662733 -0.057893503 -0.014444987 -0.0465486 0.096806906 0.072115995 0.20505987
0.07317188 0.23847681 0.17936113 -0.07801484 0.1368187 -0.018252486 -0.091109276 0.09434148
0.20202093 0.13966796 -0.13801818 0.036368817 0.16662459 -0.2681195 0.11818486 -0.16882621
-0.07630795 -0.036615755 -0.050017588 -0.04786438 0.10242467 -0.006756767 -0.14588138 -0.15930067

layer_1.bias f4 [100]
00000000: 5b70 373d 5379 85be 4268 893d 13b8 c43d
00000010: c2e4 82be e728 cf3d f113 7abe 85ad 20bd
00000020: ed8e 18be 0f22 10be 8f04 ac3d 1914 02be
00000030: d5a8 eb3d 8e58 30be 468b 2e3e 599c 813c
00000040: 70a8 453e 9437 88bd 753c 20be 241f c8bd
00000050: 9da6 623d 7db6 07be ebf7 04be eebe 84bd
00000060: dae5 18bd 7c71 7abe 2418 533d f265 d0bd
00000070: 9318 f83d cf09 dfbd 8599 33bd 6050 d1bc
00000080: 4bcc 8fbc cbea 0abd 3c6b 89be eae3 ed3d
00000090: 6b34 233e bc33 e93c 7836 183e c061 013e
000000a0: 2f31 d9bc febf 12be 8f70 6bbe c018 7aba
000000b0: b497 ffbd f4c6 993d 2f4b 1cbe 68cc 633c
000000c0: ad5e 39bd 9565 0ebe a39b a83d a668 773e
000000d0: c606 3a3e 24b2 743e ef5f 8cbd 2dad 323d
000000e0: 65d8 b43c c79a f5bd 1964 17be 6249 c33d
000000f0: c7b7 09bc 7837 62bc 93ba cf3d 7586 393d
00000100: aad8 e73d 11d1 e6bd 5f43 993d 2f17 103e
00000110: e0d5 d7bd 15c0 17be d7ec c13d 4239 373e
00000120: c3c2 713c 9f30 77bc 12aa fbbd 8e1a 413d
00000130: f185 a3bd dfae 69be a5bf 553d b210 e7bb
00000140: c00a 483d 3bf4 01be 0144 9fbd 5829 cbbc
00000150: df47 663d 019b 31be c345 7dbe 9de2 fa3d
00000160: 2a4c f9bd 8594 673b c069 3dbd 4afb 5b3d
00000170: 132a 143e 71f3 77bd 2e10 3dbc 99b3 11bc
00000180: 43a1 aa3b 901a a53c a3a7 bf3d 662f 98be
0.044784885 -0.26069126 0.06709339 0.09605422 -0.25565153 0.101152234 -0.2442167 -0.03922798
-0.14898272 -0.14075492 0.08399307 -0.12702979 0.115068115 -0.17221281 0.17045316 0.015821623
0.19302535 -0.06651226 -0.15648063 -0.097715646 0.055334676 -0.13253208 -0.12985198 -0.064817294
-0.03732858 -0.24457353 0.051536694 -0.101756945 0.12114062 -0.10890543 -0.04384758 -0.025551021
-0.01755347 -0.033915322 -0.26839626 0.11615737 0.15937965 0.028467052 0.14864528 0.12634945
-0.02651271 -0.14331052 -0.22992156 -0.0009540431 -0.12480107 0.075086504 -0.15263055 0.013903715
-0.045256305 -0.13905938 0.0823281 0.24161014 0.18166646 0.2389608 -0.068542354 0.043622185
0.022075841 -0.11992412 -0.14784278 0.09535481 -0.008405632 -0.01380717 0.10143008 0.045294244
0.11320622 -0.11270345 0.07483553 0.14071344 -0.1053884 -0.14819367 0.09469002 0.17892936
0.0147559075 -0.015087276 -0.12288298 0.047144465 -0.07984532 -0.22820614 0.05218472 -0.007051551
0.048838377 -0.12690823 -0.077766426 -0.024799988 0.056220885 -0.17344286 -0.24733643 0.12250254
-0.1217273 0.0035336327 -0.04624343 0.053706445 0.14469175 -0.0605349 -0.011539502 -0.008892917
0.005207212 0.020154268 0.09358146 -0.29723662

layer_2.weight f4 [100, 100]
00000000: 3e76 a6bd 7351 f6bd 77d8 20bd 2222 3d3d
00000010: 658e f9bd 6162 22be ca4f 813c 34e0 aabd
00000020: eda0 913d 731d 773d d9d3 ad3d a737 3b3d
00000030: c79f 0abe d5fc 563d 462e acbb e7d3 d7bd
00000040: d3aa e43c 0469 58bd 9288 e4bd 18e4 823c
00000050: e2f0 e2bc b5e1 ad3c 1563 753d e66b 173d
00000060: 4774 38be 58a5 a9bb d758 a3bc 0292 ce3c
00000070: ec96 a2bc f4d7 273d 408a cfbb a9f5 0ebd
00000080: 7e8c c4bd 14cf ccbd 124b 70bc 7839 69bb
00000090: 35d2 f4bb 7d0f a63d 4be7 c1bd 68a0 eebd
000000a0: 2880 953c f08a b8bd 78e2 9cbd f9df ff3d
000000b0: 4fe8 c3bd a7c2 d33d 3430 14bd e32f f5bc
000000c0: 3d5d 593d c97f 96bd cd30 843c 43b8 323d
000000d0: 8833 c03c 5a80 0ebe 8adb b7bc 6761 44bd
000000e0: 7485 913d 5952 dcbb 8235 053d 8394 43bc
000000f0: b9cf 313c 6bb4 d3bc 1c7c 8e3d 362b 94bd
00000100: 2ea6 cfbd 42ff 87bd cd05 87bd 5156 96bd
00000110: 0c6a ab3d 3c71 c5bc a5c9 e2bd f7f3 cbbd
00000120: d002 0d3d 7707 87bd 6dff 3abd 8c38 203d
00000130: 71f6 9dbc b9b2 c2bd 969c 6f3d 3cfe 5f3c
00000140: 1495 513d e79b dcbb 70d7 96bd 8792 e1bc
00000150: 90d1 07bc 0323 6fbd efa5 4c3c 2f04 e3bd
00000160: 53ee bbbd 0be5 803d 3df3 55bc 2813 4ebd
00000170: d78c a2bd 5001 5f3d 3f29 dbbc 6bd9 27be
00000180: f45e bc3d 7e3f 813d 7349 ebbd bfc8 eabd
00000190: 23a8 d23d f0a4 473d 678d 80bd af73 b43d
000001a0: 52da a2bc a540 9c3c 4871 703c a8b5 2dbe
000001b0: 581b f0bd a011 853c ad4b c2bc dfbe d03d
000001c0: 717d 81bd eddd bebc e609 d63d ef48 43be
000001d0: 7a2e 5ebd 86e5 4e3c fb94 5fbd bd14 8e3d
000001e0: 3872 26be a737 35bc a1fa 22bd 4e30 093d
000001f0: e1bd efbd c86f eabd 4890 6bbe 0e4c a7bd
00000200: 0f64 45bd 01b5 8a3c ccf0 6e3d 36ea c5bd
00000210: 09b3 0abe e06e aabc 4cb9 f13b 99b9 283d
00000220: 2000 633d 5be8 d1bd ac93 05be f4f2 4ebd
00000230: 6c25 193d f99d fd3c be70 d3bd a726 09be
00000240: 03ef debd f05e f93d b128 c1bc 1ea5 0ebe
00000250: 515d 0ebe 02a8 a3bd 4458 83bd 4af7 6e3d
00000260: cd9f 31bd 50c7 01be d520 123d e494 4bbd
00000270: a7fc 96bd 863b 07bd 6302 173e ac12 bfbc
00000280: cfbf adbc 7097 933d 1b26 023d 496e 10be
00000290: 1ef4 043d f613 393d 4fa4 b4bd 21f9 acbc
000002a0: 9829 a4bd ed27 da3d 6917 7a3d a103 09be
000002b0: a2c4 02be ee05 f6bc 6ed4 b23d 3237 1abd
000002c0: 6499 e73d a467 13bd e393 6fbd 3085 86bd
000002d0: 0e5c d33b 7b01 d0bd dae9 5fbd 5237 f53c
000002e0: d732 22be 450f 1ebe e810 70bd 4207 2c3d
000002f0: 6f44 81bd bc9a 5cbd 4d6f 96bc 7da9 d63c
00000300: 18c2 aa3b c791 8d3c 9af1 35be 26ca 4f3c
00000310: bfea e73d 6a6d c23d bb51 eebc 90b5 aa3d
00000320: da54 663d 319c a33d c1b7 eabc d281 9a3d
00000330: 54e8 5ebd a162 13bd 807a 6339 e314 823d
00000340: ea1c f2bd ccc5 f13d 523a 81bd 9fb0 263d
00000350: b462 3c3d 502b c73d e09e b2bd e7d4 313c
00000360: e7b5 c23d 510d e3bd ab1f a6bc 33c5 34bc
00000370: 6e46 69bc 865c 09bd d042 053d 7e89 e6bb
00000380: ffd4 683d b949 00be a271 f93d da48 f0bd
00000390: 46ce b2bc 79ad 853d f6f4 e63c 157b 70ba
000003a0: 5a22 003d ca1c 433d f819 ed3d 4033 bbbd
000003b0: 62c5 493d d55a 7ebc 2762 5bbc 9b54 a9bd
000003c0: 55f0 d6bd 9fc2 3fbe d4b4 b4bd be7b debc
000003d0: 693c 7fbd 1fc0 68bd 52c9 d43c d3aa b23d
000003e0: 9ae1 51bd 4773 1cbd 3b92 82bd 7280 c83d
000003f0: 7071 15bd a34e a2bd eef5 8d3b 0ed5 543e
-0.08128022 -0.12027254 -0.039268937 0.04617513 -0.12185363 -0.15857841 0.015785117 -0.083435446
0.07110772 0.06033082 0.08487672 0.04570737 -0.13537513 0.052487213 -0.0052545397 -0.10538464
0.027913487 -0.052834526 -0.11158861 0.015977904 -0.027702753 0.02122579 0.059908945 0.036968134
-0.18013106 -0.005177181 -0.019939823 0.025216106 -0.019847356 0.040977433 -0.0063336194 -0.03490225
-0.09597109 -0.100004345 -0.014666336 -0.0035587233 -0.0074713477 0.08108423 -0.09467944 -0.11651689
0.018249586 -0.09010875 -0.07660383 0.12493891 -0.09565794 0.10339861 -0.036178783 -0.02993006
0.053067435 -0.07348592 0.016136551 0.043632757 0.023462072 -0.1391615 -0.022443552 -0.047944453
0.07105532 -0.006723684 0.032521732 -0.011937263 0.010852748 -0.025842866 0.06957266 -0.07234804
-0.10139118 -0.066404834 -0.06592903 -0.07340682 0.08369836 -0.024101846 -0.11073617 -0.09958642
0.03442651 -0.06593221 -0.04565375 0.039116427 -0.019282551 -0.09506745 0.05849894 0.013671454
0.051167563 -0.006732452 -0.0736531 -0.02753569 -0.00828971 -0.058383 0.0124907335 -0.11084782
-0.09176316 0.062936865 -0.013058481 -0.050311238 -0.07937019 0.05444461 -0.026753066 -0.16391532
0.09197798 0.06310938 -0.11488619 -0.114640705 0.10285976 0.04874128 -0.0627697 0.088111274
-0.019879494 0.019073794 0.014675446 -0.16963828 -0.117239654 0.016243756 -0.023717726 0.10192656
-0.06322754 -0.023299182 0.10451107 -0.1907079 -0.054243542 0.012627965 -0.05458544 0.06937549
-0.16254508 -0.011060632 -0.0397898 0.033493333 -0.117061384 -0.11447102 -0.23004258 -0.08168803
-0.048191126 0.016932013 0.05833511 -0.09663813 -0.13544859 -0.020804822 0.0073768254 0.041192625
0.05542004 -0.102493964 -0.13044614 -0.050524667 0.037389204 0.030959116 -0.10324238 -0.13393651
-0.108854316 0.12176311 -0.023578973 -0.13930175 -0.13902785 -0.07991029 -0.0641332 0.058341302
-0.04336529 -0.12673688 0.035675842 -0.04970254 -0.07372408 -0.03301575 0.14747004 -0.023324333
-0.021209626 0.07206619 0.03177462 -0.1410457 0.03245937 0.04518505 -0.08820402 -0.021114888
-0.08015746 0.106521465 0.061057482 -0.1338029 -0.12770322 -0.030032124 0.08731924 -0.037650295
0.11308554 -0.03598751 -0.058490645 -0.06568372 0.0064501828 -0.101565324 -0.054666378 0.029933605
-0.15839706 -0.15435512 -0.058609873 0.04199911 -0.06311881 -0.053858504 -0.01836362 0.026203865
0.005211126 0.017281426 -0.17767945 0.012682473 0.11324071 0.09493525 -0.029091706 0.083354115
0.056233265 0.079887755 -0.028652074 0.075442925 -0.054420784 -0.03598273 0.00021694042 0.0635164
-0.11821921 0.11805305 -0.06309952 0.040695783 0.045992568 0.09725058 -0.08721709 0.0108539825
0.09507351 -0.11086524 -0.020278772 -0.011033344 -0.014237983 -0.033535503 0.03253442 -0.0070354333
0.056843754 -0.12528123 0.12179877 -0.11732645 -0.021826874 0.06527228 0.028192978 -0.0009173614
0.03128276 0.047634877 0.11577219 -0.091406345 0.049260505 -0.015524586 -0.013390101 -0.0826809
-0.104950584 -0.18726586 -0.08823553 -0.027158614 -0.06231347 -0.056823846 0.025974903 0.087239884
-0.05124054 -0.038195875 -0.063755475 0.09790124 -0.036485136 -0.07925155 0.0043322956 0.20784399

layer_2.bias f4 [100]
00000000: 473d 873d 95e5 883d 2522 ffbd 6af0 c8bc
00000010: 941d 333c f40e 0ebd 0736 cebd 87ce dc3d
00000020: 71ba 573d 65f6 bdbd 2d30 393d 71a9 7fbb
00000030: e1cb a53d 9e62 f9bb 0a2a 313d df22 bfbc
00000040: 011b 00bd d555 d5bd 727a 77bd ce34 9d3d
00000050: edd7 e43c d938 ae3d 705b 693d 4d51 53bd
00000060: 0242 92bd c17f 30bb 0dda efbd 1fee 02bd
00000070: ee09 8dbc 732d 21bd 63e3 c0bb c2d6 273c
00000080: e315 92bd 6131 fb3c 83fa 7f3c 9e41 e4bd
00000090: 5834 c63d e0cf 5b3d 6c9e 88bd 1f86 01bd
000000a0: de4a 38bd 3c87 9c3b 055b 72bd f923 3dbd
000000b0: d06d 893b 9d00 b73c 5017 863b 4be7 9dbc
000000c0: b244 f23a d05c 51bb 4516 41bd 2ae1 ca3c
000000d0: ba8e 813d b92e b23c 966e c0bd 5c97 d33b
000000e0: 9f68 bbbd b7a1 043d 5602 d23d 14b1 c1bd
000000f0: c6c4 67bd a70a cd3d 2ced b7b8 00a8 703d
00000100: e41a debc bf55 22bd 20cf 46bd 8d09 8fbd
00000110: 43ca 7c3c 142d d33d 2a79 ad3d 4b64 44bd
00000120: 44c0 9c3d 2c40 98bd 2e1d 8cbd f052 d53c
00000130: d2c8 853d f0dc 903d 671d 15be ee97 e6bc
00000140: 5f30 673d 4582 9c3c 690a 46bd 162e 74bd
00000150: ba7d 163d bb38 9b3d ea50 3b3d e95e 8b3c
00000160: 60a8 21bd ab48 febd 31a6 a03d 8573 f33c
00000170: 238a ee3c c684 783c d230 81bd 9876 58bd
00000180: d642 373d b01b 13bd 96f2 83bd fddc 2abc
0.066034846 0.06684414 -0.124576844 -0.0245287 0.010932345 -0.03468223 -0.10068899 0.107815795
0.05266804 -0.09275512 0.04521196 -0.0039010907 0.080955274 -0.007610633 0.043252982 -0.023332058
-0.031275753 -0.10416762 -0.060419507 0.07676087 0.027934993 0.085069366 0.056971967 -0.051591206
-0.07141496 -0.0026931616 -0.11711512 -0.03196537 -0.017216649 -0.039349984 -0.0058864816 0.010244073
-0.07133081 0.030663194 0.0156236915 -0.11145328 0.096779525 0.053665042 -0.066708416 -0.03162205
-0.044993274 0.0047768634 -0.059168834 -0.046176884 0.004193999 0.02233916 0.0040921345 -0.019275328
0.0018483608 -0.003194619 -0.04714038 0.02476557 0.06326051 0.021750795 -0.093960926 0.0064572524
-0.09150814 0.032380786 0.10254352 -0.09457603 -0.056584142 0.100117974 -8.770297e-05 0.058753967
-0.027112432 -0.039632555 -0.048537374 -0.069842435 0.015429082 0.10311332 0.08470376 -0.04794721
0.07653859 -0.07434115 -0.06841503 0.026040524 0.06532444 0.070733905 -0.14561997 -0.028148618
0.056442615 0.019105086 -0.04834977 -0.059614263 0.036740996 0.0757918 0.045731463 0.01701303
-0.039467216 -0.12416204 0.078441985 0.02971817 0.029118603 0.015168374 -0.0630814 -0.052847475
0.044741474 -0.035915077 -0.06442754 -0.010428664

layer_3.weight f4 [100, 100]
00000000: 3858 ff39 4c39 b8bd 56c1 dfbc f798 9cbd
00000010: a41c 28be feb4 d4bc abd3 83bd fa62 98bd
00000020: 6ac1 0ebe 9b74 1e3d 7fc2 4ebe b618 1e3c
00000030: 6628 5bbd ba9f 9e3d fcb3 71bd 1862 193e
00000040: 7904 523d 8573 bd3d 91d5 59bb c692 c2bc
00000050: e687 6dbd cee4 00be 32e3 ed3c 0b9d 063e
00000060: eea4 7dbd 2a2c 9cbd 501c 8f3c e4fb d8bd
00000070: 0586 71bd cc09 ecbd 1866 2fbe 9531 e33c
00000080: 2f25 6e3d ef3c 5e3c a392 bc3d 6824 cf3d
00000090: 8aaa e53d f1a5 de3c 6c0e 883d 7732 d2bc
000000a0: d9d2 153d 8b26 dabc 65b2 123d 5963 55bd
000000b0: 0257 1abd 36b8 8c3d b09c 3b3d 1bf7 803d
000000c0: 58d7 d7bc 7475 953d 8f16 1dbe 6070 a7bd
000000d0: 05eb cfbd b08a b93b cf88 83bd f983 373d
000000e0: 622f 763d 59f5 cbbc 6a98 143e 6603 1bbc
000000f0: 4cb3 163d 3402 363d b2cc 4a3c 0071 423d
00000100: 9b32 bd3d 0695 97bd c89e 8ebb 400c d93c
00000110: 7d49 86bd b02e a1bb c9b8 1ebd 31af ecbc
00000120: b7e6 d4bd 0c19 6cbd 110d fd3d babf f13d
00000130: 5ed9 b9bc 54f5 603d 6ec0 773d 76b1 453c
00000140: 13a7 623d b0a0 ca3d 05f9 723b b5b7 e53c
00000150: 2171 1fbd 7493 10be a872 49bd ea54 b5bd
00000160: 59f9 0b3e 8c7f 963d 8c9d 4a3d 940f 00be
00000170: b324 313c 2ff5 bd3d 8641 fd3c 46ad cabd
00000180: 4000 61bd 13eb b63d 39e4 8abd 1f2f 98bd
00000190: 007e 713d 3721 ffbc 8ec5 163d 1ca3 2b3d
000001a0: 5287 44be f327 1e3e e8ef aebd 1712 3dbd
000001b0: d6f4 153e 4549 efbd 0d10 283d 11ab e33d
000001c0: 4003 e13d 1bf3 8fbd a7b7 6dbd d150 e83d
000001d0: 2e9e bf3d bdb1 723d c31e e8bd 6e0a fe3b
000001e0: 51ce 243c 02b8 3bbd f6b2 513c 95c6 8f3d
000001f0: 5710 a33c d670 df3d d134 413d 1bf9 8a3b
00000200: 04e7 b53d 22d4 96bc 836e fb3b afdc a33c
00000210: ac19 933d abbb fbbd 27c9 c5bc aeaf ecbd
00000220: bd84 743c f695 0a3e b4f4 93bd 3652 f63c
00000230: fbad d6bb 8fa9 99bc b9ff cf3c f325 6fbd
00000240: ed25 163e e460 33bd 46be 803b 9f50 f73c
00000250: 595a abbd 9139 943d bc26 c6bd 7b0a 103d
00000260: a483 5cbd 4a7d 8f3d 6786 4fbd 6f07 0d3e
00000270: 7063 00be daae 09bd 265e d03d cc8f c3bd
00000280: 8c03 c4bb 5f68 6b3d b0e3 f63d 68a8 5d3c
00000290: c00e d8bc 4df7 78bd bbd4 7f3d 98cb 8a3e
000002a0: 593c 19be 8593 ddbd 848a 863d 341e 08be
000002b0: aef7 833d 90b1 2f3e cccc da3c 6303 bbbc
000002c0: 09bc 9f3d 3408 05be 4657 f13c fada 1c3d
000002d0: 52f5 1cbd 5738 6abd 60d8 9cbd ce1d f7bc
000002e0: 1457 ae3c 397d 913d a583 a23d 7ec5 0e3e
000002f0: 3a71 89bc 7188 153d a17b 753d b8a4 933c
00000300: db54 8c3d e1cb b3bd 2f38 f1bd b7a5 143e
00000310: 535a 17be 89b5 f83d 1051 7abd c960 02be
00000320: e2f3 87bd 66a7 a03d ae2c f13b 2e5e 1fbe
00000330: 9671 b03d ef29 e23d fb33 ebbd 2547 a63d
00000340: 10a9 603c ba3b a93d 4014 1a3d df95 d83d
00000350: 4536 11bb 12a4 c2bc b48b db3b a4e4 393e
00000360: ba03 183d 8281 653e 4957 273c 0947 ddbd
00000370: 5813 263c 4a52 06bc 0302 fc3c 7f8f 2ebe
00000380: 9a1b 9fbc 9d7d 153d 9096 293d 3f96 1cbe
00000390: 84d2 95bd 55aa bbbd ba36 7cbc 7cd9 ab3c
000003a0: 9a7d 1a3e 18ae f03d be37 9f3d fccf 4c3d
000003b0: 3cf0 ebbd 5c6e 67be cb68 99bd 5823 8cbd
000003c0: 4eaa eabc f3d5 1b3c 620e 063d 1ded 3c3b
000003d0: fb46 b8bd 2e73 2abd 5fae acbd 1786 503d
000003e0: 7e9b 1b3d 21f7 bfbd 8c1c 81be ee24 653d
000003f0: 632d 263d fbee 143d 8251 213d 5288 d33c
0.00048703118 -0.089953035 -0.02731387 -0.07646363 -0.16417176 -0.02596521 -0.06436857 -0.07440753
-0.13940969 0.038685422 -0.20191382 0.009649446 -0.053505324 0.07745309 -0.059009537 0.14978826
0.051273797 0.09250549 -0.0033238868 -0.023751628 -0.05799093 -0.12587282 0.029039 0.13145845
-0.061924867 -0.07625611 0.017469555 -0.10594919 -0.0589657 -0.11525306 -0.1712879 0.027733603
0.05814093 0.013564332 0.09207656 0.10114366 0.11214168 0.027178736 0.06643376 -0.02565883
0.036578033 -0.026629707 0.03581466 -0.0520967 -0.037680633 0.06871073 0.045803726 0.06297132
-0.026347801 0.07297793 -0.15340637 -0.08175731 -0.10152248 0.005662285 -0.064225785 0.044803593
0.06010378 -0.024897264 0.14511266 -0.0094612595 0.036792085 0.044435695 0.012377905 0.047471046
0.09238168 -0.07401471 -0.0043524243 0.026495099 -0.065569855 -0.0049188957 -0.038750444 -0.028892132
-0.10395568 -0.057641074 0.12356008 0.11804147 -0.022686657 0.054921463 0.06048625 0.012066236
0.055335116 0.0989393 0.0037074697 0.0280417 -0.038926248 -0.14118749 -0.04918161 -0.08854087
0.13669337 0.073485464 0.049466655 -0.12505943 0.010811972 0.09275281 0.030915033 -0.098963305
-0.05493188 0.089315556 -0.06781811 -0.07430863 0.058958054 -0.031143768 0.036809497 0.0419036
-0.19192246 0.15444927 -0.08541852 -0.04615983 0.14644179 -0.11683897 0.041030932 0.11116613
0.10986948 -0.070287906 -0.058036473 0.113435395 0.09356342 0.059251536 -0.11333992 0.007752708
0.010058955 -0.04582978 0.012799015 0.070202984 0.019905252 0.109101936 0.04716951 0.0042411215
0.08881953 -0.0184117 0.007673086 0.020002691 0.07182631 -0.12291654 -0.024143768 -0.11556946
0.014924225 0.13533768 -0.07224408 0.030068498 -0.006551502 -0.01875761 0.025390493 -0.0583858
0.14662905 -0.043793574 0.0039289324 0.03018981 -0.08366842 0.072375424 -0.09675357 0.035166245
-0.05383648 0.07006319 -0.050665285 0.13772367 -0.12537932 -0.033614017 0.101742074 -0.095489115
-0.005981868 0.057472583 0.12055147 0.013528921 -0.02637422 -0.06078272 0.062458735 0.27108455
-0.14964427 -0.10819153 0.065693885 -0.13292772 0.064437255 0.17157578 0.026708983 -0.022828763
0.07799537 -0.1299141 0.02946056 0.03829477 -0.038319893 -0.057182636 -0.07658458 -0.03016558
0.021281756 0.071039625 0.079352655 0.13942525 -0.016777623 0.036507074 0.059932355 0.01802288
0.068521224 -0.08779121 -0.11778294 0.1451634 -0.1478055 0.12144 -0.061112463 -0.12732233
-0.06638314 0.07844429 0.0073600626 -0.1556327 0.08615415 0.110431544 -0.11484524 0.081190385
0.013712183 0.08263345 0.03761697 0.10575461 -0.0022157591 -0.023759875 0.0067000035 0.18153626
0.03711293 0.22412685 0.0102136815 -0.108045645 0.010136448 -0.00819833 0.030762678 -0.17046927
-0.019422341 0.036496747 0.041403353 -0.1529169 -0.07315543 -0.09163348 -0.015393907 0.020977728
0.15086976 0.11751956 0.07774304 0.050003037 -0.115204304 -0.22600693 -0.07490691 -0.06842679
-0.02864566 0.009511459 0.03272856 0.0028827854 -0.089979135 -0.04161375 -0.08431696 0.050909128
0.037990086 -0.09373308 -0.25217092 0.055943422 0.040570628 0.036360722 0.039384373 0.025821839

layer_3.bias f4 [100]
00000000: 7e67 da3c ac33 8bbd 7e7d 9bbc 7b68 25bc
00000010: 9cc1 bb3c a776 09bd 6ada 9abb e924 173a
00000020: 9489 b7bd 8c66 f5bd 9fb5 523d ffed 0cbd
00000030: a7da ecbd cd54 403d 88bf 853d 1cff 4f3c
00000040: 3df7 cf3c b953 e23d a630 b83c 783d 90bd
00000050: ed47 b23d dc69 c7bc acde 0ebd e9fd 9bbd
00000060: a585 3a3d 5b55 883c 8f5f c83a 7182 bcbd
00000070: ab3a e03b 1798 e0bd a7cc 503d 1e97 5e3d
00000080: 01e3 0abe a24a 44bd 648f 49bd 8880 06be
00000090: 272a 473d 3728 393d c396 a1bd 6760 233d
000000a0: c8f3 d43b d57d 9c3c d2d4 a5bd 1301 923d
000000b0: 6585 9f3c 3988 35bd 9b53 b8bd 319d 7ebd
000000c0: 8974 853c 4e74 afbd 36d7 43bd 05ed acbd
000000d0: f43c c2bd a9df 9dbd d9e6 f4bc a075 96bd
000000e0: 7b88 663d 9892 823d c9d6 0a3e 6261 4d3d
000000f0: f3ca 6abc db08 57bd 98de 10bd 23db 49bd
00000100: 361f f5bb e235 0c3d 9fa5 92bd 2b9f 85bd
00000110: 89df 0abd 2b77 d9bc dd72 c83c f22d 243c
00000120: e510 8b3d 2eb9 87bc ad2b 8e3c 8fcd ccbc
00000130: c2b7 813d e034 bf3d 8f4e 86bc 077e 1abd
00000140: 5fce 313c 98be 84bc 3cdf a5bd dc39 2abd
00000150: dec9 853d 63a2 2b3d 73e4 0cbe 89b0 473c
00000160: 8481 c4bd 303a 653d 1bf9 733d 0382 af3c
00000170: b939 8d3d a3ff ff3c 3c9d 74bd 7288 64bc
00000180: dacf d9bd cd67 7b3d f167 cdbd 8822 be3c
0.026660677 -0.06796965 -0.018980738 -0.010095711 0.022919469 -0.03356042 -0.004725744 0.0005765693
-0.08961788 -0.1198245 0.05144274 -0.03440666 -0.11565142 0.046955872 0.06530672 0.0126951
0.025386447 0.11051125 0.022484135 -0.07042974 0.08705125 -0.02434247 -0.034880325 -0.07616789
0.04553761 0.016642263 0.0015287268 -0.09204567 0.0068429313 -0.10966509 0.05097642 0.054343335
-0.13563158 -0.047922738 -0.049209014 -0.13134968 0.048624184 0.045204367 -0.07890084 0.03988686
0.0064987876 0.01910297 -0.08097233 0.07129111 0.019472787 -0.044319365 -0.090003215 -0.06216163
0.01629092 -0.08567105 -0.047812663 -0.084436454 -0.09484282 -0.077086754 -0.029895233 -0.07346654
0.0562825 0.06375617 0.13558497 0.0501417 -0.014330613 -0.05249868 -0.035368532 -0.04928125
-0.0074805273 0.034231074 -0.07160496 -0.065244995 -0.033904586 -0.026546082 0.024468834 0.01002072
0.06790332 -0.016567793 0.01735481 -0.025000362 0.06333877 0.09336257 -0.016394882 -0.037717845
0.010852425 -0.016204163 -0.08099219 -0.041559085 0.06532644 0.04190291 -0.13759021 0.012188085
-0.09595016 0.055963695 0.059563737 0.0214243 0.06895775 0.031249827 -0.059720263 -0.013948547
-0.10635348 0.06137829 -0.10029591 0.023209825

layer_4.weight f4 [100, 100]
00000000: c4cc 7bbd 2636 44bd 1107 973d aacc 903d
00000010: f587 c7bd 2d02 e23c a940 1dbd 78fc 9e3d
00000020: 0926 883d b4b3 48bb a41c 843d 591d 9eba
00000030: 7991 903d 57dc fcbb e4f0 61bd 8f8d d63d
00000040: b3b4 0a3d fd2d e6bd 33f7 d03c fdee d8bc
00000050: c9db 043d 1743 43bd 22a4 65bd b8ad 0dbd
00000060: 054c adbc 5c07 063d 742f 8a3c b98f 2abd
00000070: 01d0 a33d ebea 6f3c ad0c 553d 3d8b 34bd
00000080: ce61 be3c 99dc c3bd 9ddb e6bc bf4e a6bd
00000090: 58d0 af3b 8902 1fbd 351b 573d d235 e3bd
000000a0: 6a31 85bd 4f43 55bc 90a6 16bd d575 503d
000000b0: f86a e9bc 4fa2 833d 1c0c 4cbd 5730 7e3d
000000c0: 519e 9ebd 9768 8d3d 771a 1bba eef3 aebb
000000d0: b491 7b3d d143 e3bd 7df5 62bd 2278 093d
000000e0: ce56 58bd 479f 4b3d 652f d13c d370 b93c
000000f0: ab90 353d d69f debd 6cc6 3ebd 73d8 8bbc
00000100: 06af b2bd 07f8 afbd a660 e4bd 7ff3 c93c
00000110: ffcd b4bd d3b7 6c3d 90c6 b53b a201 6fbd
00000120: 8265 aabd d939 c6bd 47e4 bb3c 352d d3bd
00000130: 2492 8b3d 2dae c8bd 3396 52bd da1b 0bbd
00000140: 4b72 be3d 0238 bcbd c205 923d dcfe 42bd
00000150: f349 0b3d bb3f 813d dfd2 a23d 219e 93bb
00000160: 4e4c b7bd 8efa e3bd 5241 9a3d c55b e8bc
00000170: fb68 5dbd 2075 d9bd 05c8 cabd 2c67 52bd
00000180: 6e1c c2bd ac79 873d 596d 8e3a b6cc 89bc
00000190: 0878 9d3c 8ce0 3bbd 3776 c03d 7e7d 88bd
000001a0: 825a 3a3d 60ec 0abb 7be2 8b3d 348e 9dbc
000001b0: b085 48bc 0467 fe3c 208d 923c bf83 c1bd
000001c0: 1841 0f3c 42d1 1c3d bdec 87bd f7b3 1aba
000001d0: 7262 233d 0080 133c df79 323d 301e 6abc
000001e0: d28a 283d 14bd d73c 982c 463c 803b b9bd
000001f0: 1535 b7bd a1bd 9f3d e31c a4bd 85a8 673b
00000200: d477 f4bc 067c 1c3d 2019 a0bd 9074 fabd
00000210: 8225 a0bd e649 203d c90f 8b3c 6af4 1e3d
00000220: 7ae0 86bd c92e 7abd 970d 2bbd 7d45 18bd
00000230: 0763 5ebd aeaa 81bc bd96 c6bd 6abd 7d3d
00000240: 552c 853d 3002 a8bb 133d 64bd 58e6 c43c
00000250: b2b2 a43b 412e b93d 28d5 b6bd 200f b3bd
00000260: 3cf3 08bd a3e5 6ebd 6ac4 67bd 9cb0 0fbd
00000270: 31f1 923d a093 ba3c 1a21 c4bd 43df 7abd
00000280: 0056 9abc de4f d4bd 20e2 1cbd 9860 0b3c
00000290: b0c3 4e3c decb 883d 124b 8cbd a8bf 1f3c
000002a0: 2cae 933c 9ab5 10bd 096e a83d 62a9 5e3d
000002b0: 4cd9 c03c fcdb f33c b3e2 9d3d aec3 a9bd
000002c0: 2c55 48bd 33d2 32bd e011 ca3b 1448 9bbc
000002d0: 5b5e aebd aa74 563c e047 95bc 63de 1cbd
000002e0: 45ad 983d a2ef 413d b0d2 a8bb 62eb 8dbd
000002f0: b740 55bd 608e c9bb 06e4 5e3d 0a07 613d
00000300: 02b8 9f3a e58d bfbd 5c88 82bd d032 b43b
00000310: 96b8 773d bb10 53bd a770 d5bd dac9 18bd
00000320: a5d0 1bbd 403e 4bbe ef08 183d 220d 313d
00000330: 4d03 48bc aa75 f33c b154 9a3d 49a9 7f3c
00000340: 82b4 d8bc 6a15 95bc 4c9e 25bb b217 3b3d
00000350: 4f9b 8f3d 3b99 e63d a484 133e e225 723d
00000360: 198c ccbd a956 1e3d 9aea 473d 6cbf a23d
00000370: 74ed edbd d857 69bd fbb4 af3d f851 de3d
00000380: 423a 813d 2f07 dcbd ed89 62bd fb40 a13d
00000390: 1274 d0bd 1dfd ff3c e2df 4b3d 3d5e 51bd
000003a0: e5de ca3d 7a03 5c3d 5f08 a7bd af5c 5ebd
000003b0: 673f 163e 6dba 29be e12e b2bd 778a 49bd
000003c0: 5b34 543d 8fd5 22bc 4647 18be ab71 d13d
000003d0: f45f f93c 2917 9a3d fb0f fcba a68d 8cbc
000003e0: 68eb 06bc 2e18 07be f57e 4fbc a6a5 6d3c
000003f0: 6648 f5ba fc12 2dbd 5468 103d bf83 c23d
-0.061474577 -0.047903202 0.07374395 0.070702866 -0.097427286 0.027588928 -0.038391743 0.07762998
0.0664788 -0.003062469 0.06450775 -0.001206319 0.07058997 -0.0077166962 -0.05516137 0.10476219
0.033863734 -0.1123924 0.025508499 -0.026481146 0.032436166 -0.047671404 -0.056064732 -0.0345895
-0.021154413 0.032721862 0.01686833 -0.04164097 0.07998658 0.014643411 0.05201404 -0.0440781
0.023239996 -0.0956356 -0.028180892 -0.081204884 0.0053654127 -0.038820777 0.05251618 -0.1109425
-0.065035656 -0.013016536 -0.03677994 0.050893623 -0.02849339 0.06427442 -0.049816236 0.06205782
-0.0774504 0.069047146 -0.00059167243 -0.0053391373 0.06141825 -0.11096919 -0.055409897 0.033561833
-0.05281716 0.049712446 0.025535295 0.022636807 0.04432742 -0.1087033 -0.04657595 -0.017070984
-0.08724789 -0.08592229 -0.11151247 0.02465224 -0.08828353 0.057792496 0.005547352 -0.058351167
-0.08320142 -0.09679002 0.022936 -0.10311357 0.068149835 -0.097988464 -0.051412772 -0.03396211
0.092991434 -0.0919037 0.071300045 -0.047606334 0.03400607 0.06310984 0.07950377 -0.0045049344
-0.08950101 -0.11131774 0.0753199 -0.028364072 -0.054055195 -0.10618043 -0.09901432 -0.051367924
-0.09478079 0.06615004 0.0010866328 -0.016821247 0.019222274 -0.04586844 0.09397548 -0.06664561
0.04549647 -0.002119802 0.06830307 -0.019232847 -0.012238905 0.031054981 0.01788956 -0.09448957
0.008743547 0.0382855 -0.06636951 -0.00059014506 0.039888807 0.009002686 0.043573257 -0.014289424
0.041148014 0.026335277 0.012095593 -0.09044552 -0.089456715 0.07799841 -0.08013322 0.0035348248
-0.029842295 0.038204215 -0.07817292 -0.12229264 -0.07819654 0.039132975 0.0169753 0.03880731
-0.06585784 -0.061079774 -0.041761007 -0.037175644 -0.05429366 -0.015828457 -0.0969672 0.061948217
0.06502596 -0.005127214 -0.055722307 0.024035618 0.005026185 0.09042025 -0.08927375 -0.08743119
-0.03343509 -0.058324467 -0.0565838 -0.035080537 0.0717491 0.022775471 -0.09576626 -0.061248075
-0.018839836 -0.10366796 -0.038301587 0.008506916 0.012619898 0.066795096 -0.06850256 0.009750284
0.018027388 -0.03532944 0.082241125 0.054360755 0.023541115 0.029767983 0.07709255 -0.08289276
-0.04890935 -0.043657493 0.0061666816 -0.018955268 -0.085140906 0.013089338 -0.01822275 -0.038298022
0.074549235 0.047347672 -0.005152069 -0.06929661 -0.05206367 -0.0061510056 0.05441668 0.054938354
0.0012185576 -0.09353236 -0.06373665 0.0054992214 0.06047877 -0.051529627 -0.10421877 -0.037301876
-0.038040776 -0.19847965 0.037117895 0.043225415 -0.012207818 0.029719193 0.07535685 0.015604326
-0.02645326 -0.018198688 -0.0025271354 0.045676894 0.07012045 0.11259695 0.14406067 0.05911816
-0.09987659 0.038656864 0.048807718 0.07946667 -0.11617556 -0.05696854 0.08579441 0.10855478
0.0630994 -0.10743558 -0.055307318 0.07873722 -0.10178389 0.031248624 0.04977406 -0.051115263
0.09905795 0.053714253 -0.081558935 -0.05428761 0.14672624 -0.16575022 -0.08700348 -0.049204316
0.051807743 -0.009938612 -0.14870939 0.102267586 0.030441262 0.07523949 -0.0019230837 -0.017157387
-0.008234836 -0.13192818 -0.012664546 0.014504826 -0.0018713593 -0.042254433 0.035255745 0.09497785

layer_4.bias f4 [100]
00000000: 6811 fdbc 66bf d7bd 316c 523d 8c57 3a3d
00000010: eaee e73d 39e5 953d f97a 9fbd 924d 30bd
00000020: fd48 47bd de09 10bd c7e1 a3bc 0d9c 55bd
00000030: 0a77 c0bb ffc4 ad3d b150 a9bc 5ba2 043e
00000040: c03b 163e 36c3 b23b 0959 25bd 4f75 80be
00000050: c647 93bd 7fb2 04be aa07 813d 314a c93b
00000060: 48f3 a3bc 973a 32bb d16c 76bd 9ccc b9bd
00000070: 23dc 5c3d 95b0 7d3d 42cc 313c 63c9 94bc
00000080: 8631 16be 0465 0d3d 1245 6dbd c939 0b3c
00000090: 251e ec3d 1869 16be 5c35 ddbd acdd fcbb
000000a0: e90e a2bd 8617 d33c 3191 c13d 4342 4abc
000000b0: 9d7f 8b3d 8742 b5bc 5462 313d f7a1 3b3d
000000c0: b241 15bd 80d1 a6bd dcac 6f3d 3ec5 7e3d
000000d0: 6d0f c93c 9fe8 303d 8793 4b3d 6bec 7a3c
000000e0: 6185 2f3d c8b9 eabc f083 673c 00c2 6fbd
000000f0: 6af5 d73c 66f4 493d c797 c9bc 583f 123d
00000100: 97ef 863b 1649 173d 0e30 793c 1c1f dfbd
00000110: 21e2 953d 5c2f 5fbd e511 19bd e9b1 c33d
00000120: 05c2 8f3c 1c92 0e3e 8610 c63d 9521 62bd
00000130: 8b71 00be a7ed e23c 35d3 05bd 41f7 933c
00000140: b830 803d 7eef 16be a74d 7dbd ad9b 0b3c
00000150: f1fe 9b3d 1351 c1bb 17a7 ac3d 9ee8 59bc
00000160: 5914 043d aca2 a1bc 36be 033d 2ab1 093e
00000170: dc68 19bc 7e91 193e ff74 b43d cecb 3d3d
00000180: 2df0 61bd acdc 753d d68a fc3d 4b9b f03d
-0.030892089 -0.10534553 0.05137271 0.045493647 0.11324866 0.073191114 -0.07787127 -0.043042727
-0.04865359 -0.03516566 -0.02000512 -0.052150775 -0.0058735656 0.0848484 -0.02066836 0.12952559
0.1467123 0.0054554 -0.040368114 -0.250895 -0.07191424 -0.12958716 0.0630029 0.0061428775
-0.020013466 -0.0027195567 -0.06016237 -0.09072229 0.053920876 0.06193598 0.0108519215 -0.018162435
-0.14667329 0.034520164 -0.0579272 0.008497664 0.11529187 -0.14688528 -0.10801193 -0.007716855
-0.07913 0.025768053 0.09451521 -0.0123449 0.0681145 -0.02212645 0.043306664 0.04580876
-0.036439605 -0.08145428 0.05851446 0.062199824 0.024543488 0.043190595 0.04970124 0.0153151555
0.04285181 -0.02865304 0.014130577 -0.058534622 0.02636214 0.049305342 -0.024608506 0.03570494
0.004117917 0.036934935 0.015209211 -0.108946055 0.07318521 -0.054488525 -0.03737058 0.09555418
0.01754857 0.13922924 0.0967112 -0.055207808 -0.12543313 0.027701212 -0.032672126 0.018062236
0.06259292 -0.14739797 -0.061841633 0.008521003 0.076169856 -0.0058995574 0.08430307 -0.013300089
0.032245968 -0.019730888 0.03216382 0.13446489 -0.009363379 0.14996907 0.08811378 0.04633694
-0.05516069 0.060024902 0.12331168 0.1174837

output_layer.weight f4 [1, 100]
00000000: 140d 363d 9cc3 463d 0bbb 753d b285 bcbd
00000010: 35b9 c6bc 95f8 ca3d a6dd c5bc 1201 f839
00000020: e867 9f3d 37ce 6fbb 06a6 bfbc 6438 86bd
00000030: 1472 bebd 4bb5 c23d a8a7 e3bd 082b 82bd
00000040: 3182 bd3d 09a7 d3bd 23ab 913d 8213 fd3d
00000050: 023e 413c 86a0 fe3a a0e5 4bbd 39d5 d93d
00000060: e283 69bc 056f bdbd 9e1b 9fbd 9b37 903c
00000070: 0b56 933c 1235 c5bd 2d4e c6bb 84b9 bb3d
00000080: f180 bbbd a9fd f6ba d40e f3bb 0dcc d2bd
00000090: 5a19 b1bd b64a ad3c e538 103d 0a8e 533c
000000a0: 2f90 ef3d 747e c9bd 81db d3bd fd63 cabd
000000b0: cba2 70bd d60a 863d 5bd5 d1bd 6d55 8e3b
000000c0: d751 4c3d c9b1 12bc ac25 5f3b e53f fb3d
000000d0: 6b24 adbd fb06 f2bd 1cc4 b7bc b59e 323d
000000e0: 1fad c63d 7ecf ed3c 7f32 47bd 7b7b 983d
000000f0: ccfa d5bb 9d63 bdbd 1d24 fb3c 9b2d 6c3d
00000100: f8ab 8bbd 8005 a43d 18a9 dd3d 0f18 4b3d
00000110: ea1a 843d 6488 bebb af35 69bb 5e5f d43d
00000120: 9d06 813d ca9d 893d 1815 213d 6866 94bb
00000130: 6c26 003d 5133 713d 8b81 52bd ffba 10bb
00000140: 7707 813d 41f0 663d 93ae 26bc bcbb c83d
00000150: 1e50 e1bc 2f79 ce3a 05f3 483d ae91 f13d
00000160: 9c9c 81bd 4068 da3d 447a 04bc b634 3abd
00000170: 8e08 b73d a8c7 bf3d 9f41 5c3d 81cd 83bb
00000180: c9a3 073d 09ed aa3c 0aff 043e 7e3a 0d3e
0.044446066 0.04852639 0.05999283 -0.09205188 -0.024258235 0.099106945 -0.024153542 0.00047303044
0.077834904 -0.003659142 -0.023394596 -0.065537244 -0.092991024 0.09507235 -0.11115962 -0.06355864
0.09253348 -0.10334594 0.0711272 0.123572364 0.011794569 0.0019426502 -0.049779534 0.10636372
-0.014252635 -0.09249691 -0.077689394 0.01760464 0.017985364 -0.09629263 -0.0060517997 0.09166244
-0.09155453 -0.0018843907 -0.007417539 -0.10292826 -0.086474136 0.021153789 0.03521051 0.012912283
0.11697423 -0.09838572 -0.103446014 -0.098823525 -0.058749 0.065450355 -0.102457725 0.0043436796
0.049882736 -0.00895352 0.0034049554 0.12268046 -0.08454212 -0.11817738 -0.02243238 0.043608386
0.09700989 0.029029604 -0.04863214 0.07445427 -0.0065301415 -0.09247515 0.030656869 0.05766068
-0.0681991 0.080088615 0.10823268 0.04958349 0.06450446 -0.005814599 -0.0035584976 0.10369752
0.063000895 0.06719549 0.039326757 -0.0045288093 0.031286642 0.05888683 -0.051393073 -0.0022084115
0.06300252 0.056381468 -0.010173458 0.098014325 -0.027504023 0.0015752668 0.049059886 0.11795364
-0.06328699 0.10664415 -0.008085791 -0.045460425 0.089371786 0.09364253 0.05377352 -0.0040223007
0.033115182 0.02086498 0.12987915 0.13791844
