weights_player1.pth (torch_old, 129963 bytes, 9 tensors)

layer_1.weight f4 [100, 16]
000000 97 a1 20 3e 7a 85 51 be 4f 78 32 be 78 15 08 be
       0.15686642 -0.20461074 -0.17428707 -0.1328944
000010 40 33 bb bd ce 7b 57 3e 7f f3 1b be 29 4c 64 3c
       -0.091406345 0.21043321 -0.15229605 0.013934174
000020 e7 04 61 be 05 6a 27 bc 53 86 62 be af b2 52 be
       -0.21974526 -0.010218148 -0.22121553 -0.20575975
000030 64 65 5d 3e 31 13 29 3e e4 21 bb 3c ae e2 3f be
       0.21620709 0.16511227 0.022843309 -0.18738815
000040 95 7f 3b 3e 93 1e 2c 3e c2 26 1b 3e d9 8b 2b be
       0.18310387 0.16808538 0.15151504 -0.16752566
000050 49 da fd bd 92 43 de 3d d6 64 1e bc 0a c4 28 be
       -0.1239515 0.10852732 -0.009667596 -0.16481033
000060 5b c4 9a bb fa 80 b3 3a 99 c6 39 be a2 cf a3 3d
       -0.0047231144 0.0013695054 -0.18142165 0.07998587
000070 b6 e2 59 3e b2 40 16 be 2f f7 e7 bd 5a 67 e9 3c
       0.2127789 -0.14673117 -0.113264434 0.028491665
000080 ba 50 84 bd 8f 41 3d 3d e3 b9 2a 3e 3f 3b 8d bd
       -0.0646071 0.0462051 0.16672473 -0.06896066
000090 d2 d0 05 be a1 39 ab bd a7 b0 26 be 9c 22 34 3e
       -0.1306794 -0.08360601 -0.16278325 0.17591327
0000a0 63 04 5d 3d 50 c6 d0 3d c5 51 3e ba 85 51 d6 3d
       0.05395926 0.10194075 -0.00072601094 0.10464767
0000b0 aa d5 0f 3c d8 d8 4c be f9 ab b1 bd fd 34 8a bd
       0.008778969 -0.20004594 -0.08675379 -0.06748388
0000c0 ea 9e 54 be 7b f2 b1 bd a0 97 18 be 89 2f 0e be
       -0.20763746 -0.086888276 -0.1490159 -0.1388532
0000d0 7c a1 06 3e 3b 0e 05 bc 4f 4b 3d 3d 34 e8 64 be
       0.13147539 -0.008121069 0.046214398 -0.22354203
0000e0 74 07 d4 bd f5 df 47 3e ca ca 27 3e 8c 93 e9 3d
       -0.10352984 0.19519027 0.16385952 0.114050955
0000f0 fe dc 04 be b7 c6 33 3e 31 94 27 3e 0d a8 37 be
       -0.12974927 0.17556272 0.16365124 -0.179352
000100 05 7d 29 be 9d 3e 45 be ea 95 e6 bc a9 73 37 bd
       -0.16551597 -0.19262166 -0.028147656 -0.044788036
000110 23 e4 90 3d 81 4d 34 3e a1 eb 81 bd 09 88 70 3e
       0.070747636 0.1760769 -0.06343771 0.23489393
000120 cb b7 12 3e f2 38 7c 3d c2 6c f8 bc d3 39 4a 3e
       0.14327924 0.061577745 -0.030325297 0.1974862
000130 80 36 35 3c 51 48 6a 3e 7c 59 7d 3e 42 00 e8 3c
       0.011060357 0.22879149 0.24741167 0.028320435
000140 83 72 27 be 49 6c 50 3e bf 7a 73 3e 05 ae 41 be
       -0.16352277 0.20353808 0.23777293 -0.1891404
000150 96 01 ec 3d 11 bf b0 3d 40 51 be 3c e6 5f 8a 3d
       0.1152374 0.08630193 0.023232102 0.067565724
000160 7b 33 10 3e e1 d0 6f bd 41 87 c0 bd e9 d1 3f be
       0.14082138 -0.05854881 -0.09400798 -0.18732418
000170 f6 84 71 be d9 8d 3b be 81 c5 12 3e 4e d7 ca 3c
       -0.23585877 -0.1831583 0.14333154 0.024760868
000180 20 50 03 bd 92 b8 c9 bd 70 96 64 be bd 1d db 3c
       -0.032058835 -0.09849657 -0.22323012 0.026747579
000190 8c 40 59 be 7a 78 67 be 02 74 fc 3c e0 38 19 bb
       -0.21216029 -0.22604552 0.030817036 -0.0023379847
0001a0 a8 c0 68 3e 68 81 e0 bd 0b d4 40 3d f6 4a 47 be
       0.22729743 -0.10962182 0.04707722 -0.19462189
0001b0 8c 8e 46 bc 36 92 12 3e 1f e7 6b be 54 41 7e be
       -0.012118947 0.14313588 -0.23037384 -0.24829608
0001c0 02 44 01 3e f2 31 0f be a7 67 ee bd 3d 53 5d bd
       0.12623599 -0.13983896 -0.11640864 -0.05403446
0001d0 3a 28 99 3d ed 6f 88 3c 99 a5 02 be 73 22 5e 3e
       0.07478376 0.016654933 -0.12758483 0.21692829
0001e0 63 f7 b6 3c e3 3a 87 bc 49 1f ba 3d c0 b5 4b be
       0.02233476 -0.016507572 0.090879984 -0.19893551
0001f0 7e 2e 59 be 64 57 5f be f8 e0 94 bd 34 22 27 be
       -0.21209142 -0.2181068 -0.07269472 -0.16321641
000200 26 ca 2f bb 2f 8b 73 be d7 30 54 be 7a 11 0e bd
       -0.002682337 -0.23783563 -0.20721756 -0.034684636
000210 95 12 29 3e 1e c6 26 3e e2 90 92 bd c7 87 49 3e
       0.16510995 0.16286513 -0.071565405 0.19680701
000220 4e 81 78 bd 63 31 df 3d a5 b3 97 bd c2 db 30 be
       -0.06067019 0.10898092 -0.07407311 -0.17271331
000230 fc 59 1c be 77 37 11 3e f8 9a b4 bb dc 78 24 3e
       -0.15268701 0.14181314 -0.005511638 0.16061729
000240 6b bd 8d 3e ec b9 fe bc fb ec 10 3e 3f a2 55 be
       0.27683577 -0.031094514 0.14152901 -0.20862673
000250 a9 65 2c be 05 56 e4 bd c6 69 ca 3c 5b 97 76 3e
       -0.16835655 -0.111492194 0.02470864 0.24081175
000260 73 88 f2 3d 70 4f 2a 3e b5 6b 9b 3c 19 9b 1c be
       0.11842432 0.16631866 0.018972257 -0.1529354
000270 3b 2f cf 3d 9e 01 68 3d 9a 33 69 3e c8 40 f1 3d
       0.1011643 0.056642167 0.2277359 0.11779934
000280 94 0f 1e be cf 95 b1 bd 76 78 4f be fc d1 87 3c
       -0.1543563 -0.08671152 -0.20260796 0.01657962
000290 58 19 33 be 96 cf 2d 3e a4 71 37 be f8 08 3f 3e
       -0.17490137 0.16973719 -0.17914444 0.18655765
0002a0 be aa b9 bd 6d 5d 18 be bb af 02 3e 0d 24 68 3e
       -0.090657696 -0.14879389 0.12762348 0.22670002
0002b0 50 60 3f be 57 39 97 3d 96 85 b1 bd fe cc 5f 3e
       -0.18689084 0.073839836 -0.086680576 0.21855542
0002c0 38 b7 1e 3c 1e bb b1 bd fa 62 6f be e4 ad 4f be
       0.009687237 -0.08678268 -0.233776 -0.20281178
0002d0 ed 55 5f bd 29 b5 1a be 57 27 f5 3d c8 de 32 be
       -0.054525305 -0.1510817 0.11970394 -0.17467797
0002e0 65 0d 82 be da 07 3a be 8b ff ef bd ad 6d 5e 3c
       -0.25400844 -0.18167058 -0.11718663 0.013575953
0002f0 7b 85 45 be f1 2f 87 3d fe 56 a2 3d dd 1a 0e 3e
       -0.192892 0.06600941 0.07926749 0.13877435
000300 67 90 07 3e 49 22 82 3b 39 e1 02 3e 61 fc 41 3e
       0.13238679 0.0039713723 0.12781228 0.18943931
000310 ff c2 26 bb 72 d1 06 be cf df a4 bd 3d 44 1f bd
       -0.0025445817 -0.13165835 -0.080505006 -0.038883436
000320 15 81 aa bd 03 f4 7b 3e 0d 51 00 bd 03 00 7a 3e
       -0.08325402 0.24604802 -0.031327296 0.24414067
000330 22 1a 8a bc dc 0a 19 bc cd 75 6d bd 70 78 69 be
       -0.016858164 -0.009340968 -0.05797367 -0.2279985
000340 07 02 46 3e da 75 18 3d dc 47 c3 bd d6 d2 e7 3d
       0.19336711 0.037221767 -0.095351905 0.11319511
000350 90 c4 7b 3d 64 05 6b 3e 9b 4a 28 3e 00 04 de bd
       0.061466753 0.22951275 0.1643471 -0.10840607
000360 43 61 53 be 87 2d 9b 3d f7 c7 09 3e a8 6e 2a bc
       -0.20642571 0.07577043 0.13455187 -0.010402359
000370 1d f3 03 bd e8 41 76 be 3a f6 06 3e 77 a0 a2 bd
       -0.032214273 -0.24048579 0.13179865 -0.079407625
000380 4c b2 47 3e 72 ae 2e be b2 58 25 3d 82 b7 05 3d
       0.19501609 -0.17058733 0.04036779 0.03264571
000390 07 c3 77 3e 5d 11 9b 3d 27 0d 13 3e ec 28 63 3e
       0.24195491 0.07571671 0.14360486 0.22183579
0003a0 aa ea 3b 3e 03 82 52 bd ed 09 e1 3d 2a 8b 97 be
       0.18351236 -0.05139352 0.10988221 -0.2959836
0003b0 0a 8c 2e 3d ca 55 3f be 65 59 48 be ec 04 86 3e
       0.04261402 -0.1868507 -0.19565351 0.2617563
0003c0 70 7f 7c 3e a7 11 b9 bd ec 07 73 3e 66 67 07 3e
       0.24657989 -0.0903657 0.2373349 0.13223037
0003d0 98 40 0d be e4 d7 1b bd 49 0c c7 bd 14 2f 1d be
       -0.13794172 -0.038047686 -0.0971914 -0.1534999
0003e0 c0 7d da 3d b3 b8 0d be d1 6d 87 bd 55 ab a5 bd
       0.10668516 -0.13839988 -0.06612743 -0.080893196
0003f0 4d cb 34 3d 38 5c ff bd 88 fe e2 bd a2 4e d0 bd
       0.044139195 -0.12468761 -0.11083704 -0.10171248

layer_1.bias f4 [100]
000000 b7 62 e8 3c ca a6 fd 3d a7 ff 0a be a8 6b f5 bd
       0.028367383 0.12385328 -0.13574086 -0.119834244
000010 33 9c 60 be b3 1f 8b be a8 cc e7 bd 1c 4f cf bd
       -0.21934585 -0.27172622 -0.11318332 -0.10122511
000020 9e be 32 be 1d 36 4c 3e 0a 73 25 be 2b bf b9 3d
       -0.17455527 0.19942518 -0.16157165 0.090696655
000030 e5 f0 86 3e 08 c2 51 3d cd df 20 3e 71 3a 95 3d
       0.26355663 0.051210433 0.15710373 0.072865374
000040 0e 94 21 3d 2a 2b 41 be 97 85 31 3e 67 78 63 3d
       0.039447837 -0.18864122 0.17336117 0.055534746
000050 dd 9d 52 bd 9a b1 6f 3d e1 ef 3d 3e 64 90 0f bd
       -0.05142008 0.058518983 0.18548538 -0.03504981
000060 cd c2 4b be 64 1a 9b 3c 34 f5 04 be 2b 55 a1 bd
       -0.1989853 0.018933482 -0.12984163 -0.078775726
000070 20 86 2f be e0 45 7f 3e bb 19 33 be 68 9c 70 3e
       -0.17141008 0.24928999 -0.17490284 0.23497164
000080 bb e9 01 3e 97 7f 02 3e a8 d1 64 3e c4 83 55 be
       0.12686817 0.12743984 0.22345603 -0.20851046
000090 90 ee c1 3d 5c d2 1c be 8a fb 30 3e 75 20 2b be
       0.0946933 -0.1531462 0.17283455 -0.167116
0000a0 d8 98 54 3e 3a 04 eb bd 7e 93 41 3d 6a 00 6a 3e
       0.2076143 -0.114754155 0.0472598 0.2285172
0000b0 66 8f 0f 3e b9 f2 88 3e ef 5a 39 be ec fb 0b be
       0.14019546 0.26747683 -0.18101095 -0.1367032
0000c0 8f e4 5c b9 71 59 3d 3e 37 58 ca 3c 35 4b bc bc
       -0.0002106598 0.1849115 0.024700267 -0.02298508
0000d0 95 f3 22 bd 0c 11 98 3d 7e 54 2d 3e bf 4c 80 3d
       -0.03978308 0.074251264 0.16926762 0.06264638
0000e0 35 db 2e be 73 7e 2a 3c 8e 6f 48 bd 47 ba 2e be
       -0.17075808 0.010406124 -0.04893451 -0.17063247
0000f0 4b 04 88 3c a2 8b 50 be 6d e9 90 bd 47 ff 73 3d
       0.01660361 -0.20365766 -0.070757724 0.059569623
000100 aa 7b 9c 3d 47 36 75 3e 5d 69 81 3c 14 d6 a5 3d
       0.076407745 0.23946486 0.015797311 0.08097473
000110 3c ff 77 3e de ed 9b bd e6 8a 70 be 2c 1b 5a be
       0.24218458 -0.07613729 -0.23490486 -0.21299428
000120 72 f9 85 bd 2e fe dc 3d 2a a4 42 3e 26 2d 77 3e
       -0.065417185 0.107906684 0.19007936 0.24138317
000130 15 5d 92 bd 72 96 07 be de b1 c2 3d 3d ff 4c be
       -0.0714666 -0.13240984 0.09506582 -0.2001924
000140 61 0c e4 3c d5 3b 49 3e 77 e8 81 be 9c de 05 3e
       0.027837934 0.1965173 -0.2537267 0.130732
000150 3e 73 3b be 30 6d e6 bd 6f 4c 22 3e 82 a3 08 be
       -0.1830568 -0.112512946 0.1584947 -0.13343623
000160 c1 af 19 3e 72 3e 76 3e 27 81 75 3d d2 7d 46 bb
       0.15008451 0.24047258 0.059937622 -0.0030287397
000170 3e 8c 16 be 0e 7b 07 3e b3 68 32 3e f3 13 52 3d
       -0.14701936 0.13230535 0.17422752 0.051288556
000180 37 59 4f be e6 dc 6c bd 20 c7 91 bb 5b 58 db 3d
       -0.20248877 -0.057827853 -0.0044487864 0.10710212

layer_2.weight f4 [100, 100]
000000 32 0c bc 3c 2c 66 97 3d 3c e7 0a 3d 6b 53 58 3d
       0.022955034 0.073925346 0.03391193 0.05281393
000010 bb 59 0e bc 9d cb 9f bd ef 2f b0 bb 38 bd b1 3d
       -0.008688386 -0.07802508 -0.005376808 0.08678669
000020 1c 0f a2 3c e5 df 0f 3d ec 87 53 3d 6d 9f 8e 3c
       0.019782595 0.03512563 0.051643297 0.017410005
000030 60 32 2c bd 1f 5f 86 3d 56 11 40 bd 7a fc 6b 3d
       -0.04204023 0.06561112 -0.046891533 0.057613827
000040 52 c5 df 3d a4 6a 3f bd 54 7d 15 bd 19 aa ae bc
       0.10926308 -0.04673256 -0.036496475 -0.021321343
000050 6f d0 6d bd e6 89 8f 3c 12 20 90 3d 46 49 85 3d
       -0.058060106 0.01752181 0.07037367 0.065081164
000060 76 e9 f1 bc f1 1b b8 3d 20 69 3c 38 68 fa 56 3d
       -0.029530268 0.089897044 4.4920598e-05 0.0524849
000070 7c 0a e3 bc 5c 9b a9 bd 1e 6b 9b bd e7 50 e0 bd
       -0.02771496 -0.082815856 -0.0758879 -0.10952931
000080 5d 5c 69 bd 99 8a 3b 3d 9d 27 6e 3d e1 16 54 bd
       -0.05697285 0.045786474 0.058143247 -0.05177963
000090 1d 7c ec bc f0 55 7f 3d 2c a4 12 bd d2 65 8b bd
       -0.028867776 0.062337816 -0.035801098 -0.0680653
0000a0 e2 99 96 bd b1 3a 2f 3d a3 4d 6a 3d 8e 93 1e bc
       -0.073535696 0.04278058 0.057202946 -0.0096787345
0000b0 d0 28 94 3d 25 6c 55 3c 53 a9 55 bb dc 8a 9a bd
       0.07234347 0.013026272 -0.0032602146 -0.075460166
0000c0 7c 31 39 bc 54 9f 41 bd 89 66 a0 3c d5 41 c1 3c
       -0.011303302 -0.047271088 0.019580143 0.023590961
0000d0 b1 c0 9e bc fc ac d5 bd dc 66 95 3c 59 2a 9d bc
       -0.019378992 -0.10433385 0.018237524 -0.019185232
0000e0 be 33 99 3d c5 5a 56 bd eb 2b 43 bd ac 5c 0f 3d
       0.07480572 -0.05233266 -0.047649305 0.03500049
0000f0 32 70 3b 3c bc 2b af bc ad 26 75 bd 97 d5 85 bd
       0.011440324 -0.021383159 -0.059851337 -0.0653488
000100 7a 0e c0 3d 7d 0e 96 bd e8 f2 7a 3d a4 4a 1d 3c
       0.09377761 -0.07326982 0.06126681 0.009600315
000110 d3 8b 5e bd ac 3a 6a 3d ad b8 b9 3c 8e 44 2a bd
       -0.054332566 0.05718486 0.022671068 -0.041569285
000120 1c a5 9f 3d 6e 3e 93 3d 7c 4e 28 3b 1e 6e d7 3b
       0.07795164 0.07189642 0.0025681546 0.0065744063
000130 9e b7 9e bd a8 cc 19 3d 86 74 6f 3d 79 7c a6 bd
       -0.07749866 0.03754869 0.058460735 -0.0812921
000140 33 7d 76 3d ca 26 a4 bd d5 76 d0 bd 6e 5a 89 bd
       0.060177993 -0.08015211 -0.101789154 -0.06706701
000150 19 ee 73 3d b5 36 15 bc 92 a3 d7 3b 69 e0 cd 3d
       0.05955324 -0.009107281 0.0065807784 0.100525685
000160 07 a0 ab 3d c3 af bb bc fc 50 4d bd 29 c1 2d bc
       0.08380132 -0.022910958 -0.05012606 -0.010605135
000170 97 c0 fe 3c f1 1e 22 bd f3 e6 9f 3d af 3d de 3c
       0.031097693 -0.03958029 0.07807722 0.027129022
000180 4b 24 ea 3d 27 d8 f5 bc 9a 2b dc bd af 78 1d 3d
       0.114327036 -0.030010296 -0.10750504 0.03844517
000190 f1 10 02 3c 19 a9 10 3c 35 aa 00 3d 1d 6b 31 bd
       0.007938609 0.0088293785 0.031412322 -0.04331504
0001a0 d4 da a7 bc b9 f1 58 bd de 02 1b bd 62 b8 ef 3d
       -0.020490088 -0.0529649 -0.03784453 0.1170509
0001b0 d3 b7 7c 3c 11 cf f3 3d a0 0b 7e bb c5 ec e6 3d
       0.0154246865 0.11904729 -0.0038764253 0.11275629
0001c0 fc 91 12 3d c2 04 2d 3d 16 2d 0f 3d 8a 16 61 3d
       0.035783753 0.042240866 0.034955107 0.054953136
0001d0 20 01 92 3c 61 a9 87 bc f3 d0 d4 3c 97 f8 95 3d
       0.017822802 -0.016560258 0.025978541 0.073228054
0001e0 97 79 97 bc 53 f7 a0 3d ba 74 74 bc 8f 72 aa bd
       -0.018490596 0.07859673 -0.014920408 -0.083226316
0001f0 62 e3 1e bd ef fc 47 bd b8 5b c6 3c c0 87 31 bc
       -0.038791068 -0.0488252 0.024213657 -0.010835588
000200 0a aa 87 bd 17 f0 0b 3e a1 52 ce 3c 6d af 62 bb
       -0.06624229 0.13665806 0.025185885 -0.0034589425
000210 b2 94 bc bd 1e 68 2e bd 40 47 bc 3d 60 60 f1 bd
       -0.09208049 -0.042579763 0.09193277 -0.1178596
000220 ed 84 38 bd 43 f8 91 3d 8c 49 18 3d f6 f2 bc 3d
       -0.045048643 0.0712743 0.037179515 0.092260286
000230 d0 4c 47 3d fd 99 7c bc 50 f8 9d bc 7f e7 98 3d
       0.04865724 -0.015417573 -0.019283444 0.074660294
000240 3c 2c bb 3d c2 27 39 bc ac 94 13 3d ec 94 ea 3d
       0.091392964 -0.011300983 0.036030456 0.11454186
000250 7a 8c a8 3d 5f 8b b4 3d 32 83 94 bd bb d2 a0 3d
       0.08229919 0.088156454 -0.07251586 0.07852694
000260 5c 8c af 3d 99 b2 81 3d 9b 72 2b bd 3a 9e 22 3c
       0.08571693 0.06332893 -0.041857343 0.009925419
000270 96 c3 89 bd bd 16 4c bd fa 03 8d bd 0d e2 ff bc
       -0.06726758 -0.049826372 -0.06885524 -0.03123572
000280 b9 26 fd 3d 67 1f 76 bd b9 09 9e bd b8 01 f1 3a
       0.123609014 -0.06008854 -0.07716698 0.0018387353
000290 68 5a 4c 3d 68 ac a6 bc 33 75 6f 3c 1f b1 e0 3b
       0.049890906 -0.020345882 0.014615345 0.006857052
0002a0 57 03 94 bd 22 74 ad bd a1 3f f3 3c 0c df 3c 3d
       -0.072271995 -0.08469416 0.029693427 0.04611115
0002b0 bb 25 6b bd ad cd 41 3d 89 19 9b bd d7 fa c0 3d
       -0.05740903 0.04731529 -0.0757323 0.09422844
0002c0 32 7b 9b 3d 12 76 9b 3d 56 ad 2d bd d3 9d 08 3a
       0.07591857 0.075908795 -0.042401634 0.0005211506
0002d0 c0 7f ae 3c 8a bb b6 3d 51 f2 c2 bc a3 70 7a 3b
       0.02130115 0.08922489 -0.023797186 0.003821411
0002e0 a2 9a a3 bd 88 5d 64 3d 9a 78 b5 bc 8a dc e9 bc
       -0.07988478 0.05575326 -0.022152234 -0.028547544
0002f0 1e 67 73 bd 70 7d d9 bd 2a 42 ae 3d 60 5c a8 bc
       -0.059424512 -0.106196284 0.085087135 -0.02055186
000300 73 e1 50 bd 34 ac 91 bd a3 2f 95 3d 3b 23 5a bd
       -0.050996255 -0.07112923 0.072844766 -0.053256255
000310 12 ec c2 bd f7 35 b3 3d 08 dd cd 3d 26 05 1a 3d
       -0.09517683 0.08750527 0.10051924 0.037602566
000320 cf d9 0c 3d ef 18 14 3d a8 44 aa bb 54 2f 21 3d
       0.034387406 0.03615659 -0.0051961727 0.039351776
000330 a0 bb 69 3b 9b ce 8a bd e7 7c 7a bd 04 fd 05 3c
       0.0035664812 -0.06777688 -0.061154272 0.008177999
000340 87 bd 2e bd ac 5e 80 3d 18 b2 86 bd 4a fc a8 3d
       -0.042661216 0.06268057 -0.065769374 0.08251245
000350 3b e9 b4 3d c4 90 4c bd f9 ff 40 3d 74 a1 21 bd
       0.08833548 -0.049942747 0.047119115 -0.039460614
000360 53 6f 8b 3d 46 91 2c 3d 59 05 68 bd a1 84 8a 3d
       0.06808343 0.04213073 -0.056645725 0.06763578
000370 46 d3 3a bd 6f 87 74 bd 17 0a f9 3c 92 1d d9 3a
       -0.045611642 -0.059699472 0.030400319 0.0016564599
000380 91 b9 0f 3c 88 fe 76 3c 74 c0 4a 3d 60 42 ba 3d
       0.00877227 0.015075333 0.049499944 0.09094691
000390 02 76 e4 bd 70 21 dc 3c 7a ec a9 bd e0 a2 24 bd
       -0.11155321 0.026871413 -0.082970574 -0.040194392
0003a0 0d 38 c5 bd 0f fc 54 3d 9d 31 e3 3d 96 7b 94 bc
       -0.096298315 0.051998194 0.11093447 -0.018125337
0003b0 97 19 3e 3d c1 5f 65 3d f1 f4 c8 3d 60 c7 31 3c
       0.046411123 0.05599952 0.09812344 0.010850757
0003c0 25 55 26 3d 81 97 0a bd 27 87 b9 39 96 6c 9c 3d
       0.040608544 -0.03383589 0.00035386646 0.076378986
0003d0 50 99 1a 3d 25 13 be 3d 2a 67 8a bd 33 dd 1b bd
       0.037743866 0.09280995 -0.06757958 -0.03805275
0003e0 fd cb 91 3d f6 24 f6 bc 05 85 6c bd 1c 8e 03 bd
       0.07118986 -0.030046921 -0.057744045 -0.032117948
0003f0 59 58 c5 bc 94 28 ac bc 63 48 cb 3c 54 69 99 bd
       -0.024089979 -0.021015443 0.02481479 -0.07490793

layer_2.bias f4 [100]
000000 ca 07 64 3d c9 26 c9 3c 31 6a 97 bc 83 72 2d bd
       0.05567149 0.024554627 -0.018483253 -0.042345535
000010 ee 48 9f bd c5 c1 7c bd ff 2f d5 3c 10 ba 99 b9
       -0.07777582 -0.06170823 0.026023863 -0.0002932106
000020 b4 f3 72 bc f1 79 b1 3d 00 d2 d3 39 54 e0 86 bb
       -0.014828611 0.086658366 0.00040401518 -0.0041160975
000030 9c 23 7b bd ce 58 5e 3d 9d 8f 16 3b 73 0a 68 3d
       -0.061313257 0.05428391 0.0022973784 0.05665059
000040 81 8c 62 bd 94 86 b0 3d 1a c8 57 3d 53 d4 63 3c
       -0.055309776 0.08619419 0.052681066 0.0139056025
000050 60 5c 99 bb 81 68 3d bc 6a 63 8e 3c b7 a2 d8 ba
       -0.0046802014 -0.01156056 0.017381389 -0.0016527985
000060 b9 73 56 bd 78 a2 91 bd 0d e8 ae bd 17 7f 0d 3c
       -0.052356455 -0.071110666 -0.08540354 0.008636258
000070 da 32 1d bd 42 c1 93 bd c1 b6 03 3d cd f2 fa 3c
       -0.038378574 -0.072145954 0.03215671 0.030633355
000080 0a 24 78 3c 55 46 83 bd 44 2c e8 3c dd 43 58 bd
       0.015145311 -0.06409899 0.02834142 -0.052799094
000090 fe b8 94 bd b7 54 78 bb 30 08 e8 3b 02 04 71 bd
       -0.07261847 -0.003789229 0.007081054 -0.058841713
0000a0 a8 de 74 bd cc a0 94 bd e3 e3 61 3b 12 4c a9 3d
       -0.059782654 -0.07257232 0.0034468106 0.082664624
0000b0 76 ab 84 bc 04 e8 49 3d 1a 9c ed 3c 8c 37 0e 3d
       -0.01619504 0.049293533 0.0290051 0.034720942
0000c0 f4 3f aa bd ff 0b 88 3c 15 8c 86 bd 84 86 a7 3d
       -0.08312979 0.016607283 -0.06569687 0.08179954
0000d0 1e 7d 01 3d 30 33 06 bc 80 b0 8a 3d 91 3e f4 bb
       0.03161346 -0.008190915 0.06771946 -0.0074537476
0000e0 21 30 a6 3d 8f 2b 7c 3d 0f e7 3f bd d1 ae 1a bd
       0.081146486 0.06156498 -0.046851214 -0.037764374
0000f0 4b c9 45 bb b5 1a bb 3d 8e 51 33 bd 7b 25 01 bc
       -0.0030179794 0.09135953 -0.04377895 -0.007882471
000100 4c af 7d 3d ee a6 b7 bc 18 a1 b9 3d eb ab a1 3d
       0.061934754 -0.022418465 0.09063929 0.07894119
000110 ac 97 a8 3d 98 33 39 3a dc 96 a3 3d c1 e8 8d bd
       0.08232054 0.0007064878 0.079877585 -0.0692916
000120 5e 40 fb 3c 25 58 08 bd 86 b1 c5 bd 9d f0 14 bd
       0.030670341 -0.033287186 -0.096530005 -0.03636228
000130 35 43 62 3d a4 59 57 bd 5a 65 b4 3c da be 73 3b
       0.055239875 -0.052575722 0.022020984 0.0037192614
000140 7b f6 89 bd ec 9a 30 3d c1 70 8e bd 80 07 a1 3d
       -0.067364655 0.043116495 -0.069551 0.07862759
000150 18 ca 04 3d ca 44 de 3b 63 55 40 bd b3 6d 34 bd
       0.032419294 0.0067831026 -0.04695643 -0.04404993
000160 5f 16 8a 3c 7b 03 3f 3c 60 f9 82 3b f8 ca 64 b8
       0.01685637 0.011658545 0.003997013 -5.4548465e-05
000170 1f 5f 71 bb 58 ea b7 3c 28 f1 1f bb 52 3d 6d bd
       -0.0036830378 0.022450611 -0.0024405215 -0.057919808
000180 21 36 e6 bc dd 03 54 bd e8 b7 ce bd 75 b5 cd 3d
       -0.028101983 -0.051761497 -0.10093671 0.10044376

layer_3.weight f4 [100, 100]
000000 9b 63 a1 3d 16 96 69 bd b2 2b 95 bd b9 a7 89 bd
       0.07880326 -0.0570279 -0.07283725 -0.06721444
000010 85 89 9f 3d 57 6e e7 3d 69 72 1d bd 0e ff 8d 3c
       0.07789902 0.113003425 -0.03843919 0.017333534
000020 60 0f 44 bd b7 3b 81 3d 26 8a 46 bd c7 54 d2 bc
       -0.047866225 0.06310218 -0.048471592 -0.02567519
000030 e8 d5 4b 3d 55 0b 92 bd 26 69 84 3d 86 29 fa 3d
       0.049764544 -0.07131068 0.06465368 0.12214951
000040 e0 f8 76 bd 6b 30 f9 bc a6 34 6c bd 27 b2 5c bd
       -0.06029594 -0.030418595 -0.057667397 -0.053880837
000050 b2 48 4e 3d 63 9d 71 bd 5f 96 27 bd 4a 0a 07 3c
       0.050362296 -0.058987986 -0.04091489 0.008242199
000060 04 80 2e 3d 1b d1 89 3c 15 2d 9a bd 3a a8 69 bd
       0.042602554 0.016823342 -0.0752813 -0.0570452
000070 62 a0 13 3c 08 b7 8b bc 6f 14 4e bd c4 d6 76 bc
       0.009010406 -0.01705505 -0.050312456 -0.015065853
000080 7c c9 06 3c c9 a2 cf 3d 6a db 13 3d fd 51 88 3d
       0.008226749 0.10138471 0.03609792 0.06656263
000090 b6 38 6c bd 67 a2 b8 3d dd 75 9d bc 3f 10 ad bd
       -0.05767127 0.09015351 -0.01922124 -0.08450364
0000a0 f2 41 33 bd cd 7a 2e bd d8 c4 cb 3c 65 80 58 bd
       -0.043764062 -0.04259758 0.024874136 -0.05285682
0000b0 c0 d3 9e bc 99 29 44 bd ff fa 86 3d 0e 5a 85 3d
       -0.01938808 -0.047891233 0.065908425 0.06511317
0000c0 c0 2f c9 bc 9a f3 2b 3d 36 b9 93 bd 0a 7d a0 bd
       -0.024558902 0.041980363 -0.072130606 -0.07836349
0000d0 49 4e 5e bd 1e 40 18 3d f2 d8 97 3d 9a dd d6 3c
       -0.054273877 0.037170522 0.07414426 0.026228715
0000e0 34 06 f4 bc 7a 59 96 3c 98 f2 34 bc cf fb 59 bc
       -0.029788114 0.018353213 -0.011044167 -0.013304665
0000f0 d3 5f 1a 3d e7 63 45 3d d2 1e 49 3c 3d 99 b9 bd
       0.03768904 0.048190977 0.012275415 -0.09062431
000100 2b d8 b4 bd 21 26 74 bd 80 85 98 bd 56 26 06 bd
       -0.08830293 -0.059606675 -0.07447338 -0.032751404
000110 96 ab 06 3d 60 49 62 bc c6 48 65 3d f6 24 b6 bd
       0.03287848 -0.013811439 0.055977605 -0.088937685
000120 b3 d7 2b bd 60 51 a6 3b c1 e8 85 bc 10 45 09 3c
       -0.041953754 0.0050756186 -0.016346337 0.008378282
000130 ac 02 c1 3c 62 94 59 bd 96 94 9b bd 2d 8f 93 3c
       0.023560844 -0.053120025 -0.075967 0.018012607
000140 a8 3b d5 bc 38 0f 9e bd 9e f1 fb 3d c5 30 c6 bd
       -0.026029423 -0.077177465 0.12301944 -0.09677271
000150 f6 ed 70 3d 7d ad be bd f1 d3 9c 3d eb 46 c6 3d
       0.058820687 -0.09310434 0.07657612 0.09681495
000160 57 98 bb 3b 0b 38 a7 bd 79 d7 c7 3d ac 3f c2 3c
       0.0057249474 -0.08164986 0.09757895 0.023712002
000170 7d 27 84 bd 38 d5 b8 bd 77 72 bb bc 69 07 82 3d
       -0.06452844 -0.09025043 -0.02288173 0.063490696
000180 51 8a a7 3d da d4 a6 3d 54 0e 7e 3d 5a 65 77 3d
       0.08180679 0.08146067 0.062025383 0.06039939
000190 51 70 91 bc bc 4d 3d bd 76 35 65 3d 19 15 bd 3d
       -0.017753752 -0.04621671 0.055959187 0.0923254
0001a0 8b 2a ca bd ee 0d 68 3d f3 2f 92 bd 20 c4 b6 bd
       -0.09871396 0.05665391 -0.07138052 -0.089241266
0001b0 3c fb be bd ca ba 8d 3d 32 ee 34 3d 10 a0 3b bc
       -0.09325263 0.06920393 0.044172473 -0.011451736
0001c0 d5 e7 ee 3c d3 6d 05 bd d9 02 aa 3c 43 b8 5a bd
       0.02916328 -0.03257544 0.020753311 -0.053398382
0001d0 a7 15 45 bd 84 2b 94 3d ac 23 ba bd 6a 88 a0 3d
       -0.048116352 0.072348624 -0.09088835 0.07838519
0001e0 b4 c3 cc 3c c1 ac 33 3d 4a 25 84 bd 4a f5 99 bd
       0.024995662 0.043865923 -0.06452425 -0.07517488
0001f0 2e 89 8a bc 3d 93 74 bd a4 01 cd 3c 40 3b b2 ba
       -0.016911115 -0.05971073 0.025025196 -0.001359798
000200 f3 e7 2c bd 65 99 ab bd 00 6e f8 bc 03 4a d3 bc
       -0.04221339 -0.08378867 -0.03032589 -0.025792127
000210 d1 f6 4b 3d 2c eb e5 bc f4 d1 04 bd 23 65 b5 3d
       0.04979593 -0.02806624 -0.03242679 0.08857181
000220 53 df 62 bd fd 0d c6 3d 4b 0d b9 bc 7a 5d 97 bd
       -0.05538876 0.09670637 -0.022589346 -0.07390876
000230 5d e0 a1 3c 44 85 5f bc a8 6f b7 bd 05 5a 88 bd
       0.019760305 -0.013642613 -0.089568436 -0.06657795
000240 5a d5 91 bd 92 a0 b4 bc 9e 63 65 3d 18 f1 4e 3c
       -0.07120772 -0.022049222 0.056003205 0.012630723
000250 36 29 2d 3d 94 eb 9a 3b 60 cd d3 3b 01 2b 8b 3d
       0.04227563 0.00472779 0.0064636916 0.06795312
000260 58 e6 87 bd 12 46 65 3d 0d f3 96 bc 15 92 51 bd
       -0.066357315 0.055975027 -0.018426443 -0.051164705
000270 23 2e 5f bb 60 0b d3 bb 9e 6f 40 3d ca d0 cb 3d
       -0.00340546 -0.006440565 0.046981446 0.09951933
000280 c2 8f 85 3d 01 82 8e 3d 5e 46 a2 bc 6c a1 0e bc
       0.0652156 0.0695839 -0.019808944 -0.008705478
000290 c8 75 e8 3b 7a c7 eb 3b e0 83 8d 3c 82 b4 35 3d
       0.0070941187 0.0071954103 0.017274797 0.0443616
0002a0 1f 19 c7 3d de ed 7a 3d 9f e7 a4 3d 20 c0 a9 bd
       0.09721588 0.061262004 0.08051991 -0.08288598
0002b0 30 65 c3 bb db da 7f bd af f6 a7 3d 72 2a 4c 3d
       -0.00596299 -0.062464576 0.08201348 0.049845167
0002c0 24 33 92 3d 92 07 0c 3c d0 1c c3 bb 61 a3 66 3d
       0.071386606 0.008546727 -0.0059543625 0.056308154
0002d0 42 14 c9 bb b2 f1 91 bd d2 68 00 3d f4 15 bd 3c
       -0.006136448 -0.07126178 0.031349964 0.023081757
0002e0 dd 1c 8d bd ec 1b e9 3c e0 d8 15 bd b7 67 89 3d
       -0.06890271 0.028455697 -0.03658378 0.06709235
0002f0 b5 32 9f bd db 13 a0 bd 6d 72 be 3d 22 25 b2 bd
       -0.077733435 -0.07816287 0.09299169 -0.08698489
000300 a0 54 29 bd 75 32 8a bd 63 e8 02 3d e6 e7 37 3d
       -0.04134047 -0.06747905 0.031959902 0.04489889
000310 28 79 c1 bd 5b af 38 bd 3e 3b 5c 3d f0 78 28 3c
       -0.09446937 -0.045089107 0.053767435 0.01028274
000320 5b 93 dc bc c7 29 e0 bd 47 a4 8c bc 01 2a e1 3d
       -0.026925733 -0.109454684 -0.017168177 0.1099434
000330 ba 4c 17 bd f9 e8 99 bc 5a 4f 4c bd b7 4b 39 3c
       -0.036938407 -0.018787848 -0.049880363 0.011309556
000340 d8 87 b1 bb 4b 46 90 bd e7 41 a6 3d 67 85 c4 3d
       -0.005417805 -0.07044657 0.081180386 0.09595757
000350 a5 ee e5 3d d6 da 3a 3d 51 43 46 3d 9b cb 34 3d
       0.112271585 0.045618854 0.04840404 0.044139486
000360 87 c8 ce bd 10 8f 81 bd 1b 89 8f 3d f6 70 a5 bd
       -0.10096841 -0.06326115 0.07008573 -0.08078186
000370 c0 53 23 bc 85 b0 24 3c 8d 56 86 3d 09 12 29 3d
       -0.009968698 0.010051851 0.06559477 0.041276965
000380 97 9f db 3c 96 33 ea 3d 95 79 6f 3d 89 24 52 bd
       0.026809497 0.114356205 0.05846556 -0.051304374
000390 bd ab b7 3d b1 e0 05 bb 86 ff 82 3d d1 5a 85 bd
       0.08968303 -0.0020428116 0.063963935 -0.065114625
0003a0 55 1c 3c bc f7 a9 93 3c a7 6b 8c 3d a0 28 4a bb
       -0.011481364 0.018025381 0.068564706 -0.0030846968
0003b0 7f c9 f2 3b fc 5c 8e bd 12 cb 8f 3d ba 56 7a bd
       0.007409274 -0.06951329 0.070211545 -0.061117865
0003c0 57 51 e8 bc c8 68 a7 39 57 79 08 3d bf 0d 82 bd
       -0.028359098 0.0003193079 0.033318844 -0.06350278
0003d0 87 d2 78 3d e3 ab 8b bd 43 31 04 bd cc a0 ca 3d
       0.06074765 -0.06819894 -0.032273542 0.09893951
0003e0 a5 78 d1 3d f4 54 62 3b bb 04 69 bd 82 d1 36 3d
       0.10228089 0.00345355 -0.056889277 0.044633396
0003f0 30 8c 3a bb 41 e0 ad 3d 72 ac ae 3d b0 12 0d 3c
       -0.0028464906 0.08490039 0.08528985 0.0086104125

layer_3.bias f4 [100]
000000 6f d0 97 3d 66 6f 3c bd 20 1e 8f 3d e1 98 ce ba
       0.074128024 -0.046004675 0.06988168 -0.0015762114
000010 7b 90 74 bc 1d 3c c3 bd 86 e0 01 3d 60 84 29 3d
       -0.014927025 -0.0953295 0.031708263 0.04138601
000020 e3 74 37 3d e1 a1 1d 3d 55 16 bd bd 12 97 11 bd
       0.044789206 0.038484458 -0.09232775 -0.035544463
000030 fd 90 c9 bc 36 78 9e bc 4e d6 54 3d 1e b5 d3 3d
       -0.024605269 -0.01934443 0.05196219 0.1033728
000040 50 c6 03 bb 28 9f 2f 3c 81 6b 5a 3d 56 14 2b bd
       -0.0020107217 0.010719098 0.05332518 -0.04176744
000050 1e ff c3 bd 23 7d aa 3d 6c ed a1 3d 04 34 87 3c
       -0.09570144 0.08324649 0.07906613 0.016504295
000060 6e fa 5e 3d 25 fc ab bd 2a 04 1d bd 30 aa a5 3d
       0.054438047 -0.08397702 -0.03833405 0.08089101
000070 c5 47 8b 3d 58 2d d0 bc 90 6c f9 bc 06 b5 94 bd
       0.06800798 -0.025412247 -0.030447274 -0.0726109
000080 f2 43 a4 bd d6 51 84 bb c2 dc ce bc 75 5f 9a bd
       -0.08020772 -0.004038076 -0.02525175 -0.07537738
000090 59 db e3 bd 52 d4 23 3d 5f fc 7b 3d 70 62 84 bd
       -0.111258216 0.039997406 0.061519977 -0.06464088
0000a0 c8 f7 ef bc 4e cd 76 3b 22 20 73 bd 10 3f 20 3d
       -0.029292956 0.0037658992 -0.059356816 0.03912264
0000b0 27 de 8e bd 41 04 9b bc 26 c2 ad 3c 3e dd 84 3c
       -0.06975966 -0.018922927 0.021210741 0.016218778
0000c0 4e cd 28 3d e4 77 b2 3c a9 9b 55 3d 57 08 66 3c
       0.04121142 0.021785684 0.052150402 0.014040074
0000d0 c7 ce 9a bd e7 a6 81 3d 43 fc 12 3d 72 5d b1 3c
       -0.07558971 0.06330662 0.035885107 0.021651004
0000e0 39 1f ca bc 49 51 f9 3c 73 9b 8f 3d 5c 17 a0 bd
       -0.024673091 0.030434268 0.070120715 -0.078169554
0000f0 7c ba 87 bd f4 16 94 3d 40 74 e8 bc 57 8b ae 3d
       -0.06627366 0.072309405 -0.028375745 0.08522671
000100 66 84 54 bd 13 a6 b5 bb f2 f2 20 3d 68 6e 74 bc
       -0.051884077 -0.005543479 0.03929419 -0.014918901
000110 6f 4a 84 3d 6c 34 24 3d ca 91 42 bd fb e7 a4 3d
       0.064595096 0.040089056 -0.047502317 0.08052059
000120 3b 16 b6 3d ce 1f 5c bc 0e 71 ad bd d1 8d b6 bd
       0.08890959 -0.013435317 -0.08468829 -0.08913768
000130 f0 91 84 bd df e0 a4 bc f4 32 94 bd 1c 4e 45 3d
       -0.06473148 -0.020126758 -0.07236281 0.048170194
000140 a3 34 d5 bd 69 19 ce bd 3a 6e 0d 3d e8 e4 a5 3c
       -0.1041043 -0.1006344 0.03452895 0.020250753
000150 fd 01 bc 3d d7 54 35 3d d9 ec 80 3d 06 ee 8b 3d
       0.09180067 0.044270363 0.06295175 0.06832509
000160 e8 5a 9c 3b 39 5c 4a bd 1e 9b 36 3d f0 7c d4 ba
       0.004771579 -0.049404357 0.044581525 -0.0016211551
000170 ee 71 0c bd 2f 1f 4b bd ce a3 92 bd e9 c0 3e bd
       -0.03428834 -0.049590286 -0.071601495 -0.046570692
000180 a0 1c 41 3b 89 9b 4e 3d 2e 6e 56 bd 2e 62 53 bd
       0.0029466525 0.0504413 -0.05235117 -0.051607303

layer_4.weight f4 [100, 100]
000000 2a 30 05 bd 55 d8 60 3d 48 f1 66 bd 72 89 c3 3d
       -0.032516636 0.05489381 -0.056382447 0.095477
000010 ab c9 86 bd 0e eb b8 bd 41 13 9e bd 44 9c 4d bd
       -0.06581434 -0.09029208 -0.07718516 -0.050197855
000020 b6 06 d1 3d 7b 93 89 bc 0a cf c9 3d 2a 25 55 3d
       0.10206358 -0.016793957 0.09853943 0.052037396
000030 26 95 89 3d 4e 5c 9a 3d e0 0c d0 bc 04 dd 1d bc
       0.06717901 0.07537137 -0.025396764 -0.009635214
000040 5a 9d ab bb 91 cf aa 3d 6b 9f 3a bd 55 33 fc bc
       -0.0052372636 0.083403714 -0.04556219 -0.030786196
000050 68 6d dc bc 6a f5 22 bd 4a eb 78 3b 56 aa 59 3d
       -0.026907638 -0.039784826 0.003798204 0.05314096
000060 68 5f 25 3c 90 cf 3a 3c df c3 69 3b 6d 97 ab bd
       0.010093547 0.011402026 0.0035669727 -0.083784916
000070 9a d9 ce bc ed 2a 91 3d f6 52 9e 3d 47 55 a3 bc
       -0.025250245 0.070882656 0.07730667 -0.019938124
000080 12 9f 38 bc 99 a0 9a bd 14 4d 8d bc c3 43 0d bd
       -0.011268394 -0.07550163 -0.017248668 -0.03448845
000090 e5 1c 94 3d 4c 88 19 bc 9e d5 b6 3c d8 c3 f8 bc
       0.07232074 -0.009370875 0.022318657 -0.030366823
0000a0 c5 fe 61 3d 6e 73 a7 bc 51 c9 4f bd f8 cb 84 3d
       0.055174608 -0.020440783 -0.0507291 0.064842165
0000b0 d2 33 a2 bc 65 52 20 bd ce 40 8e bd fe e0 4c 3d
       -0.0198001 -0.039141078 -0.06945954 0.050019257
0000c0 b5 99 45 bd 3f bf 4a bd 5d af 90 3d 1f 4c 82 bd
       -0.04824229 -0.049498793 0.07064698 -0.06362175
0000d0 6c 0d f4 bc 75 08 aa 3d 7f 52 98 3b 49 aa 1f 3d
       -0.029791556 0.08302394 0.004648506 0.038980756
0000e0 32 8c 8a 3d 4c 55 4a 3c 33 dc 8f bd 0f 33 e3 3d
       0.067650214 0.012349438 -0.070244215 0.11093723
0000f0 00 81 e8 3d d3 2a 85 3d a2 b8 25 3d f4 28 a2 bb
       0.1135273 0.06502309 0.040459283 -0.0049487296
000100 b2 74 22 3d 3b cb ae bd f4 68 c8 bd 0a 34 64 bd
       0.03966207 -0.08534857 -0.09785643 -0.05571369
000110 94 3a cc bd f2 dd 04 3c 00 c2 37 bb 0b 22 8e 3d
       -0.099721104 0.0081095565 -0.0028039217 0.06940087
000120 2b e0 f3 3c b6 41 a9 3d bc e6 2c 3d f0 6f b8 3d
       0.029769978 0.082644865 0.042212233 0.090057254
000130 6d ac b9 3d 94 5a bb bc 10 fb cb 3d d5 47 92 bd
       0.09066091 -0.02287034 0.09959996 -0.07142607
000140 39 fb af 3d 38 39 ba bd 83 a0 96 3d 82 b4 e1 3d
       0.08592839 -0.09092945 0.07354834 0.11020757
000150 d7 c0 09 3d ed d5 40 bd 0b ff 05 bd 04 7c d3 3d
       0.033631172 -0.047079016 -0.03271393 0.103263885
000160 22 a8 08 3d e4 da c5 bd 7e 74 d2 bd cb 77 63 3c
       0.03336347 -0.09660891 -0.10276125 0.013883541
000170 90 45 cb 3c bc a5 29 bd 4c 4f 37 bd 0a dc 4d 3c
       0.024813443 -0.041417822 -0.044753358 0.012564668
000180 20 d1 dc 3b d0 29 16 3d 3f a7 38 3d da 2c 28 bb
       0.006738797 0.03666097 0.045081373 -0.00256615
000190 8a 52 bc bd 10 6f 4e 3d c2 fc 60 3b 6a 02 bb bd
       -0.091954306 0.050398886 0.0034330343 -0.0913132
0001a0 46 84 65 3d c0 6b 3b bd 2b 3a f4 bc c3 f0 8a bc
       0.05603435 -0.045757055 -0.029812893 -0.016960507
0001b0 ed 2d 1e 3d 6a 42 71 bd f1 8e 95 3d 82 67 21 3d
       0.038618017 -0.058901228 0.073026545 0.039405353
0001c0 d3 da 01 bd d0 13 de bc 2c 00 cb 3d c4 64 cb 3d
       -0.031702828 -0.027109057 0.09912142 0.09931329
0001d0 f8 7e ab 3d 8c 09 c7 bc 0b f6 a3 bd 39 f5 8f 3d
       0.08373827 -0.024296544 -0.08005913 0.070291944
0001e0 e3 8d 97 3c b6 1a 9f bd f6 06 9f bc 51 42 48 3d
       0.018500274 -0.077687666 -0.019412499 0.04889137
0001f0 f1 ad 89 3d 82 b9 c8 bd c7 8d 9d 3c b9 63 99 bd
       0.0672263 -0.09801008 0.019232644 -0.07489724
000200 93 18 6f 3d 67 7c 31 3d c8 9e e6 3d 49 c1 91 3d
       0.058373045 0.04333153 0.11260754 0.07116944
000210 14 f1 38 bd fd 85 39 3d 3d 13 0d bd 4e 60 29 bd
       -0.045151785 0.045293797 -0.034442175 -0.04135161
000220 d6 0d 3e bd cf 71 a6 bb 70 45 3c 3c 6e e7 03 3d
       -0.046399914 -0.005079485 0.011491165 0.03220313
000230 16 aa 52 3d ce 85 20 bd 31 a7 0d ba e9 ea c6 3c
       0.051431738 -0.039190106 -0.00054036366 0.024281936
000240 0a 23 0d bd aa 42 99 3d 81 93 5d 3d a2 ff c4 bd
       -0.034457244 0.07483418 0.05409575 -0.096190706
000250 9c d5 a7 3d 9f 71 90 3d 82 39 5d bc 91 23 c1 3d
       0.0819504 0.070529215 -0.01350248 0.09430612
000260 36 fb 2a bd f3 59 6e bb ca 58 15 3d 5b a7 8a bd
       -0.04174348 -0.0036369532 0.03646163 -0.06770202
000270 e6 2c 7e 3b dc 06 84 bd 4a 63 98 3c a0 3b 5f 3d
       0.0038784086 -0.06446621 0.018602032 0.054500222
000280 87 81 41 bd c8 34 e0 3d ea fa 30 bd b8 e2 45 3b
       -0.047242668 0.10947567 -0.04320804 0.003019495
000290 ef 7b a3 3c a6 3a 3a bd e4 30 0e bd 7a f9 83 3d
       0.019956557 -0.045466088 -0.034714594 0.06444068
0002a0 ca ea ba 3d ec 6f 91 bd 1b a6 8a 3d 9e b4 98 3d
       0.09126814 -0.071014255 0.06769963 0.07456325
0002b0 9b 46 76 3d b1 eb bb bd cb 21 b2 bc 31 17 86 3d
       0.06012593 -0.09175814 -0.02174463 0.06547392
0002c0 e0 8d 1c bd a8 7a 35 bd e7 6b 3f 3b 48 7d 9f bc
       -0.03822124 -0.044306427 0.0029208602 -0.019468918
0002d0 05 59 07 3c 9d e0 b5 bd b5 0b b8 bc 9e 2e 5e bd
       0.00826097 -0.08880732 -0.02246652 -0.054243676
0002e0 fd 25 ab bd 18 bc 95 3c 0d 2a 85 bc 1c 7d 9e bd
       -0.08356855 0.018278167 -0.016255403 -0.077387065
0002f0 c8 8d 2c bd 0b 6d 2f bd b2 0e bc 3c ef 09 88 3d
       -0.0421274 -0.0428286 0.022956226 0.0664252
000300 4f 72 bc bd 78 29 ca 3d 80 b6 89 3d cd 81 ac bd
       -0.0920149 0.09871191 0.06724262 -0.08423195
000310 d7 16 7f bd 3f d8 48 3d 3d 0d e4 3c 7f d9 e7 3d
       -0.06227764 0.049034353 0.027838344 0.11320781
000320 26 70 c7 bc 4d b0 bb bd 6e 80 8d bd 1f f9 70 3d
       -0.024345469 -0.09164486 -0.06909262 0.05883133
000330 15 bf a6 bd 44 b7 9c 3c f9 7e 91 bd b0 5e 06 bc
       -0.08141915 0.019130357 -0.07104296 -0.008201286
000340 bd 33 33 3d a9 56 99 bd e9 ec d8 3d 52 79 54 3d
       0.043750513 -0.07487232 0.10592062 0.051873513
000350 a8 08 3b bc bd d9 a3 bd e6 5e da 3c 28 98 0d bd
       -0.011415638 -0.08000515 0.02665658 -0.034568936
000360 6b c9 a2 3c a4 60 fe 3c 44 f4 6f 3d be 72 81 3d
       0.019871434 0.031051941 0.05858256 0.063207135
000370 79 14 c6 3d 50 e4 3a 3d 0c 9b 39 3d 00 7d 00 ba
       0.096718736 0.045627892 0.04531388 -0.0004901439
000380 a5 f5 80 bd f8 be ca bd 90 aa 9a bd 1e 80 a0 bd
       -0.06296853 -0.09899706 -0.075520635 -0.078369364
000390 57 6c d7 3c a9 47 84 bd 8a 61 93 3d 0a 8b 45 3d
       0.026296778 -0.064589806 0.071963385 0.0482283
0003a0 06 aa 51 bd 74 59 4b bd c0 70 7e bd 73 fb 1a bc
       -0.051187538 -0.049645856 -0.062119246 -0.009459364
0003b0 52 0b 11 3d e2 b3 9b bd ae b5 2c bd 20 f3 b3 3b
       0.035411187 -0.07602669 -0.04216545 0.0054916292
0003c0 a5 07 5b bd 36 91 53 3d 4d 3f 90 3c 45 e9 96 bd
       -0.053474087 0.051652156 0.01760831 -0.073687114
0003d0 eb ba c0 bd 06 f7 33 bd 51 48 88 3d 00 3e fb 39
       -0.09410652 -0.04393675 0.06654418 0.00047920644
0003e0 cd 8d 98 bd cd 76 80 bd d1 cb a4 3d 39 a9 6b bc
       -0.07448921 -0.062726595 0.080466874 -0.014383608
0003f0 1c f5 94 bd d4 16 0d bd 16 0e 05 bd 99 e1 4c 3c
       -0.072733134 -0.0344456 -0.032484137 0.012504959

layer_4.bias f4 [100]
000000 8b 39 55 3d 4d d3 99 3d f4 9d b0 bc c8 ab 3b 3b
       0.05205683 0.075110056 -0.021559693 0.0028636325
000010 c9 60 01 bd 7f 93 6b 3b 9b 2b a1 3d 33 cb b0 3d
       -0.031586442 0.0035946069 0.07869645 0.08632507
000020 a0 c6 96 bd 55 80 87 3d 51 8a 80 bd d8 82 5e 3c
       -0.073621035 0.06616274 -0.06276382 0.013581
000030 52 74 ca 3d 81 db bf 3d e4 ab 71 bd ef fe be 3b
       0.098854676 0.09368039 -0.05900182 0.0058287303
000040 90 e8 cc bc f1 b0 aa bd f6 6a d6 3d 16 2a 41 bc
       -0.025013238 -0.0833453 0.1046962 -0.011789819
000050 a9 d1 c3 3c 47 97 42 bc 8a f7 13 bd 58 bc a1 bd
       0.023903685 -0.011876888 -0.036124744 -0.07897252
000060 f7 c2 8f bc 3b 95 2b bc e0 24 b6 3d 40 24 7b bd
       -0.017549021 -0.010472591 0.08893752 -0.061313868
000070 b4 80 9c 3c e9 a6 d3 3d f4 25 5e 3c c4 17 8e bc
       0.01910434 0.1033457 0.013558853 -0.017345317
000080 ee 67 a0 bd eb 39 c3 bb f7 8b 8d 3d d4 26 78 bc
       -0.07832323 -0.005957832 0.06911462 -0.015145976
000090 8a 29 ae 3d a4 91 33 bd af dd be bd d9 21 aa 3c
       0.08504017 -0.043840066 -0.093196265 0.020768093
0000a0 29 15 c2 bd 32 f9 fd bc ee 03 10 bb 54 f3 a2 3d
       -0.09476692 -0.031002615 -0.0021974999 0.079565674
0000b0 cd 79 2d 3d f3 b3 d7 bc 4f 19 99 bd 23 d0 ba 39
       0.042352486 -0.026330924 -0.0747553 0.00035631759
0000c0 19 4f b8 3d 06 9a 90 bd ea f9 b1 bd 1b 03 b2 3d
       0.08999462 -0.07060628 -0.086902454 0.086919986
0000d0 26 31 35 3d e3 0d b0 bd 2d 80 c9 bd 62 ef 27 3d
       0.044236325 -0.08596399 -0.09838901 0.040999778
0000e0 66 82 16 bd 6b b4 54 3d 33 11 63 bc c1 7a 75 3d
       -0.03674545 0.051929872 -0.013859081 0.05993152
0000f0 05 99 22 bd 50 87 ae 3d 77 9c 37 3c d6 89 b5 bb
       -0.039696712 0.085219026 0.011206738 -0.005540113
000100 1e 0c 2e 3d c4 e0 e8 3c 02 56 a6 bd cc 22 4c 3c
       0.042492025 0.02842749 -0.081218734 0.012459468
000110 92 93 9c bd b8 00 18 3d f3 c1 b1 bb 2b 6f ba 3c
       -0.07645334 0.03711006 -0.005424732 0.022758087
000120 4c dd 4b bd 7e e5 90 bd 5e c6 cd bd 44 68 34 3d
       -0.049771592 -0.07075022 -0.10047601 0.044044748
000130 99 58 a1 3d 79 55 9a 3b 00 20 9a b7 fd 2a a4 bc
       0.07878227 0.004709896 -1.8373132e-05 -0.02004003
000140 94 41 9e 3c 0c a5 9c 3c 92 4f 61 bd 27 c9 2f bd
       0.01931838 0.01912167 -0.055007525 -0.042916443
000150 c4 d6 f6 3b 97 60 57 bd 56 04 95 bb 97 ae 1d bd
       0.0075329263 -0.05258235 -0.004547636 -0.03849658
000160 1d f3 8a 3d 13 da 97 bc 5a f4 a5 3d 01 f7 1d 3d
       0.067846514 -0.018536603 0.08103247 0.03856564
000170 14 01 91 3d c0 9b b2 bd 5f 50 5c bd e2 c5 c1 bc
       0.07080284 -0.08721113 -0.053787585 -0.023653928
000180 9f f6 9d bd 8f 15 97 bd 7c 4b f2 bc 8b 26 af bc
       -0.07713055 -0.07377159 -0.02957701 -0.021380683

output_layer.weight f4 [1, 100]
000000 a5 49 f4 bc 2c c3 4f 3d 37 e4 ad bd 19 3c 27 bc
       -0.029820273 0.05072324 -0.08490794 -0.0102071995
000010 ed 06 99 bd 55 a0 5c bd 23 e4 75 3d 0a 22 74 3d
       -0.07472024 -0.053863842 0.06003202 0.059602775
000020 fb 2a 66 3d e4 3c 45 bd ff 5b 1b bd fe 87 c1 bd
       0.056193333 -0.048153773 -0.03792953 -0.094497666
000030 b2 25 cd bd 06 cb c2 bd f9 69 80 bd e3 c9 d8 bb
       -0.100169554 -0.0951138 -0.06270213 -0.0066158636
000040 41 8c 65 3d e2 a8 9e bd 8d 35 83 3d 67 14 d2 bd
       0.05604196 -0.077470556 0.064066984 -0.10257798
000050 ed 33 6c bd fb 93 1e bd 25 f2 c3 3d f8 c2 bf bd
       -0.057666708 -0.038715344 0.0956767 -0.09363359
000060 df 02 81 bd 92 f5 32 3d da 78 d9 3d 0a a2 5e bd
       -0.06299376 0.043691225 0.10618754 -0.05435375
000070 7e ac 8b 3d a2 98 da 3d dd e6 7b 3c 10 7b d6 3d
       0.0682001 0.10673644 0.015374866 0.10472691
000080 88 08 d6 3d 68 2c b0 3d 2a 99 18 bd e6 e9 42 bd
       0.10450846 0.0860222 -0.037255444 -0.047586344
000090 8c d8 4a bd a0 5d 19 bd 7a c4 d3 bc 6d bc e2 bd
       -0.04952292 -0.037442803 -0.025850523 -0.110710956
0000a0 5d 3d e4 bc 7a 43 47 bd cc 9e d0 bd ec 16 97 3d
       -0.027861292 -0.048648335 -0.10186538 0.07377419
0000b0 ee 51 22 bd 9f 41 de 3d a2 93 f8 bc 18 0e 8a 3d
       -0.039628915 0.1085236 -0.030343834 0.067409694
0000c0 f6 84 d6 bc 9c b7 41 3d 4c 82 c2 3d 99 34 18 3d
       -0.026186448 0.047294244 0.094975084 0.037159536
0000d0 fe 21 8a 3d 47 70 31 3c 1a d1 80 3d 5b 32 aa 3d
       0.06744765 0.010829992 0.06289883 0.08310386
0000e0 ea a6 9a bd 99 8c d6 3d 4b b4 c4 3c f6 92 6a 3c
       -0.075513676 0.104760356 0.024011752 0.014317265
0000f0 cb 5b 33 3d 3c 10 cd 3b 96 a3 19 3d ea 16 7a 3d
       0.043788712 0.006258039 0.037509523 0.06105701
000100 0c 97 da 3d af 12 e2 3d 70 86 81 bd 1b 53 45 3c
       0.10673341 0.1103872 -0.0632447 0.01204374
000110 d5 b1 0b 3d 0d 7c c7 3d dc ac 96 bd 6f f9 1b 3c
       0.03410514 0.09740458 -0.07357189 0.009519919
000120 23 75 8e bc 6e e4 c5 bd 09 bd a1 3b ad 11 45 bd
       -0.01738984 -0.0966271 0.004935865 -0.04811256
000130 4e 0f cc bd 9e 3b da bd d3 71 5f bd f9 0d b0 3d
       -0.09963857 -0.10655902 -0.05455191 0.08596415
000140 d5 e2 b0 3c fe da ed bd 9e 05 32 bd 04 ea 74 3d
       0.021592537 -0.11614035 -0.04346239 0.059793487
000150 4b c5 03 3d 22 bb 52 3d c3 4b 07 bd e1 a1 d0 bd
       0.032170575 0.051447995 -0.033031236 -0.10187126
000160 d1 89 97 bd a9 c6 8e 3d 8c 14 4e bd 9f ce 93 bd
       -0.07399333 0.06971485 -0.050312564 -0.07217144
000170 fc 59 bf bd e5 8b 9d 3c 6f 5b 1b 3d b4 9d d9 bc
       -0.09343335 0.019231746 0.037928995 -0.026564457
000180 e1 93 1c bd 85 7d 30 bd 2e b3 d8 3d ae e7 68 3d
       -0.038226966 -0.043088455 0.10581051 0.056861572
