weights/3_3_3_X/1_1_5.pth (torch_old, 14809 bytes, 5 tensors)

layer_1.weight f4 [50, 16]
0.17342609 0.07857782 -0.20149624 0.19450668 -0.0033924878 -0.118048996 -0.2433728 -0.020193905
0.048969984 0.07150051 0.1926634 -0.103256345 0.2267892 -0.014788002 0.13601533 -0.2302711
-0.08813298 0.005343795 0.2484197 -0.06059131 -0.20731649 -0.062002778 -0.12916094 -0.046606928
0.023073792 0.14704281 -0.21671739 -0.18642032 0.038761854 0.10205272 -0.10834366 -0.19621247
0.09549871 0.08441156 0.21113655 -0.14920619 -0.0922201 0.1622926 -0.12825546 0.16673803
0.22145039 0.170975 -0.05460006 -0.03244534 -0.19699669 -0.07434744 0.11465058 -0.24245793
0.1258435 0.114081234 0.09550312 -0.13898903 0.1038374 -0.0029734075 -0.11767098 0.18426159
-0.16806364 -0.19927353 -0.21428025 0.22297361 -0.20232537 -0.15300384 0.20625412 0.11661965
-0.025109202 -0.19716796 -0.21604136 -0.20798093 0.10918662 0.16136295 0.1596545 0.1872181
0.18356958 -0.040730655 -0.009993166 0.06002325 -0.007160604 0.1925061 0.20333213 -0.009401083
0.10018015 -0.017698407 -0.14419046 0.11479324 0.07714707 0.06055224 -0.14645311 -0.22112834
-0.13123119 0.23031536 -0.120827526 0.12691504 0.003712833 -0.035349727 -0.1867978 0.074646235
0.0210841 0.07707301 -0.020740986 0.22538272 0.011771262 0.13475215 -0.23227862 0.22667935
0.17035922 0.013497353 -0.2007831 -0.055411458 0.025334984 -0.16044027 0.14620337 0.18353081
0.144519 -0.16303626 0.053963125 0.09870741 -0.19411051 -0.09943825 0.06818849 0.23859721
0.09647879 -0.16671607 -0.11679655 0.15396798 0.2172983 0.19684339 -0.10542899 -0.10236484
-0.10656372 0.14776409 -0.02736324 0.17867532 0.24294624 -0.018749565 0.07002962 0.11866218
-0.11950296 0.036098838 0.18139052 0.17600715 0.13355353 0.08177638 0.17244413 0.08384544
-0.15629426 -0.10689637 0.13869217 -0.21572602 -0.042442143 0.107476175 0.14139977 -0.07512951
-0.11887124 -0.04982546 -0.001414597 0.09748572 0.19950688 -0.033862174 -0.20990428 0.14642856
-0.22866571 0.12179306 -0.17585826 -0.06920934 -0.08560538 -0.07396981 -0.0070819557 0.054575384
0.24581248 -0.046430945 0.06863698 0.15709814 0.055164993 -0.112452656 -0.10788211 0.10959402
-0.22691825 0.041634858 0.044118106 0.17459121 -0.019198835 0.20328215 -0.03139019 -0.16184404
-0.16416168 0.08050895 -0.11233702 -0.2225475 0.2403098 0.2423332 -0.057558477 0.070744365
-0.0068647563 0.09565219 0.16528016 -0.14070049 -0.072049916 0.13136676 -0.08398816 -0.02012667
0.027874053 0.0385018 -0.20134023 -0.06391603 0.18033808 0.018925399 -0.067849934 -0.0034050941
0.16366732 -0.1544554 -0.035782307 -0.23036718 -0.07116714 0.09358513 -0.0533621 0.18367362
0.22196981 0.16473383 0.12016633 -0.24608436 -0.074551195 0.22945362 0.025246829 0.16807795
0.24938679 -0.044967115 -0.030619442 -0.18756357 -0.018528521 -0.24381381 -0.03398499 0.0064187646
-0.20979825 -0.11647627 0.123191744 0.17250156 0.048210412 0.2311522 0.23957798 0.067424774
-0.23534346 -0.14514181 0.119693875 -0.08745882 0.120731354 -0.21454623 -0.17184266 -0.041017145
-0.05254215 -0.017800987 -0.19050872 -0.15698794 -0.224632 0.10312948 0.024858773 -0.22349289
00000000: 9c96 313e 68ed a03d 0855 4ebe c22c 473e
00000010: 8054 5ebb acc3 f1bd b836 79be b06d a5bc
00000020: c094 483d dc6e 923d 8e49 453e 1078 d3bd
00000030: 6e3b 683e 6049 72bc 9a47 0b3e 30cc 6bbe
00000040: 107f b4bd 001b af3b bc61 7e3e 982e 78bd
00000050: c64a 54be a0f6 7dbd c442 04be e8e6 3ebd
00000060: 4005 bd3c 6492 163e 2aeb 5dbe f8e4 3ebe
00000070: c0c4 1e3d 0401 d13d 48e3 ddbd eceb 48be
00000080: d494 c33d f8df ac3d 2e34 583e 82c9 18be
00000090: e4dd bcbd 0830 263e 6655 03be 60bd 2a3e
000000a0: e4c3 623e 1214 2f3e 50a4 5fbd 68e5 04bd
000000b0: 80b9 49be 7843 98bd eccd ea3d e446 78be
000000c0: 1edd 003e 6ca3 e93d 2497 c33d 2453 0ebe
000000d0: b4a8 d43d 80dd 42bb 7cfd f0bd 12af 3c3e
000000e0: e018 2cbe 5c0e 4cbe 486c 5bbe 3253 643e
000000f0: 622e 4fbe 0aad 1cbe 4834 533e 48d6 ee3d
00000100: d0b1 cdbc 66e6 49be f239 5dbe f4f8 54be
00000110: 3c9d df3d 543c 253e 787c 233e 1ab6 3f3e
00000120: aaf9 3b3e 30d5 26bd 60ba 23bc f0da 753d
00000130: 80a3 eabb 5220 453e 4c36 503e 0007 1abc
00000140: 402b cd3d 40fc 90bc aaa6 13be b818 eb3d
00000150: 48ff 9d3d a005 783d cef7 15be 786f 62be
00000160: 7861 06be cad7 6b3e 6c74 f7bd 04f6 013e
00000170: 0053 733b e0ca 10bd ec47 3fbe 20e0 983d
00000180: 90b8 ac3c 74d8 9d3d 00e9 a9bc baca 663e
00000190: 40dc 403c 78fc 093e 72da 6dbe a21e 683e
000001a0: a672 2e3e 0024 5d3c 169a 4dbe 20f7 62bd
000001b0: 508b cf3c 744a 24be 56b6 153e 80ef 3b3e
000001c0: cafc 133e faf2 26be 7008 5d3d 1c27 ca3d
000001d0: e8c4 46be 48a6 cbbd 68a6 8b3d d452 743e
000001e0: ac96 c53d 9eb7 2abe 0833 efbd c8a9 1d3e
000001f0: 7283 5e3e 5091 493e 28eb d7bd a8a4 d1bd
00000200: 143e dabd 784f 173e e028 e0bc aaf6 363e
00000210: e6c6 783e b098 99bc b06b 8f3d 2805 f33d
00000220: f8bd f4bd 60dc 133d 70be 393e 383b 343e
00000230: 42c2 083e 607a a73d 3295 303e 28b7 ab3d
00000240: 9a0b 20be 7cec dabd 5205 0e3e 48e7 5cbe
00000250: d0d7 2dbd 781c dc3d 1acb 103e 80dd 99bd
00000260: c472 f3bd c815 4cbd 006a b9ba 98a6 c73d
00000270: 884b 4c3e 10b3 0abd 26f1 56be 5ef1 153e
00000280: 5827 6abe a46e f93d 3014 34be a0bd 8dbd
00000290: e051 afbd 7c7d 97bd c00f e8bb 708a 5f3d
000002a0: 44b6 7b3e 602e 3ebd 8c91 8c3d 56de 203e
000002b0: b0f4 613d 944d e6bd 4cf1 dcbd d472 e03d
000002c0: 425d 68be 5089 2a3d 30b5 343d 0ac8 323e
000002d0: e046 9dbc 3229 503e 0093 00bd 72ba 25be
000002e0: 001a 28be e0e1 a43d f410 e6bd 7ee3 63be
000002f0: c613 763e 3226 783e 70c2 6bbd 6ce2 903d
00000300: c0f1 e0bb 4ce5 c33d 343f 293e ca13 10be
00000310: e88e 93bd 0285 063e fc01 acbd b0e0 a4bc
00000320: 2058 e43c 10b4 1d3d 222c 4ebe 68e6 82bd
00000330: 8caa 383e 7009 9b3c e8f4 8abd 0028 5fbb
00000340: 6898 273e 8e29 1ebe 7890 12bd 60e5 6bbe
00000350: 14c0 91bd 90a9 bf3d 3892 5abd f014 3c3e
00000360: 0e4c 633e fcaf 283e c419 f63d 8afd 7bbe
00000370: 4cae 98bd e4f5 6a3e 70d2 ce3c a01c 2c3e
00000380: 405f 7f3e 702f 38bd a0d5 fabc aa10 40be
00000390: 20c9 97bc 54aa 79be d833 0bbd 8054 d23b
000003a0: 5ad5 56be 1c8b eebd f44b fc3d 40a4 303e
000003b0: 4878 453d 2ab3 6c3e ee53 753e 0016 8a3d
000003c0: e0fd 70be 0ea0 14be 1022 f53d 9c1d b3bd
000003d0: 0042 f73d 02b2 5bbe 86f7 2fbe 9801 28bd
000003e0: 7036 57bd 60d3 91bc b814 43be 72c1 20be
000003f0: ee05 66be 8c35 d33d a0a4 cb3c 52db 64be

layer_1.bias f4 [50]
-0.045855075 0.09907305 -0.0033361614 0.12740007 -0.123487115 -0.2471756 -0.17813993 -0.06160614
-0.20238623 -0.060892105 0.078772664 0.23754424 -0.06344211 -0.07888195 -0.069449544 0.024053305
-0.15911701 0.22184211 -0.06865376 -0.018447101 0.07970828 0.00042828918 0.07267898 0.057250768
0.20613751 0.20982054 -0.057082176 0.17136961 -0.23409638 -0.096028 0.23872542 -0.059758127
-0.13084784 0.020165116 -0.0027817488 0.08099255 -0.029966831 0.09412736 -0.21441078 0.022675365
0.060692728 -0.020090342 -0.014632463 -0.10905787 0.04428476 0.21623558 0.020297438 0.07572979
0.09878561 -0.1872313
00000000: 88d2 3bbd d0e6 ca3d 80a3 5abb 2a75 023e
00000010: d0e6 fcbd 9a1b 7dbe 506a 36be b856 7cbd
00000020: 563e 4fbe 006a 79bd 9053 a13d cc3e 733e
00000030: f0ed 81bd dc8c a1bd 903b 8ebd 700b c53c
00000040: 92ef 22be 942a 633e 589a 8cbd 601e 97bc
00000050: 183e a33d 008c e039 b8d8 943d c87f 6a3d
00000060: b615 533e 32db 563e 00cf 69bd 847b 2f3e
00000070: f6b6 6fbe 54aa c4bd 7074 743e f0c4 74bd
00000080: fafc 05be 5031 a53c 004e 36bb 6cdf a53d
00000090: 007d f5bc d8c5 c03d 808e 5bbe b0c1 b93c
000000a0: f098 783d 8094 a4bc 00bd 6fbc bc59 dfbd
000000b0: f063 353d dc6c 5d3e d046 a63c 3818 9b3d
000000c0: 1c50 ca3d 90b9 3fbe

layer_2.weight f4 [50, 50]
0.02061987 -0.12658675 0.026605204 0.07327753 -0.023615047 -0.12680191 0.09750119 -0.08987926
0.038385898 0.11457147 0.1083809 -0.04748778 0.038731962 0.015001997 -0.052556597 0.0047968626
0.045038104 -0.042275198 -0.110624254 -0.13794689 -0.05307386 -0.054145098 -0.042163655 -0.124952495
-0.060332663 -0.008954167 -0.04029613 -0.0050348192 0.11894585 -0.06238909 -0.009920731 0.13436456
0.11451368 -0.019529164 -0.12523048 0.097717166 0.091471195 -0.007428974 -0.13304278 0.06205699
-0.115153655 0.06062071 -0.024510317 0.09188709 0.05825138 -0.017362125 -0.07321117 -0.083656274
-0.075572826 -0.14047877 -0.10087943 -0.09108811 -0.050755464 -0.10376701 -0.12441531 0.038742602
0.051711425 -0.007010281 0.0913883 -0.013054609 -0.011528596 0.08425607 0.029290155 0.10427338
0.06257956 -0.048563287 -0.035700053 0.0917989 0.057292596 0.07550639 -0.07500197 0.07980698
-0.036493927 0.06827557 -0.04375922 0.13530953 0.080608934 0.013272926 0.08879602 0.09967223
-0.08276274 -0.09665781 0.0495591 -0.00093370676 -0.013884753 -0.010405093 -0.061280124 -0.07719253
-0.01952067 -0.0047756582 0.10860033 -0.084584884 0.014334977 -0.11584173 0.02733311 -0.037044384
0.072132215 0.062828496 0.1406156 0.023009807 0.13252987 -0.11561616 -0.11420109 0.055655435
0.13311638 -0.019135363 -0.10498969 0.023351416 -0.10197471 0.13115557 -0.10410412 -0.1413858
0.13797371 -0.030414328 0.00935629 -0.028539538 -0.031639032 -0.048151493 0.028333485 0.13004737
-0.07126149 0.058915555 0.10854654 0.07084297 0.06877686 0.014347598 -0.08497891 0.04661575
0.13867022 0.054363847 -0.14129277 0.117199406 -0.07786693 0.022669867 0.002928242 0.049991086
0.12382455 -0.1007275 -0.04454425 0.0513663 0.035397053 0.11590557 -0.03705976 -0.010697275
0.062641025 -0.08884259 -0.010128781 -0.08595788 -0.0041027367 0.03500694 0.111164555 -0.0527659
-0.10021083 -0.00068742037 0.014303893 0.09510836 -0.0829943 0.087758765 0.051169887 -0.13591085
-0.04345344 0.05369629 0.09779039 0.1303399 -0.08882432 0.03741087 0.07931575 0.007926047
-0.040647097 0.0728364 -0.043752357 0.00046037138 0.14005987 -0.12829927 0.09001778 0.0021793842
-0.07301781 0.022150278 0.09994838 0.10772851 -0.044223458 -0.098793685 0.058438078 -0.0056717247
0.06324044 -0.14123204 0.08739053 0.041091576 -0.13451841 -0.002602622 0.03358856 -0.09391097
0.12691702 0.09454103 -0.084407665 -0.064358324 0.06485562 0.010784492 -0.08407307 0.03632322
-0.06851841 -0.03716287 0.12081723 0.072531596 0.089650646 0.026863962 0.04398313 -0.09813287
0.09529348 0.13605429 0.040287077 -0.11184786 0.048144326 -0.07263256 0.077129826 -0.011441916
-0.08744772 0.00396809 -0.080768704 -0.031336844 -0.122400336 0.045714423 -0.04777337 0.0024892837
-0.13776955 -0.13973476 -0.04055555 -0.12124855 -0.0063508004 0.011304587 -0.091915235 -0.12716608
-0.13017033 0.012676269 -0.09663243 0.016606241 0.09219101 0.063591436 0.116904214 -0.09292268
0.1019443 0.08383483 -0.061446637 -0.13522752 0.06905268 -0.10894735 0.009516016 -0.029700108
-0.06640531 -0.073311836 -0.06172981 0.025379077 -0.08643982 0.04288158 0.09638652 0.07721378
00000000: 00eb a83c f59f 01be 28f3 d93c 8812 963d
00000010: 5874 c1bc 5cd8 01be b4ae c73d 9e12 b8bd
00000020: 883a 1d3d 72a4 ea3d cef6 dd3d 8c82 42bd
00000030: 68a5 1e3d f0ca 753c 9645 57bd 002f 9d3b
00000040: e079 383d c228 2dbd f88e e2bd f341 0dbe
00000050: fa63 59bd 40c7 5dbd ccb3 2cbd 18e7 ffbd
00000060: 621f 77bd 80b4 12bc 8e0d 25bd 20fb a4bb
00000070: e299 f33d b48b 7fbd 908a 22bc dd96 093e
00000080: 2686 ea3d a0fb 9fbc 6b3c 00be f01f c83d
00000090: 4055 bb3d c06e f3bb 5e3c 08be 782f 7e3d
000000a0: aed5 ebbd 6c4d 783d dcc9 c8bc 4c2f bc3d
000000b0: 0099 6e3d 043b 8ebc bdef 95bd fb53 abbd
000000c0: edc5 9abd abd9 0fbe e099 cebd 678c babd
000000d0: f6e4 4fbd cc83 d4bd 74cd febd 90b0 1e3d
000000e0: 5ccf 533d 80b6 e5bb ca29 bb3d 00e3 55bc
000000f0: 70e2 3cbc 728e ac3d e8f1 ef3c 488d d53d
00000100: b629 803d 4cea 46bd 383a 12bd 1001 bc3d
00000110: a4ab 6a3d 18a3 9a3d a29a 99bd d871 a33d
00000120: a87a 15bd 10d4 8b3d de3c 33bd 958e 0a3e
00000130: 4c16 a53d b076 593c b0da b53d f420 cc3d
00000140: 837f a9bd 88f4 c5bd 7cfe 4a3d 00c4 74ba
00000150: e07c 63bc 207a 2abc de00 7bbd 1e17 9ebd
00000160: d0e9 9fbc 207d 9cbb da69 de3d d73a adbd
00000170: 40dd 6a3c 6e3e edbd b0e9 df3c dabb 17bd
00000180: 0eba 933d 3aac 803d 89fd 0f3e 107f bc3c
00000190: e9b5 073e 2ac8 ecbd 43e2 e9bd f4f6 633d
000001a0: a94f 083e c4c1 9cbc d604 d7bd 784b bf3c
000001b0: 1ed8 d0bd a54d 063e 8a34 d5bd 70c7 10be
000001c0: fb48 0d3e 7827 f9bc 204b 193c c0cb e9bc
000001d0: ee97 01bd 803a 45bd a01b e83c 232b 053e
000001e0: 8bf1 91bd 7051 713d a64d de3d 1e16 913d
000001f0: e2da 8c3d 3012 6b3c 6c09 aebd 28f0 3e3d
00000200: 91ff 0d3e a0ac 5e3d 0daf 10be 3e06 f03d
00000210: b278 9fbd 28b6 b93c c0e7 3f3b 74c3 4c3d
00000220: ba97 fd3d 384a cebd 0874 36bd 7865 523d
00000230: 80fc 103d e65f ed3d facb 17bd a043 2fbc
00000240: f049 803d 1bf3 b5bd 30f3 25bc af0a b0bd
00000250: 4070 86bb 7063 0f3d 3eaa e33d 0e21 58bd
00000260: 563b cdbd 0034 34ba e05a 6a3c 2cc8 c23d
00000270: eaf8 a9bd deba b33d 8497 513d 372c 0bbe
00000280: 3cfc 31bd a4f0 5b3d 5446 c83d d377 053e
00000290: 86e9 b5bd 243c 193d 4c70 a23d 40dc 013c
000002a0: 927d 26bd 402b 953d ac35 33bd 005e f139
000002b0: db6b 0f3e e260 03be 3e5b b83d 00d4 0e3b
000002c0: 5d8a 95bd 8074 b53c bcb1 cc3d c4a0 dc3d
000002d0: a823 35bd 5854 cabd c45c 6f3d e0d9 b9bb
000002e0: 3484 813d 229f 10be cef9 b23d a44f 283d
000002f0: 32bf 09be c090 2abb 2894 093d 6554 c0bd
00000300: 89f6 013e ba9e c13d eddd acbd 4cce 83bd
00000310: 06d3 843d 70b1 303c 802e acbd a8c7 143d
00000320: 6153 8cbd 1838 18bd 066f f73d 728b 943d
00000330: c29a b73d d011 dc3c a827 343d e3f9 c8bd
00000340: 3a29 c33d d151 0b3e 1004 253d 7e10 e5bd
00000350: fc32 453d 61c0 94bd 3ef6 9d3d e076 3bbc
00000360: ca17 b3bd c006 823b 106a a5bd 105b 00bd
00000370: 07ad fabd 0c3f 3b3d 02ae 43bd 4023 233b
00000380: 7613 0dbe a116 0fbe 941d 26bd 2951 f8bd
00000390: 601a d0bb e036 393c 0e3e bcbd d337 02be
000003a0: 5f4b 05be 20b0 4f3c 39e7 c5bd d009 883c
000003b0: a4ce bc3d 3a3c 823d 7a6b ef3d 3f4e bebd
000003c0: 2cc8 d03d 98b1 ab3d 78af 7bbd 1579 0abe
000003d0: 7e6b 8d3d ca1f dfbd 10e9 1b3c a44d f3bc
000003e0: 82ff 87bd 8424 96bd 66d8 7cbd c8e7 cf3c
000003f0: 5c07 b1bd 98a4 2f3d 4c66 c53d 4222 9e3d

layer_2.bias f4 [50]
0.08700135 -0.080671504 0.10602304 0.12741624 0.098176986 0.1164269 0.041164413 0.030324936
0.097494796 0.042688012 -0.0010247827 -0.094560534 0.08258468 -0.07175744 0.12962686 -0.12994847
0.051340297 -0.13243343 0.03464009 -0.11668093 -0.09254757 -0.02721911 -0.0021506697 0.02870731
-0.025933884 0.02699554 0.14107727 -0.09704931 0.0860049 0.0968201 -0.12760095 0.027199492
-0.08063282 0.04412003 0.11739056 -0.09268586 0.12484141 0.14000265 0.12292637 0.04188767
-0.04518272 -0.09601877 -0.07209787 0.111774966 0.10549155 -0.0360395 -0.061011143 0.04580079
-0.13369273 -0.10700819
00000000: c42d b23d 1a37 a5bd 9c22 d93d 6779 023e
00000010: 0411 c93d 3a71 ee3d 049c 283d 006c f83c
00000020: 5aab c73d a0d9 2e3d 0052 86ba f4a8 c1bd
00000030: 2822 a93d 91f5 92bd e7bc 043e 3611 05be
00000040: 344a 523d a19c 07be c4e2 0d3d 69f6 eebd
00000050: 9589 bdbd 9cfa debc 40f2 0cbb 982b eb3c
00000060: 4c73 d4bc c025 dd3c 8f76 103e cac1 c6bd
00000070: 5623 b03d 9e49 c63d d3a9 02be 78d1 de3c
00000080: d222 a5bd 34b7 343d 766a f03d 16d2 bdbd
00000090: daac ff3d db5c 0f3e d2c0 fb3d 6892 2b3d
000000a0: 8411 39bd 7da5 c4bd 0ca8 93bd 46ea e43d
000000b0: f40b d83d 289e 13bd d2e6 79bd 9c99 3b3d
000000c0: bfe6 08be 1c27 dbbd

output_layer.weight f4 [1, 50]
-0.09002304 0.13842048 0.046362936 0.050024047 0.06606907 0.04043205 -0.0020439774 -0.097429976
0.0037798285 0.021407977 -0.026175372 0.108214736 0.07981636 0.084171206 -0.14117305 0.03757012
-0.03198885 -0.12668735 -0.08696689 -0.041381076 0.020633936 0.124629036 -0.022784911 0.08145906
-0.021260083 -0.1114829 0.119862124 0.06088482 -0.074147046 -0.0050190836 0.0969014 0.1228808
-0.02891063 -0.101705834 0.07833402 -0.07197891 0.05149059 0.08443385 0.09854363 0.053732976
0.078881964 -0.13393556 0.07745142 -0.080606915 -0.017727017 0.008924738 -0.10773409 0.044129267
-0.090748355 0.006842226
00000000: 005e b8bd 19be 0d3e 10e7 3d3d 04e6 4c3d
00000010: 384f 873d 149c 253d 40f4 05bb 5e89 c7bd
00000020: 00b7 773b c85f af3c bc6d d6bc b09f dd3d
00000030: c276 a33d f461 ac3d ab8f 10be 20e3 193d
00000040: be06 03bd 54ba 01be b21b b2bd 347f 29bd
00000050: 8008 a93c 823d ff3d 6ca7 babc 02d4 a63d
00000060: a029 aebc 2651 e4bd 467a f53d 5c62 793d
00000070: 68da 97bd 2077 a4bb 3e74 c63d eea8 fb3d
00000080: fcd5 ecbc 264b d0bd 966d a03d ae69 93bd
00000090: cce7 523d a8eb ac3d 3ed1 c93d 1c17 5c3d
000000a0: de8c a13d 6726 09be da9e 9e3d 3d15 a5bd
000000b0: 4038 91bc 1039 123c b1a3 dcbd e4c0 343d
000000c0: 46da b9bd c034 e03b
