weights/3_3_3_X/1_1_3.pth (torch_old, 14809 bytes, 5 tensors)

layer_1.weight f4 [50, 16]
000000 7c ff bd bd 70 e0 f6 3d a0 e3 12 3e 24 6a 94 bd
       -0.092772454 0.12054527 0.14344645 -0.07246807
000010 00 47 d7 bc 3c 64 12 3e f8 c2 a0 bd 6c c3 a1 bd
       -0.026278973 0.14296049 -0.07849687 -0.07898602
000020 20 64 f5 bd b2 53 4d be ba 2d 7a be 40 57 8f bd
       -0.11981988 -0.20051458 -0.24431506 -0.069990635
000030 9c a9 18 be 76 1e 11 be bc 62 15 be c0 98 f8 3c
       -0.14908451 -0.14171776 -0.14588445 0.030346274
000040 e2 33 1d be c8 28 8b bd 78 f9 33 3d 28 7c 65 3e
       -0.15351823 -0.06794888 0.043939084 0.22410643
000050 20 11 e2 3c 48 21 ef bd 20 dc e3 bd d8 b5 67 bd
       0.027596056 -0.1167627 -0.1112597 -0.056569904
000060 b0 fd 74 be 8c 23 e9 bd e8 b6 ce bd 48 47 51 3e
       -0.23924899 -0.11383733 -0.1009348 0.20437348
000070 3c f0 c9 bd 44 0d a7 bd 68 e3 b2 bd 9a de 77 3e
       -0.09860274 -0.08156827 -0.087347806 0.2420601
000080 9e 98 2f 3e b0 c8 00 3d 84 5d dc 3d 62 e2 18 3e
       0.17148063 0.03144139 0.10760024 0.14930108
000090 80 8e 34 bc b0 5b f6 3d bc 13 bc bd 10 16 05 bd
       -0.011020303 0.12029207 -0.091834515 -0.032491744
0000a0 98 64 19 be 68 eb 07 3d 14 17 e9 bd 3a 00 09 be
       -0.1497978 0.033183485 -0.11381355 -0.13378993
0000b0 90 2a ef 3d 50 2d 70 3e b0 26 04 be 58 e7 2d 3d
       0.1167804 0.23454785 -0.12905383 0.042456955
0000c0 60 7d 0c bd 70 76 19 3d a2 fc 7c 3e d4 c1 bc 3d
       -0.034299254 0.037466466 0.24705747 0.09216657
0000d0 16 df 04 3e 22 b0 57 be 18 69 20 3e 40 8f 42 bc
       0.12975726 -0.21063283 0.1566509 -0.011874974
0000e0 9e a2 59 3e 0e ad 4f be a0 e5 7b 3d c2 38 52 3e
       0.2125344 -0.20280859 0.061498284 0.20529464
0000f0 c4 45 b1 3d 30 39 bb bd 24 1c c2 bd 08 7a f1 bd
       0.08655885 -0.09141767 -0.09478024 -0.11790854
000100 9c fa f1 3d 9c c9 60 3e cc 40 20 3e 2e 96 78 3e
       0.11815378 0.21951908 0.15649718 0.24276039
000110 f6 ce 3e be 1e b5 5a be 00 7a 1f bc c2 fd 76 3e
       -0.18633637 -0.21358153 -0.009733677 0.24120238
000120 44 92 1d 3e 80 67 78 bc 10 ce 19 bd f2 61 63 3e
       0.15387827 -0.015161395 -0.037550032 0.22205332
000130 d8 87 3e 3d 32 50 6e be 34 0a f7 bd b0 0a 80 3c
       0.04651627 -0.2327278 -0.12062493 0.015630096
000140 30 1a f2 bc 00 76 05 3b 18 29 c4 bd 22 77 7c be
       -0.029553503 0.0020364523 -0.095781505 -0.2465482
000150 06 08 04 3e b6 dc 01 be 0c f9 f5 3d de 08 21 be
       0.12893686 -0.12681851 0.120103925 -0.15726039
000160 9c 12 fc 3d d4 3b 52 3e 94 f2 84 bd 32 e2 0d 3e
       0.12308237 0.20530635 -0.064915806 0.13855818
000170 80 4d ea bb 74 9b fc 3d 38 0b 94 3d 48 6d 95 bd
       -0.007150352 0.12334338 0.07228702 -0.07296234
000180 04 cc 09 3e 0a 8d 6b 3e 40 e8 e1 3b 74 32 f8 3d
       0.13456732 0.23003021 0.0068941414 0.12118998
000190 d0 7a 88 bc 20 e8 65 3c a4 9a 2c 3e 60 62 58 3e
       -0.016660124 0.014032394 0.16855866 0.21131277
0001a0 a8 dc b0 3d e2 eb 40 be 00 91 4b 3d 1c 3e 02 be
       0.08635837 -0.18839982 0.04969883 -0.12719005
0001b0 b8 2b 57 3e c0 00 07 be 00 ef 87 3a 30 27 f7 bd
       0.21012771 -0.1318388 0.001037091 -0.12068021
0001c0 48 e7 f7 3d 62 1d 4a be 9e 37 63 be 08 ce 32 3e
       0.1210466 -0.19737771 -0.22189185 0.17461407
0001d0 c8 eb 5a 3e 50 8a 14 bd b4 ca 39 be 54 39 03 3e
       0.21379006 -0.036264718 -0.18143731 0.12814838
0001e0 c8 70 08 be 46 fc 38 be b8 54 56 be c8 d6 4d 3d
       -0.13324273 -0.18064985 -0.20930755 0.05025366
0001f0 12 ef 60 be 58 04 42 bd fc ee 4b 3e dc 98 16 3e
       -0.21966198 -0.047367424 0.19915384 0.14706749
000200 8c 4d 76 be fc 3b 99 bd c0 c6 3f 3c 6e 1f 4f 3e
       -0.2405302 -0.07482144 0.011705101 0.20226833
000210 f0 95 c1 3d 60 b0 d5 3c d0 83 9e 3d 80 eb e7 3b
       0.094524264 0.026085079 0.07739985 0.0070776343
000220 e8 16 7e 3e d2 30 4a 3e 80 01 7b 3e 40 22 9e bb
       0.24813426 0.19745186 0.24512291 -0.0048258603
000230 38 fc 66 bd e0 83 77 bc 88 47 10 3e a2 85 53 3e
       -0.05639288 -0.015107125 0.14089787 0.20656446
000240 a0 6b 54 be 0c 49 16 3e a4 62 75 3e 36 a1 0c 3e
       -0.2074418 0.14676303 0.2396341 0.13733372
000250 10 9d d5 bd f4 a3 b1 3d 92 74 56 3e 78 64 75 3e
       -0.10430348 0.0867385 0.20942906 0.23964107
000260 40 a6 5b bc 72 22 20 be 94 ff 45 be 88 55 70 3e
       -0.013406336 -0.1563814 -0.19335777 0.23470128
000270 ec 23 d0 bd 80 66 b6 3b 94 fa 69 be cc ce df bd
       -0.101631016 0.005566418 -0.22849494 -0.10928115
000280 10 71 f6 bc 7e 2c 7b 3e 38 1e b8 3d 6c f9 28 be
       -0.03008321 0.24528691 0.08990139 -0.16501397
000290 c6 09 79 be ec 4b 17 3e 5c 44 60 be 34 f4 b0 bd
       -0.24320135 0.14775056 -0.21901077 -0.08640328
0002a0 04 6a 06 be 98 bb 36 be 72 55 45 3e ba af 64 be
       -0.13126379 -0.17844999 0.19270876 -0.2233266
0002b0 94 87 52 be a4 71 39 be 24 7a 41 3e 96 1c 09 3e
       -0.20559531 -0.18109757 0.18894249 0.13389811
0002c0 1e e2 00 3e 04 e7 e8 bd e8 6c 57 be 20 0c 28 bd
       0.12586257 -0.11372188 -0.21037638 -0.04102719
0002d0 2e 81 5f be 88 11 18 be 50 9a 9d bc 56 81 14 3e
       -0.21826622 -0.14850438 -0.019238621 0.14502463
0002e0 10 d4 ce 3d 18 43 43 3e a0 86 d4 bd 7e d1 61 3e
       0.100990415 0.19068563 -0.1037724 0.22052571
0002f0 da 01 30 be 30 af 0a be 6a d9 6b 3e 34 64 c6 3d
       -0.17188206 -0.13543391 0.23032156 0.09687081
000300 14 04 31 3e 88 cb c0 bd 3e 1b 67 be bc d6 79 be
       0.17286712 -0.094138205 -0.22568986 -0.24398321
000310 c0 25 3e 3e 54 6a 33 3e 50 f8 2d 3d 50 be ff 3d
       0.18569088 0.1752103 0.042473137 0.12487471
000320 8a 65 3a be d4 ed d0 3d 18 4c 31 bd 00 24 83 3c
       -0.18202797 0.10201612 -0.04328546 0.016008377
000330 24 17 46 3e 90 81 e9 bd 9e 9e 44 3e 1a b5 24 3e
       0.19344765 -0.11401665 0.19201133 0.1608471
000340 60 8b c7 bd 20 72 f4 3c 28 7a dd 3d 3c 37 65 be
       -0.097433805 0.029839575 0.10814315 -0.22384351
000350 be 10 41 3e c0 f2 f8 bb fc 64 8d 3d a0 e9 a9 bd
       0.18854043 -0.0075972974 0.06904027 -0.082965136
000360 00 7a 99 3b 42 25 51 be e0 64 82 bd f2 cb 5e be
       0.004683733 -0.20424369 -0.06366897 -0.21757486
000370 2c 19 3d 3e e8 23 7f bd e0 0f fa bd 6e 22 4a be
       0.18466634 -0.062290102 -0.12210059 -0.19739696
000380 a0 2c 25 bc b8 4d 64 be a8 18 ea 3d 06 8c 55 be
       -0.01008144 -0.22295272 0.11430484 -0.20854196
000390 f4 f3 2c be 30 ff 3a 3e 70 fe e1 3d e0 2e a1 bd
       -0.16889936 0.18261409 0.11034858 -0.07870269
0003a0 02 41 1a be 4c 1a ba 3d 50 3d 0a be 7e c7 5a 3e
       -0.15063861 0.09087047 -0.13499951 0.21365163
0003b0 c8 66 42 be a0 56 3d bd de 92 47 3e 98 b4 45 bd
       -0.1898452 -0.04622519 0.19489619 -0.04826793
0003c0 40 7d 0b bc a4 29 74 be 70 70 60 be 60 19 7d bc
       -0.008513749 -0.2384401 -0.21917892 -0.015447944
0003d0 90 e2 3a 3e 44 d7 14 be ec d1 ea bd 00 1b 72 be
       0.18250489 -0.14535242 -0.11465821 -0.23643112
0003e0 9c b6 1d be 7a 71 59 be e4 99 cd 3d 8a e5 51 3e
       -0.15401691 -0.21234694 0.10039118 0.20497718
0003f0 90 ae 9b bc ec 1e 34 be 98 ca 5d 3e b0 8e 7f bd
       -0.019004136 -0.17589921 0.21659315 -0.062391937

layer_1.bias f4 [50]
000000 58 c2 3f 3e bc ff 46 be 20 a5 ca bc ec f8 95 3d
       0.1872648 -0.19433492 -0.02473694 0.07322869
000010 98 c0 25 3d 34 31 8a bd 86 0f 7d 3e f8 57 36 3e
       0.040466875 -0.06747666 0.24712953 0.17806995
000020 24 57 41 3e a6 d8 66 3e fe ae 24 3e ce 05 7c 3e
       0.18880898 0.22543582 0.16082379 0.2461159
000030 bc 23 49 be 10 de 46 bd a8 0a 95 bd 3c b1 14 be
       -0.19642538 -0.04855162 -0.07277423 -0.14520735
000040 70 51 0a 3d a0 cd 30 3c 24 46 ae 3d a0 c2 7a bc
       0.03376907 0.010791212 0.08509472 -0.015305191
000050 a2 13 40 3e ba d5 0d 3e 82 ec 17 be 80 ef 36 3d
       0.1875749 0.13851061 -0.14836314 0.044662
000060 c2 ce 2a 3e 72 d0 4b be 10 eb d2 bd 20 74 38 bd
       0.16680434 -0.19903734 -0.10298741 -0.04503262
000070 56 6a 65 be 04 42 06 3e 30 f9 46 3d 50 8a 77 3e
       -0.22403845 0.1311112 0.048577487 0.24173856
000080 7c 41 e8 bd d8 06 19 bd c0 85 3b 3d a8 d3 03 bd
       -0.11340615 -0.037360042 0.04578185 -0.032184273
000090 2e 32 69 be 24 3f 53 3e ca 0d 41 be be 4b 0f be
       -0.22773048 0.20629555 -0.18852916 -0.13993737
0000a0 90 56 df bc 30 41 bd bd 94 35 f0 bd ec bb a3 bd
       -0.027262956 -0.09240949 -0.11728969 -0.07994828
0000b0 18 1e 0e be 76 d0 76 3e 44 3a 5f 3e a8 ba ba 3d
       -0.13878667 0.24102959 0.2179957 0.09117633
0000c0 18 4a 31 be a0 06 60 3c
       -0.17313421 0.0136734545

layer_2.weight f4 [50, 50]
000000 dc e0 b6 3d ae 4e 51 bd ee 0d f8 3d 58 50 cf 3d
       0.08929607 -0.051100425 0.12112032 0.10122746
000010 24 bd 41 3d 60 82 05 3c e6 4a 7f bd ae aa a9 bd
       0.04729952 0.00814876 -0.062327288 -0.08284508
000020 ec 3b de bd 34 c5 e5 bd 20 57 85 bc 53 a0 9b bd
       -0.10851273 -0.11219254 -0.016276896 -0.07598939
000030 10 f3 53 bd 80 10 bd 3d aa 63 ef bd 28 59 0e bd
       -0.051745474 0.09231663 -0.11688931 -0.034752995
000040 c0 55 5d 3c 8c e9 83 3d c0 2e be bb 24 4e 08 be
       0.013509214 0.0644103 -0.005803913 -0.13311058
000050 f4 39 82 3d 9e 05 de bd 6e a9 00 be 54 38 ad bd
       0.0635871 -0.10840915 -0.12564632 -0.08458009
000060 06 51 05 bd 44 41 c4 3d 2b 52 0e be 04 4b b9 bc
       -0.032547973 0.09582761 -0.13898532 -0.022618778
000070 30 27 05 bc 2c ef e9 bd 62 44 d1 3d 84 c3 0f bd
       -0.008127019 -0.114225715 0.10218121 -0.035098568
000080 e8 40 0e bd 7c 9a b7 bc 0e 27 ff bd 9c 8d b3 bd
       -0.03472987 -0.022412531 -0.12458621 -0.08767244
000090 98 4f ba bd 20 d3 ad bd 00 1c e2 3b 4e 38 f3 3d
       -0.090972126 -0.084875345 0.0069003105 0.11875974
0000a0 85 58 f1 bd 0b 22 02 be 64 81 38 bd 42 5a e1 3d
       -0.11784462 -0.12708299 -0.04504527 0.110035434
0000b0 78 c0 3d bd a2 f3 fb bd 38 fe 76 bd 47 7d 04 3e
       -0.04632613 -0.12302329 -0.060301036 0.12938415
0000c0 fc 23 c7 3d d1 06 b5 bd a6 40 02 be ca a1 08 be
       0.0972366 -0.08839191 -0.12719974 -0.13342968
0000d0 50 83 57 3d 74 37 d1 bc c0 ea fd 3c 30 77 31 3c
       0.052615464 -0.025539137 0.030995727 0.010831639
0000e0 98 83 6a 3d 40 73 0d bb 22 b3 64 bd 00 30 dc bd
       0.057254404 -0.0021583587 -0.055834897 -0.10751343
0000f0 00 cc 69 3b de 21 27 bd da 3a 2e bd c5 5b 03 3e
       0.0035674572 -0.040803783 -0.042536594 0.12827976
000100 5c 72 09 3d 04 b1 cf bc a9 fc 0b 3e 6f 1d 99 bd
       0.033556327 -0.025352962 0.13670601 -0.07476317
000110 50 eb 20 3c 20 0f a0 bb 40 c2 95 3c 6a 3e a8 3d
       0.009821728 -0.0048846155 0.018281102 0.082150295
000120 b6 9f ea 3d d4 31 43 bd 40 91 ab bb 37 9e 04 3e
       0.11456244 -0.04765494 -0.005235821 0.12950979
000130 84 65 f9 bc fc 8d 78 3d 32 3e f2 bd fc a5 d0 bd
       -0.030443914 0.06068228 -0.11828269 -0.10187909
000140 d2 e1 92 3d 84 a5 30 bd 20 27 16 3c 98 2d 61 3d
       0.07171978 -0.043126598 0.009164602 0.054975122
000150 1d 8f 06 be 62 d2 56 bd f0 26 18 3c bc ea 05 3d
       -0.13140531 -0.05244673 0.009286627 0.032694563
000160 42 6b 8e 3d 80 bb e8 3c eb 8a 01 3e 41 bd 87 bd
       0.069540516 0.02840972 0.12650649 -0.06627894
000170 2c 64 d0 3d a8 7a a9 3d 01 f6 02 3e 6a ad 23 bd
       0.10175356 0.08275348 0.12789156 -0.039960302
000180 26 99 c8 3d dc ad 5a 3d a0 60 95 3c e0 95 e1 bb
       0.09794836 0.05338846 0.018234551 -0.0068843216
000190 f2 aa 86 3d e3 87 0f be 6e 62 fe 3d b0 73 b4 3c
       0.06575574 -0.1401668 0.12421118 0.02202782
0001a0 d1 3b 00 3e e0 99 b7 3b 80 e2 af 3c c2 c6 e9 3d
       0.12522818 0.00560306 0.021470308 0.11414863
0001b0 84 38 07 be 20 02 d0 3d 4a 63 ff 3d 86 0d af bd
       -0.13205153 0.10156655 0.1247011 -0.08547501
0001c0 6a dc e3 bd d6 57 c0 3d f0 1c bc 3c 5e cd c2 3d
       -0.11126025 0.093917534 0.022963017 0.09511827
0001d0 80 48 94 3d 3c 55 b9 bd 40 7a 7e bc e9 4a 0d be
       0.07240391 -0.0904946 -0.015532076 -0.13798107
0001e0 c8 c1 ab 3c f8 e6 ce 3c 68 fd 80 3c 2c 31 d8 bc
       0.020966426 0.025256619 0.015745834 -0.026390634
0001f0 8c 3e 73 bd c0 ec 40 3c 10 97 41 bc 9c 3e ab bd
       -0.05938582 0.011775196 -0.011815801 -0.08361551
000200 d8 37 ac bd 40 62 28 3d 80 7c a9 3a 07 ae 97 bd
       -0.08409089 0.041109324 0.0012930781 -0.0740624
000210 b8 dd 91 3d 6d 1f a8 bd 5a 5c b2 3d 4c af c6 bc
       0.071223676 -0.08209119 0.08709021 -0.02425351
000220 5d 5d fc bd 3c ef 2f 3d a8 95 42 3d 9e f9 02 be
       -0.12322495 0.04295276 0.047506005 -0.12790534
000230 9c 32 82 bd 95 b7 ef bd 82 47 e1 bd 1a da 1c bd
       -0.06357309 -0.11704937 -0.10999967 -0.038293935
000240 b3 16 81 bd e8 ff 6f 3d 71 28 10 3e 2c 7a 84 3d
       -0.06303158 0.05859366 0.14077927 0.06468615
000250 94 ac 50 3d e8 56 95 bd 80 44 4f 3d 42 5c e3 3d
       0.050945833 -0.07291967 0.050602436 0.11101581
000260 a0 66 4e bd 9e 97 b4 bd fe c2 83 3d 63 cd 06 3e
       -0.05039084 -0.08817981 0.06433676 0.13164286
000270 ec 1b 20 3d 78 c8 c8 bd 7b c6 09 3e e8 d8 a4 bc
       0.03908913 -0.098038614 0.1345462 -0.02012296
000280 e0 4c 06 3c 74 d5 08 be 80 bd a9 bd 28 99 c3 3c
       0.008197039 -0.13362676 -0.082880974 0.023876742
000290 3e eb e1 3d 18 df da 3d a4 26 a6 bd 4a 93 be 3d
       0.11031197 0.10687083 -0.08112839 0.09305437
0002a0 93 13 0a 3e 18 cc 1a 3d 78 f5 29 bd f4 ef d3 bc
       0.1348403 0.037792295 -0.041493863 -0.025871255
0002b0 20 08 86 bc e0 cd ca 3c 38 dd 11 3d 88 ff 02 bd
       -0.016361296 0.024756372 0.03561136 -0.031981975
0002c0 72 0a 99 bd 00 44 e8 3c d0 c8 16 bc 55 41 0f 3e
       -0.074726954 0.028352737 -0.009203151 0.13989766
0002d0 b6 7f 22 bd ec 9f 5a 3d f2 1f d5 bd cc c2 59 bd
       -0.039672576 0.05337517 -0.10406484 -0.05316429
0002e0 00 94 57 bb 00 0b a5 bb 14 a1 d7 3d f8 4c f4 3c
       -0.0032894611 -0.0050367117 0.1052877 0.029821858
0002f0 44 89 0d be f2 7c a1 bd fe 88 31 bd 96 78 98 bd
       -0.13821894 -0.078851596 -0.043343537 -0.07444875
000300 2e 3a 8c bd 15 bb 98 bd 80 1a 35 3b 4b 68 f5 bd
       -0.068470344 -0.07457558 0.0027634203 -0.11982783
000310 b5 c6 0a 3e 56 d0 b6 3d 22 c7 91 3d ea 4f a4 3d
       0.13552363 0.08926456 0.0711806 0.08023055
000320 c0 9f 1e 3d 7f 15 08 be 28 2f f5 bd 40 4b 5e 3d
       0.03872657 -0.1328945 -0.11971885 0.054270983
000330 08 05 b9 3c ea 8c 07 be 4f 87 06 3e 2a 4c f3 3d
       0.022585407 -0.13237348 0.13137554 0.118797615
000340 5c b5 0f 3d 88 50 c6 3c 54 44 ba 3d 1a 25 be 3d
       0.035085067 0.024208322 0.09095064 0.0928442
000350 8f 62 05 3e fc 6d 36 3d 98 58 b0 3c c2 06 21 bd
       0.13025878 0.044538483 0.02152662 -0.039313085
000360 c3 bf b3 bd 42 b1 09 be b0 2b e6 bd 82 66 07 be
       -0.0877681 -0.13446525 -0.112388015 -0.13222697
000370 9a 74 d1 3d ca f1 08 be c8 ab 9f 3c 40 83 24 bd
       0.10227318 -0.13373485 0.019491091 -0.040164232
000380 c0 e8 b7 3c df 96 96 bd 85 f2 8e bd 14 02 ba bd
       0.022449851 -0.07352995 -0.06979851 -0.090824276
000390 7b df 03 be d7 1f d5 bd 82 f8 01 be 30 20 00 be
       -0.1287822 -0.104064636 -0.12692454 -0.12512279
0003a0 4e ef 08 be 25 e8 80 bd 02 68 ef bd f2 98 b8 3d
       -0.13372537 -0.06294278 -0.1168976 0.09013547
0003b0 8a 4f f1 bd 0c f9 11 3d d2 9d de 3d a4 f4 cc bd
       -0.11782749 0.0356379 0.108699456 -0.10007599
0003c0 72 d9 bd 3d a6 29 37 bd 42 fa 0a be b2 f3 83 bd
       0.0926999 -0.044717453 -0.13572028 -0.064429656
0003d0 3d fa d5 bd 72 89 0e be d8 40 04 be 75 35 b9 bd
       -0.1044812 -0.13919619 -0.12915361 -0.09043399
0003e0 ce b2 ea bd db 34 0c 3e e8 29 9f 3d 38 13 0e 3d
       -0.114598855 0.13692038 0.07771665 0.034686297
0003f0 5b 2d 01 3e 96 66 e0 3d 99 e5 08 3e 0a fa c6 3d
       0.12614958 0.10957067 0.13368835 0.0971566

layer_2.bias f4 [50]
000000 c0 aa da bc 50 11 c3 3d 38 90 d2 bd db b1 06 3e
       -0.026692748 0.095247865 -0.10281414 0.13153784
000010 78 e5 c9 3d 1c 6f 31 3d 2a 3e eb 3d c0 0c ce 3c
       0.09858221 0.043318853 0.11486466 0.025152564
000020 22 40 23 bd 87 4f 07 3e ca 37 f5 3d 56 71 e1 3d
       -0.039856084 0.13213931 0.119735315 0.11007945
000030 33 31 95 bd b8 b3 b5 3c 8e 51 5b bd cb 5d 0e 3e
       -0.07284775 0.022180423 -0.053544573 0.13902967
000040 74 b6 3b 3d a0 9e c6 3d bc 66 6f 3d 6c 52 32 3d
       0.045828298 0.09698224 0.058447585 0.043535635
000050 00 7f 68 bd f4 46 d2 3d 5f 38 99 bd 96 03 fb 3d
       -0.05676174 0.102674395 -0.07481455 0.12256543
000060 0e 9b b3 bd 60 b8 b3 3c 7a b2 c1 bd f2 d3 e0 3d
       -0.08769809 0.021938503 -0.0945787 0.10977925
000070 ca 04 51 bd 68 7a f6 3c b0 96 1d bc c0 12 ef bc
       -0.051029958 0.030087665 -0.009618446 -0.029183745
000080 76 40 b9 bd 1a 09 2c bd a7 1f 0c 3e 8a ca 86 bd
       -0.09045498 -0.042000867 0.1368395 -0.065816
000090 48 07 b8 bc 50 3b 24 3d fa b8 e2 3d 9a 34 a3 bd
       -0.02246441 0.040095627 0.11070438 -0.07969017
0000a0 f5 24 e2 bd 54 ba 75 3d 10 d6 30 3c 22 9f c9 3d
       -0.11042205 0.05999215 0.010793224 0.09844805
0000b0 49 3d a6 bd 20 d2 69 bc b8 01 b3 bd 5f 10 0a 3e
       -0.08117158 -0.014271289 -0.08740562 0.13482808
0000c0 f0 2a 0a be ea bc e3 3d
       -0.13492942 0.11120017

output_layer.weight f4 [1, 50]
000000 64 e5 00 bd fc a5 15 3d f7 5e 05 3e c4 e6 81 bd
       -0.031468764 0.03653525 0.13024507 -0.06342843
000010 17 95 03 be 70 27 08 bc ee d1 5b bd 00 aa ec bd
       -0.12849842 -0.008310184 -0.053667 -0.115558624
000020 68 8e 7c 3d 3c 05 f4 bd 54 e4 57 3d 80 b8 08 be
       0.061659247 -0.11915061 0.052707985 -0.13351631
000030 ef b3 06 3e 3e 84 85 3d a0 53 c0 3d 54 12 b3 3d
       0.13154577 0.06519364 0.0939095 0.0874373
000040 6a 02 ff 3d 58 8d 7f 3d a1 98 04 3e 00 76 06 3a
       0.12451632 0.062390655 0.12948848 0.00051292777
000050 4a 80 8c bd 6c 45 3c bd 6c d6 2a 3d 24 3d 53 3d
       -0.06860407 -0.045964643 0.041708395 0.05157198
000060 b4 75 5f bd 16 f1 dd bd 90 75 5a 3d 9a e9 d9 bd
       -0.05455561 -0.10836999 0.053334773 -0.10640259
000070 00 d2 f5 bb 16 4a 83 3d 48 d8 9b 3c 32 3d 4c bd
       -0.0075018406 0.06410615 0.01902403 -0.049863048
000080 c3 0c c5 bd c0 03 cd bd 80 67 63 bb 52 11 94 3d
       -0.09621575 -0.10010481 -0.0034699142 0.07229866
000090 1e ba b0 bd ca e0 ba 3d 62 38 9e 3d da 16 c0 3d
       -0.08629249 0.09124906 0.07725598 0.093793586
0000a0 8a f7 06 be 16 2f aa bd 60 0b de 3b 84 3c 02 be
       -0.13180366 -0.08309762 0.0067762583 -0.12718397
0000b0 52 37 99 bd 9c e5 60 bd 6a f4 96 bd 80 7b af 3a
       -0.07481255 -0.054906473 -0.07370837 0.0013388246
0000c0 3c e6 0d 3d b4 86 85 3d
       0.034643397 0.06519833
