weights/3_3_3_O/1_1_5.pth (torch_old, 14809 bytes, 5 tensors)

layer_1.weight f4 [50, 16]
00000000: 3e97 1b3e 60fc 573d 2a65 653e 0092 923a
00000010: 2828 36be f092 d8bc 8084 023d 3cd8 9bbd
00000020: 20c4 3ebc d22f 0ebe e86f 6b3d 88bd adbd
00000030: 0028 013a c262 3ebe 6095 39be fc1e ebbd
00000040: e217 54be 2a96 7fbe 68cd 2e3e fc57 ba3d
00000050: 64c7 f83d ce4f 183e 508f c3bc 7ec4 033e
00000060: a816 043e f012 6cbd 74a9 8f3d a012 d1bc
00000070: 0e0d 58be a407 243e 1067 3a3e c446 903d
00000080: dcd3 e13d 28a0 c2bd b850 bcbd 10b7 c73d
00000090: 7a78 6f3e c0af 023c 50d0 ae3c 409c 203c
000000a0: 6055 133c 48c2 613d 5067 8f3c e2a9 433e
000000b0: 64ad 1bbe 508b ae3c 4085 4cbd 24ab d13d
000000c0: 0020 073d 8ec5 303e 10a4 96bc a0b3 4a3d
000000d0: 80f1 1f3d bcb3 51be b0c4 c43c 7021 f33d
000000e0: 805e 80bc cebc 1d3e 40eb 7c3c b09e f5bc
000000f0: b09f 2fbd a61f 0bbe 4eaf 14be 1035 933c
00000100: 1a8f 1c3e 8a87 1bbe fa62 76be f0d2 c5bc
00000110: 78a0 30bd 80a2 e5bc 6c07 95bd f2cf 2cbe
00000120: ec05 ba3d a0f2 4ebc baae 7f3e 88e7 fabd
00000130: a884 363d f8ba 713e ecb3 943d 64a8 af3d
00000140: 02bf 25be 40fc b8bd 98f6 e63d d0ce ca3d
00000150: e875 613e 7621 7c3e 52b5 283e c0eb b13b
00000160: c47a e43d a245 2f3e 6cdf 0e3e 480c 4a3e
00000170: a04a 2d3c f82c 27bd 10ac 3d3e f228 4fbe
00000180: 582b 1a3d 000a b03b 7cfd 223e 10e7 01bd
00000190: f8d3 54bd b451 353e d23c 0dbe c47d 16be
000001a0: 1a6b 6abe 80ca 313d 6047 5a3d c039 2abd
000001b0: f6f5 45be dcb9 353e 1055 acbd d876 0bbe
000001c0: 4c20 11be 4035 c03b 109e e7bc 562f 58be
000001d0: 1aa4 1f3e b66b 21be 00a9 fa3d da81 60be
000001e0: 8c6b ec3d 58e1 6e3e f29d 593e 9c18 3a3e
000001f0: 0ca1 d53d 34ec 3d3e c458 d2bd 020f 793e
00000200: b07a cb3c 0003 dbba d0ff 133d eafb 4d3e
00000210: b211 023e d654 6cbe 5081 4f3e ead4 0fbe
00000220: c27a 2abe 00bb 77bd 807f 0cbe 3614 02be
00000230: b022 d23d 8e58 70be d64d 5fbe c2ad 113e
00000240: b8cd 52be 86f1 46be 1050 86bc 0c41 d5bd
00000250: f843 9dbd 8463 acbd c4a2 36be 18cd 463e
00000260: 1cd5 e9bd 581c bebd d06c a53d 4059 033e
00000270: 7492 de3d 502d 6f3d 1e30 0cbe 8411 a3bd
00000280: f0a4 4bbe 7073 c43c 3050 b9bc 14fd 2bbe
00000290: bee7 0d3e 54f1 e93d 80a1 e2bc 28bf b03d
000002a0: 4097 e23c c6a3 493e 6854 95bd e0ff 3cbe
000002b0: 5c18 12be 344b cabd b232 6f3e 3c1a 7a3e
000002c0: ecf2 1d3e 80c1 fcbd 207e 3a3d 3ef5 2f3e
000002d0: 7404 a23d 3401 e0bd e0a9 50bc 40eb b23c
000002e0: 8478 46be dc5c 30be c06d 70be 14b6 ce3d
000002f0: 68f1 90bd d095 eb3d caea 6cbe 989f 39be
00000300: 0c24 313e 7ab1 4bbe e45c 4a3e e293 703e
00000310: 6a84 33be 7851 46be 9442 49be 5afe 1dbe
00000320: a080 15bc 9034 e1bd b43e 95bd 68e4 15bd
00000330: fcf2 e13d 6e7d 13be 9064 7bbd 26fc 49be
00000340: e002 803d 6452 263e 9240 1cbe 3473 0e3e
00000350: ce37 0a3e b04d c0bc 1087 0f3e 4ea7 363e
00000360: ec6a 65be 16d9 5b3e 607b 50bd 3807 9cbd
00000370: a2c7 6ebe 94ca 9e3d 2847 4cbd d40d ffbd
00000380: 40c3 953d 50c1 28be 38ff 453d b43a 4b3e
00000390: a498 c83d 8a01 363e 4022 a03c 74e7 ecbd
000003a0: d6f8 3a3e d063 ba3d 1891 8a3d c6e1 273e
000003b0: 382e 83bd ba5c 393e 48f2 34bd 9676 55be
000003c0: b0d3 0e3e 907d 7dbd 1ca3 b13d f606 583e
000003d0: fa4d 5dbe 36e9 713e a285 32be b0e2 75be
000003e0: 0096 7d3a 2e85 71be 809c 003c 2866 963d
000003f0: 2096 b4bd 207a 6fbc 2efe 64be ccb5 65be
0.15194413 0.052730918 0.22401872 0.0011182427 -0.17788756 -0.026437253 0.031864643 -0.07609603
-0.0116434395 -0.1388543 0.05747977 -0.08483416 0.000492692 -0.1859236 -0.18123388 -0.11480519
-0.20712236 -0.24959627 0.17070544 0.09098813 0.12147406 0.14874193 -0.023872048 0.12867925
0.12899268 -0.057635248 0.070147425 -0.025521576 -0.2109873 0.1601854 0.18203378 0.070447475
0.11026737 -0.09503204 -0.091950834 0.09751713 0.23385802 0.007976472 0.021339566 0.009802878
0.008992523 0.05511692 0.017505318 0.19107774 -0.15202862 0.021306664 -0.049931765 0.102377206
0.032989502 0.17262861 -0.018388778 0.04948771 0.03904867 -0.2047872 0.02401957 0.11871612
-0.015670061 0.15404055 0.015436947 -0.029982895 -0.0428769 -0.13586292 -0.14519998 0.017969638
0.15288964 -0.15188423 -0.24061194 -0.024148434 -0.043121785 -0.028031588 -0.07276806 -0.168762
0.09083161 -0.0126310885 0.24968997 -0.12251192 0.044560105 0.23606479 0.0726088 0.0857704
-0.16186145 -0.09032488 0.11277503 0.099027276 0.22017634 0.2462214 0.16475418 0.005429715
0.11156228 0.17116407 0.13952416 0.19731247 0.010576874 -0.04081437 0.18522668 -0.20230463
0.037638992 0.005372286 0.15917009 -0.0317145 -0.05195996 0.17706949 -0.13792732 -0.14696413
-0.22892419 0.04340601 0.053290725 -0.04155898 -0.19332108 0.17746681 -0.08414662 -0.13619554
-0.14172477 0.005865723 -0.028273612 -0.21111807 0.15589944 -0.15763745 0.122392654 -0.21924534
0.115439504 0.2332815 0.21251658 0.1817345 0.10431108 0.18547136 -0.10270837 0.24322131
0.024838775 -0.0016709268 0.036132634 0.20115629 0.12702063 -0.23079237 0.20264173 -0.14046064
-0.16648391 -0.06048107 -0.13720512 -0.12703022 0.10260522 -0.23471281 -0.21807036 0.1422644
-0.20586288 -0.19428071 -0.016395599 -0.10412797 -0.0767898 -0.084174186 -0.17835528 0.19414175
-0.114176005 -0.0928275 0.08077395 0.12827015 0.108677775 0.058392823 -0.1369023 -0.07962325
-0.19887137 0.023980826 -0.022621244 -0.1679576 0.13857934 0.11422983 -0.0276649 0.0863021
0.027660012 0.19691381 -0.0729149 -0.18456984 -0.14267105 -0.09877625 0.23359182 0.2442407
0.15424699 -0.12341595 0.04553044 0.17183396 0.079110056 -0.109377295 -0.012735814 0.021840692
-0.1938191 -0.17222923 -0.23479366 0.100933224 -0.070772946 0.11503184 -0.2313644 -0.18127286
0.17298907 -0.1989192 0.19761997 0.23493913 -0.1753098 -0.19367015 -0.19654304 -0.15429059
-0.009124905 -0.109963536 -0.0728735 -0.03659478 0.11032674 -0.14403316 -0.0613752 -0.19725093
0.06250548 0.16242367 -0.15259007 0.13911134 0.1349785 -0.023474544 0.14016366 0.17837259
-0.22404069 0.2146953 -0.05089891 -0.07618564 -0.23318341 0.077534825 -0.049872547 -0.124538094
0.073126316 -0.16479993 0.0483391 0.19846612 0.09794739 0.17774025 0.019547582 -0.11567584
0.18258986 0.09101069 0.06765956 0.1639472 -0.064053 0.18101779 -0.04417637 -0.20846018
0.1394794 -0.061887324 0.08673689 0.21096405 -0.21611777 0.23624119 -0.1743379 -0.24012256
0.0009673536 -0.2358596 0.0078498125 0.073437035 -0.088176966 -0.014616519 -0.22362587 -0.22432631

layer_1.bias f4 [50]
00000000: 98d0 0f3e dcd9 cd3d a86e d0bd 68a7 393e
00000010: b006 f43d 80d2 b93b b48f ec3d 40c2 dabb
00000020: 4438 31be 306b 03bd 3cfa 04be 68c0 9b3d
00000030: e04e 5cbc c8d3 54be f85d 593d c03b 71bc
00000040: 6e59 473e 3cc0 49be 70d3 003e 00eb ef3b
00000050: 0625 41be 20c0 343d c882 15bd b8a9 3bbd
00000060: ece8 9bbd 6851 853d 2cef 413e 783d 003e
00000070: 14f7 b4bd d04c 9f3d bc3f 193e 0889 f13d
00000080: 2abc 39be 2cd1 91bd 7c41 cfbd a0f9 eb3c
00000090: fa9b 703e 2853 5fbe 007c cb3d 5e84 2ebe
000000a0: 942d 52be 2000 f3bc fa6a 5dbe 1e7d 5abe
000000b0: 2a6a 113e d879 1dbe 948c 77be fccc 7fbe
000000c0: 5c94 7c3e f8d4 a73d
0.14044416 0.10051319 -0.10177356 0.18130267 0.11915338 0.0056708455 0.11550847 -0.0066759884
-0.1730662 -0.032084644 -0.12986082 0.07605058 -0.01344654 -0.20783913 0.05306813 -0.014723718
0.19467708 -0.19702238 0.12580657 0.0073217154 -0.1886178 0.044128537 -0.036501676 -0.045816153
-0.07612786 0.06509668 0.18938893 0.12523448 -0.08836189 0.07778323 0.14965719 0.11793715
-0.18138185 -0.071199745 -0.10119912 0.028805554 0.23497 -0.21809065 0.099357605 -0.17042682
-0.20525199 -0.029663146 -0.2162284 -0.21336791 0.14200655 -0.15378511 -0.2417472 -0.24980539
0.2466597 0.081949174

layer_2.weight f4 [50, 50]
00000000: 6e90 943d 7aef e23d 383c 1a3d 36eb da3d
00000010: f198 103e 80f5 f73b 9092 7fbd 0895 4cbd
00000020: a908 0b3e fc4d 1f3d 5a07 2cbd 5280 ea3d
00000030: 20af 04be 7d3a 033e b2f4 1abd ecaf 08be
00000040: 0072 b9bd 66e7 cd3d f1d7 84bd d225 10be
00000050: 7e11 a33d 60b3 31bc 24a6 533d 0052 81ba
00000060: 203f b3bb 6495 8a3d 4036 02bd b87f b23d
00000070: fbf3 0d3e 60b5 ae3d 227e a83d e241 08bd
00000080: 1e85 9b3d 6ebb 0cbe 8067 94bc 38aa 763d
00000090: be8c 8dbd 93a7 0c3e 6823 c53c 6026 9d3d
000000a0: 20eb 0ebe 7af2 f53d 1e66 e33d 00d2 63bb
000000b0: c820 9d3d d464 72bd 220d f23d ba36 c6bd
000000c0: 7c94 c83d a87f e8bc 9cbb ccbc 809a 943d
000000d0: 3ed4 d2bd eec3 ff3d b074 76bc 340e db3d
000000e0: a079 6ebd fffd 063e 9c67 2ebd 24aa 4c3d
000000f0: d519 febd 6073 17bd 8c91 833d 6609 b33d
00000100: df21 053e 00aa 383b 485c 2b3d a6c2 d7bd
00000110: a492 93bd 4869 c33d a41b f5bd c42b 2a3d
00000120: 70e1 2a3c 810e 0cbe 006a 94bb d93d 9fbd
00000130: c0af cc3b c84e 603d 68e9 c23d 1041 d13c
00000140: 80f4 b7bd a00b dabb 9452 c7bd 2620 ab3d
00000150: 5042 403c 07bc fbbd 02cc f1bd 801b 703b
00000160: 2cee 343d c4cd bbbd e29f c7bd 5669 d6bd
00000170: 709c a83c 1614 853d 6a1d b0bd 20c8 c03d
00000180: 8059 8d3b 8003 90bb d4f2 20bd a009 b1bb
00000190: 6caf a1bc 7a40 0ebd a077 993d a216 873d
000001a0: a2cb aabd 9c52 dd3d eb3b 83bd 3acd e13d
000001b0: fc8d 283d e93f c6bd 6cc2 89bd 24e0 ab3d
000001c0: d278 de3d 04e7 a73d bc08 cb3d 2b72 87bd
000001d0: 184b 8fbd 12fd 51bd ceb7 d4bd 508b 0cbd
000001e0: 2bc0 04be 38e3 84bd fcfc 133d b0fd 11bc
000001f0: 4855 cf3c 110b 093e ea79 e93d 307d 7c3c
00000200: 6fe2 02be 8ee0 62bd 2ee6 ae3d 487c c33d
00000210: 9403 0cbd ac3e 07be b988 f4bd e674 903d
00000220: 5153 053e 150f 09be 0f11 0c3e 605f 4abc
00000230: fb8c 8cbd e0b8 02bd 934d f2bd 74c8 a6bc
00000240: ec31 c1bd 886b cd3d 2480 e8bd b8ff c03c
00000250: 4c15 d03d 735d febd 67aa 053e 989d 963d
00000260: 2b9b 06be c00b 9fbb 809a 36bb e815 d33c
00000270: 06f0 e53d 1c00 b1bc b092 92bc f4e1 373d
00000280: 7503 a1bd 083f 86bc 8e9d 11bd 9046 1c3c
00000290: 6b34 8abd b993 013e d599 f6bd 689b 433d
000002a0: caa6 a33d 02a8 abbd acdf 883d 2929 063e
000002b0: 84a8 7bbd 60f8 ac3c d862 3f3d fcd1 2bbd
000002c0: 2588 0bbe 3efe 8bbd 604d ecbb ac39 efbd
000002d0: 600b 64bd 7458 abbc 0610 0ebe 1c87 efbd
000002e0: 9a04 d33d d44e 31bd 3833 083d 844e ebbd
000002f0: e3a1 0c3e 986e 97bc 46ef e63d 6073 5a3d
00000300: 003f 793a c048 fd3b c1ef 03be c046 e63b
00000310: 502f 823d b8e1 a83d 38ca a2bc 4c1a aa3d
00000320: 7810 06bd 52a1 d83d aea3 a9bd 0e4b a03d
00000330: 0445 9d3d 84a2 b3bc 32de 843d 79c3 03be
00000340: 8e6f a4bd 045d 4a3d ba1f 9fbd 3c65 d73d
00000350: 5a56 df3d 00c9 a3bc 7039 5b3d 4536 0a3e
00000360: 6885 9c3c a9d4 0c3e e0f5 e9bd 00ce da3c
00000370: 74fe babd c8ad 243d 304b e1bd 0110 0f3e
00000380: c492 26bd 044d 76bd 401d 483c 224b 79bd
00000390: 92a0 813d f09b 2a3d 3071 973c d420 c03d
000003a0: eea3 963d 3f65 a5bd f071 c33c 4f63 88bd
000003b0: 3488 413d c055 393b 1cfb afbd ca99 a9bd
000003c0: 5850 70bd d00f 9a3d 2c96 483d 9611 b1bd
000003d0: 906a c03d 5eed 843d 8073 af3a 8f89 efbd
000003e0: 1ca6 403d 5048 753c 3543 08be c452 c6bc
000003f0: f772 053e 2828 d03c e14b 0fbe c0b6 103b
0.0725411 0.11080833 0.037655085 0.10689394 0.14120843 0.0075671077 -0.062395632 -0.049946815
0.13577522 0.03889273 -0.0419992 0.114502564 -0.1295743 0.1281528 -0.037831016 -0.13348359
-0.09054947 0.100539014 -0.064865 -0.14076927 0.07962321 -0.010845989 0.051672116 -0.0009866357
-0.0054701716 0.06766775 -0.031790018 0.08715767 0.13862602 0.08530688 0.08227183 -0.033265956
0.075937495 -0.13743374 -0.018115759 0.060220927 -0.0691161 0.137358 0.024064735 0.07673335
-0.1395688 0.12009139 0.11103462 -0.003476262 0.07672268 -0.05917819 0.11818911 -0.09678407
0.09793946 -0.028381184 -0.024991803 0.07256031 -0.10294388 0.124885425 -0.015042469 0.106960684
-0.05822146 0.1318283 -0.04257928 0.049966946 -0.12407271 -0.036975265 0.06424245 0.08742027
0.13001202 0.00281775 0.041836053 -0.10535173 -0.07205704 0.09541565 -0.11968163 0.041545644
0.010429725 -0.13677408 -0.0045292377 -0.077754684 0.006246537 0.05476263 0.09517175 0.02554372
-0.089821815 -0.006654218 -0.097325474 0.08355741 0.01173456 -0.12291723 -0.118064895 0.0036637485
0.04417245 -0.09170106 -0.09747292 -0.1046931 0.020582408 0.06497972 -0.0859936 0.09413171
0.0043136477 -0.0043949485 -0.03929408 -0.0054027587 -0.019736968 -0.03472946 0.0749352 0.06596114
-0.08339621 0.10806772 -0.06407913 0.11025472 0.04115103 -0.09680159 -0.06726536 0.08392361
0.108628884 0.081983596 0.09913775 -0.06613573 -0.06996745 -0.051266737 -0.103866205 -0.034312546
-0.12963931 -0.06488651 0.036129937 -0.0089105815 0.02530922 0.13383128 0.114002064 0.015410706
-0.1278169 -0.055389933 0.08539997 0.09545189 -0.0341831 -0.13207501 -0.1194014 0.070535466
0.13020064 -0.1338466 0.13678382 -0.012351841 -0.068628274 -0.03191459 -0.11831202 -0.020359255
-0.0943335 0.100302756 -0.11352566 0.023559436 0.10160312 -0.12420168 0.13053285 0.07354277
-0.1314513 -0.0048536956 -0.0027863085 0.025767282 0.112274215 -0.021606497 -0.017892212 0.04489322
-0.078619875 -0.016387478 -0.035550646 0.009538308 -0.06748279 0.12654008 -0.1204106 0.04775563
0.07990797 -0.08381654 0.06683287 0.13101639 -0.061440006 0.021114528 0.046725124 -0.041948304
-0.13626154 -0.06835602 -0.0072113723 -0.11680922 -0.05567491 -0.020916201 -0.138733 -0.11695692
0.10303612 -0.043288067 0.03325197 -0.11489585 0.1373363 -0.018485352 0.112761065 0.053332686
0.0009507984 0.0077296197 -0.12884428 0.007027477 0.063566804 0.082461774 -0.019871816 0.08305797
-0.03273055 0.105776444 -0.082831725 0.078268155 0.07679179 -0.02192808 0.06487693 -0.12867536
-0.0802909 0.049405113 -0.07769723 0.10517356 0.10905142 -0.019993305 0.053521574 0.13497265
0.019106582 0.13752998 -0.1142385 0.026709557 -0.09130564 0.040204793 -0.11000669 0.13970949
-0.04066731 -0.06013204 0.012214005 -0.060862668 0.063294545 0.04165262 0.01848659 0.093812615
0.07355486 -0.08075952 0.02385804 -0.066595666 0.047249034 0.002827987 -0.08592817 -0.08281286
-0.05867037 0.07522547 0.04897134 -0.086459324 0.09395325 0.06490587 0.0013385862 -0.11696159
0.047033414 0.014970854 -0.13306887 -0.024209388 0.13032137 0.025409773 -0.1399379 0.0022081584

layer_2.bias f4 [50]
00000000: bc93 953d a808 d7bd a018 2e3d e0ef 29bc
00000010: c0ba ee3c 00e3 2dbc da1d bc3d b887 05bd
00000020: 38a4 733d a0df 593c dc40 0bbe 09a2 95bd
00000030: 0ba8 cebd 82c0 dabd ffd0 063e 484a 463d
00000040: 2d04 febd 57a6 81bd 302d 483d 01d2 043e
00000050: 77e9 03be 4067 c13b 2a9a ba3d 8cc3 07be
00000060: ec7f a5bd 2c62 063d cedb adbd 97ed 9fbd
00000070: f06c 44bc 1cb6 a93d 00e7 ddbb dd71 0fbe
00000080: fd6d d1bd 289c dabd 14d3 7c3d f252 c0bd
00000090: dc2f febc 381a c5bc 1f4b b8bd b0dd d83d
000000a0: 4d74 0dbe 130c 0d3e 00c4 153b 4f04 073e
000000b0: 4868 5c3d 3272 f53d ae5d f83d 004a 10ba
000000c0: 0821 c03d 0a4f fe3d
0.07303569 -0.10499698 0.042503953 -0.010372132 0.029141784 -0.010613203 0.09185381 -0.032600135
0.059482783 0.013297945 -0.1359896 -0.073062964 -0.100906454 -0.10681249 0.13165663 0.048410684
-0.1240314 -0.06330555 0.04887122 0.12970735 -0.12882029 0.005902201 0.09111436 -0.13258189
-0.0808104 0.032808468 -0.0848919 -0.078089885 -0.011988863 0.08286688 -0.006771922 -0.14008279
-0.10226057 -0.10674316 0.061724737 -0.093908206 -0.03102868 -0.024060354 -0.08998703 0.105891585
-0.13813896 0.13774137 0.002285242 0.13185237 0.053810388 0.11984672 0.12127243 -0.0005504191
0.093813 0.12417419

output_layer.weight f4 [1, 50]
00000000: 8e43 e23d 181e bd3d 62cc f7bd 16d4 babd
00000010: 9216 e03d 56d5 863d 8420 af3d 4660 2abd
00000020: 9862 2b3d 25d9 d7bd 1a43 d2bd a445 433d
00000030: 6a3f d4bd 082c 72bd b762 cbbd d45b 203d
00000040: ac25 2cbd aab4 00be ec11 51bd 0205 64bd
00000050: 71f1 81bd a055 473d b845 933d eaa5 f33d
00000060: 740a a6bd 2a81 41bd 5a63 ed3d 2cdf 4abd
00000070: d0bf 063c 1547 adbd 1a77 a83d 8c11 a5bc
00000080: 40e3 aabc d0b9 c83d e8c8 fd3c 90a4 cb3d
00000090: 4333 0f3e 2c5e 6abd 83ae 093e 4c82 f8bc
000000a0: 9c2f 7e3d e150 0b3e a8be e4bc 380d dd3c
000000b0: b0aa 283d 7819 a8bd 70fa 0bbe 80b4 a03a
000000c0: 6cae e6bc 84ea 24bd
0.11048041 0.092342556 -0.1209953 -0.091224834 0.10941805 0.06583659 0.08551124 -0.04159572
0.041842073 -0.10539464 -0.10266705 0.047673836 -0.10363658 -0.059124023 -0.09930938 0.039150074
-0.042028114 -0.12568918 -0.051042482 -0.05566884 -0.063448794 0.048665643 0.07191032 0.1189688
-0.081074625 -0.04724232 0.115912154 -0.04952924 0.008224443 -0.084608234 0.08225842 -0.020149969
-0.020860314 0.09801066 0.030979589 0.09943497 0.13984399 -0.057218716 0.13445477 -0.030335568
0.062057123 0.13605072 -0.027922943 0.026983842 0.041178405 -0.08207983 -0.13669753 0.0012260824
-0.028159343 -0.040262714
