weights/3_3_3_O/1_1_3.pth (torch_old, 14809 bytes, 5 tensors)

layer_1.weight f4 [50, 16]
000000 06 73 4f be c0 fc 10 be e0 10 e1 bc 1c b9 78 be
       -0.20258722 -0.14158916 -0.027473867 -0.24289364
000010 ce 9d 1a be 40 55 b8 bc 26 ea 76 3e 62 c4 75 be
       -0.1509926 -0.022501588 0.24112758 -0.24000695
000020 a2 5a 14 be 2e 27 34 be 2e f3 22 3e 00 97 8c 3a
       -0.14487699 -0.17593071 0.15913078 0.0010726154
000030 b8 10 18 be ee 87 02 be 5c 25 13 be dc f2 74 be
       -0.14850128 -0.12747166 -0.1436972 -0.23920768
000040 90 76 bc bc c2 41 50 3e f6 b6 45 3e 78 2a 09 3e
       -0.023005754 0.20337585 0.19308075 0.13395107
000050 2e 7f 46 be 90 24 0e 3d 40 e7 0d bd 7a 2a 38 be
       -0.19384453 0.034702837 -0.034644365 -0.17984954
000060 dc c5 a0 3d 88 50 8f 3d 80 91 53 bd 38 14 3a be
       0.07850239 0.06997782 -0.05165243 -0.18171775
000070 74 74 32 be 20 fe a7 3d a0 a2 0c bd 04 4d e7 bd
       -0.17427236 0.08202767 -0.03433478 -0.112939864
000080 02 00 28 be 48 e0 5f 3d fc 5f 45 3e 7a be 45 3e
       -0.16406253 0.05465725 0.19274896 0.19310942
000090 88 17 70 3d 7a ba 27 3e fc 26 91 bd 00 11 ff bd
       0.05861619 0.16379729 -0.07087514 -0.12454414
0000a0 52 40 48 be b4 44 6e 3e 04 ce c6 3d 80 b3 3c 3e
       -0.19555786 0.23268396 0.09707263 0.18427849
0000b0 80 d2 39 3b 54 94 52 3e 1e d4 52 be 0a b3 1c 3e
       0.0028354228 0.20564395 -0.20588729 0.15302673
0000c0 84 52 f3 bd 58 b2 03 3d 32 a8 3c be bc da ac 3d
       -0.11880973 0.032152504 -0.18423536 0.08440158
0000d0 a8 62 67 3d 78 89 56 3e 04 6b fc bd 9c 16 8b bd
       0.05649057 0.20950878 -0.12325099 -0.06791422
0000e0 0a 8c 2f 3e 7c cf 71 3e 18 f7 e6 3d 80 f4 e8 3c
       0.17143264 0.23614305 0.11277598 0.0284369
0000f0 40 da 39 bd 60 e2 2d bc d0 7b 0c bd f6 9b 51 be
       -0.045374155 -0.010613054 -0.034297764 -0.2046965
000100 20 eb 4e bd a8 f7 27 bd de 7b 18 3e 34 c5 7d be
       -0.0505172 -0.041007668 0.14891002 -0.24782258
000110 86 42 56 be ea 7d 36 be 00 34 c0 bb 26 75 0a 3e
       -0.20923814 -0.1782147 -0.005865574 0.13521251
000120 ec 51 f8 bd 40 42 3d bd 82 d1 22 be 3c a3 a6 3d
       -0.12125 -0.04620576 -0.15900233 0.08136603
000130 e4 10 41 be b8 03 19 3e 3c 98 ec bd a8 c2 ea 3d
       -0.188541 0.14942825 -0.11552474 0.11462909
000140 e0 7d 34 bc 08 79 5b 3e 2e 88 5b be 40 1d fd 3c
       -0.011016339 0.21432889 -0.21438667 0.030897737
000150 50 6f 6f bd 20 0c 17 3c 18 f8 a1 3d b0 bf 92 bc
       -0.058455765 0.009219199 0.07908648 -0.01791367
000160 80 c4 9a bc 80 79 1d be 00 c8 9e 3a 92 fd 1b be
       -0.018892527 -0.1537838 0.0012114048 -0.15233448
000170 54 74 69 be 88 f8 17 bd 90 83 d0 bc 54 53 a3 3d
       -0.22798282 -0.037102252 -0.025453359 0.07974878
000180 b4 a5 43 be be 9b 0a 3e 68 5e 78 3d 3c 33 df 3d
       -0.1910618 0.13535973 0.060636908 0.10898444
000190 5a 9f 76 be a8 77 53 3d d0 46 a0 3d d8 76 c9 3d
       -0.24084225 0.051627785 0.078260064 0.09837121
0001a0 38 5a 6b 3e 80 69 dc 3d a0 d7 61 be 24 14 47 be
       0.22983634 0.1076231 -0.2205491 -0.19441277
0001b0 44 4c ee bd 28 ed 3e 3e 88 c3 90 bd 54 f2 ae 3d
       -0.1163564 0.18645155 -0.070685446 0.08542314
0001c0 30 c8 4b 3d bc 25 24 3e c8 56 cb bd 68 a4 0b bd
       0.04975146 0.1603002 -0.099286616 -0.034092337
0001d0 ec a0 84 3d 30 0b 9c 3d e0 d8 06 3c 00 b6 ce 3c
       0.06476006 0.07619321 0.008230418 0.025233269
0001e0 e0 7a 6a bd 54 0c b5 3d 58 c2 2f bd f2 51 09 3e
       -0.05724609 0.08840242 -0.04290995 0.13410166
0001f0 f8 44 28 bd b0 43 b8 3c 56 c5 7b 3e 38 20 3a bd
       -0.0410814 0.022493213 0.24586996 -0.045440882
000200 32 9e 76 3e 22 28 7b 3e b0 20 07 be e8 ee 84 bd
       0.24083784 0.24527028 -0.13196063 -0.0649088
000210 4c 85 25 3e 72 37 0b be 18 3e db bd 30 a2 7a 3d
       0.1616413 -0.1359537 -0.10705203 0.06118983
000220 a8 09 eb 3d e4 b4 8b 3d 98 87 cc 3d 00 81 06 bb
       0.11476451 0.068216115 0.099868 -0.0020523667
000230 bc 6c 31 be 6c 4e e7 bd 88 1d 39 bd a4 81 63 be
       -0.17326635 -0.11294255 -0.04519418 -0.22217423
000240 42 82 31 3e 94 f8 f8 3d 5c e6 31 be fc 7d 5d be
       0.17334846 0.121567875 -0.17373031 -0.2163009
000250 b4 8c 71 3e 20 ec 32 be 00 52 8d bb 94 ee 7c be
       0.2358883 -0.17472887 -0.0043127537 -0.24700385
000260 78 32 21 3d c6 f1 08 3e 90 d6 40 3e b4 68 e9 3d
       0.03935477 0.13373479 0.18831849 0.11396924
000270 08 38 11 3e 00 77 06 3c 64 a6 38 3e 60 cc 18 be
       0.1418153 0.008207083 0.18032223 -0.14921713
000280 36 d5 03 be 80 5b 01 3b 20 23 4c bd 78 1f 73 bd
       -0.12874302 0.0019738376 -0.049838185 -0.059356183
000290 08 c5 0b 3d aa e7 51 be 50 df 32 be 2a f5 6d 3e
       0.03412345 -0.20498529 -0.17468 0.23238054
0002a0 72 07 71 3e f4 c2 0d be a8 6a 38 3d 9c 40 f6 3d
       0.23537996 -0.138439 0.04502359 0.12024042
0002b0 fe 9c 1f be 08 d0 c4 bd a8 e0 53 be c0 1a 46 bd
       -0.15587232 -0.09609991 -0.20691168 -0.048365355
0002c0 88 ce 7c bd 8c 0d 32 3e 50 62 be bc 8c 60 b5 bd
       -0.0617204 0.1738798 -0.023240238 -0.088563055
0002d0 48 1a 32 3e 02 70 04 3e d8 a7 9c bd f0 58 1e be
       0.17392838 0.12933353 -0.07649201 -0.15463614
0002e0 d4 37 20 be 50 15 4a be 06 28 22 3e 00 57 85 bb
       -0.15646297 -0.19734693 0.1583558 -0.004069209
0002f0 26 12 33 be 5a 70 3b be 9a 72 7b 3e 98 53 18 bd
       -0.17487392 -0.18304577 0.24555436 -0.037189096
000300 9a 9f 63 3e 70 a5 10 bd 9c 57 a8 3d 94 a6 23 3e
       0.22228852 -0.035314023 0.08219835 0.15981513
000310 a4 76 a7 3d 00 a4 87 3c 9a 0e 13 be 3a 0c 0d be
       0.08176926 0.016557693 -0.14361039 -0.13774195
000320 9a b8 67 be 74 99 5f 3e 94 3b e7 bd a8 33 3a be
       -0.22629014 0.21835881 -0.112906605 -0.18183768
000330 42 c1 40 3e 80 e3 52 3b 60 de 5e 3d f8 0c 91 bd
       0.18823722 0.0032179058 0.054411292 -0.07082552
000340 b0 62 96 3c 7c 09 19 be 6a 69 7e 3e f0 b4 63 3e
       0.018357605 -0.14945024 0.248449 0.22236991
000350 c0 37 00 be 9a 62 63 be f0 38 51 3e 70 08 48 be
       -0.12521267 -0.22205582 0.20431876 -0.19534469
000360 40 98 42 be a0 c6 e2 bd 98 00 5f bd 74 ce 41 3e
       -0.19003391 -0.11073041 -0.054443926 0.18926412
000370 06 a0 25 3e 78 b5 01 3e 38 f7 5e 3e a0 98 6d be
       0.16174325 0.12666881 0.21773994 -0.23202753
000380 2c 81 a0 3d 26 bc 4d be 5c 38 57 be 98 e6 2f bd
       0.078371376 -0.20091304 -0.21017593 -0.04294452
000390 a0 fe dc bd ce 24 08 be 00 34 91 ba d8 a7 58 3d
       -0.10790753 -0.1329529 -0.0011078119 0.052894443
0003a0 3c 44 10 3e 68 39 33 3e bc f3 8b 3d 5a 85 28 3e
       0.1408853 0.17502367 0.06833598 0.1645712
0003b0 58 46 26 bd 98 bf 50 3d dc ce a6 bd 20 5a 68 3d
       -0.04059443 0.050963968 -0.08144924 0.056726575
0003c0 f0 f4 73 be 50 a3 03 bd c8 7e 42 be 56 c2 0e 3e
       -0.23823905 -0.03213817 -0.18993676 0.13941321
0003d0 00 d9 27 3b 3e 3e 00 be ea 2d 2a be 82 33 11 be
       0.002561152 -0.12523744 -0.16619077 -0.14179805
0003e0 d0 0a f4 bc 3c 1a c3 bd 00 db 15 bc 48 63 3c 3e
       -0.029790312 -0.09526488 -0.009146452 0.18397248
0003f0 d8 12 45 3e c0 83 55 3c 08 44 1d be c6 5b 6a 3e
       0.1924547 0.0130319 -0.15357983 0.22886571

layer_1.bias f4 [50]
000000 f8 5f 57 bd c2 b1 66 3e c8 6c 8e 3d 18 be 92 3d
       -0.052581757 0.22528747 0.06954342 0.07165164
000010 86 e4 01 3e 08 11 23 3e 28 38 94 3d 00 17 aa bc
       0.12684831 0.15924466 0.072372735 -0.02076292
000020 90 a3 db bc 68 66 34 bd 50 3a bf 3d 30 f5 cd 3c
       -0.026811391 -0.044042975 0.09337294 0.025141329
000030 42 98 5b be bc 76 fe 3d fc 3d 42 3e 72 de 26 be
       -0.214448 0.124249905 0.18968958 -0.16295794
000040 f6 bc 6a 3e 70 1b 59 3e 74 c0 1c be b6 25 5e be
       0.22923645 0.21201873 -0.1530779 -0.21694073
000050 50 ca 2f be b0 1b 7f be f0 ff 24 bd 20 d6 e0 3d
       -0.1716702 -0.24912906 -0.040283144 0.10978341
000060 38 cb 5d 3e f4 7b 4b be 76 50 02 3e 7c c5 ac bd
       0.21659553 -0.19871503 0.12726006 -0.08436105
000070 d4 c4 e0 3d 70 1e e5 bd 20 42 e5 3d 00 40 f4 37
       0.10975042 -0.11187446 0.11194253 2.9116869e-05
000080 20 c1 c4 3d 00 28 ce 3b 00 1d dc 3c a0 72 7a 3e
       0.09607148 0.0062913895 0.026869297 0.24457788
000090 a8 55 1d 3e f8 b7 7a be 22 e1 07 3e 0a 07 71 3e
       0.15364707 -0.24484241 0.13269475 0.23537841
0000a0 00 94 92 3b a0 8d 16 bc d0 41 e6 bc 44 b9 a3 3d
       0.0044732094 -0.0091890395 -0.028107554 0.07994321
0000b0 f0 bb 57 3d fa 99 64 3e b0 d2 53 bd 78 e7 dd bd
       0.052669466 0.22324362 -0.0517146 -0.10835165
0000c0 92 44 37 3e a8 e5 98 bd
       0.17897251 -0.074656785

layer_2.weight f4 [50, 50]
000000 c0 fa cd 3c 18 74 87 3c d0 ab 2a bd 4c 18 08 3d
       0.025143981 0.01653485 -0.04166776 0.033226296
000010 1f 1f 0c be 8e 5e 5e bd 4f cd 0e be 90 ac 34 3d
       -0.13683747 -0.054289393 -0.13945507 0.04410988
000020 a8 04 07 3d eb 98 b1 bd d8 1e 8a bc d2 a1 b1 bd
       0.032963425 -0.08671745 -0.01686041 -0.08673443
000030 e2 6b fd 3d d0 62 11 bd 58 55 83 3c 32 ad 62 bd
       0.12374093 -0.035494626 0.016031906 -0.055340953
000040 8c 52 83 3d de 84 0b bd 7c 10 5c 3d c8 f6 5b 3d
       0.06412229 -0.03406226 0.05372666 0.053702146
000050 0c b1 bb 3d 48 db 80 3c 5e ba ab bd fc 37 3c 3d
       0.091646284 0.015729561 -0.08385156 0.04595183
000060 46 02 ed 3d e8 23 d4 bd 0c cb a7 bc 30 7a c0 3d
       0.11572699 -0.10358411 -0.020482562 0.093983054
000070 70 85 dc 3d a4 a1 89 bc 43 fb 01 3e e0 94 4c 3d
       0.10767639 -0.01680071 0.12693505 0.049946666
000080 5e df d7 3d 02 ef f2 3d 38 d9 f2 3c 00 83 3c 3b
       0.10540651 0.11861993 0.029644594 0.0028764606
000090 20 65 97 bb ec a3 95 3d 98 3e c3 3d 86 77 89 bd
       -0.0046202093 0.07306656 0.09533423 -0.067122504
0000a0 1d 4a 09 3e e8 a2 88 bc 95 61 82 bd 9a a5 da bd
       0.13407178 -0.016679242 -0.063662685 -0.10676117
0000b0 c0 be da 3c 02 7a c9 bd 85 2f 0f 3e d4 96 d8 bc
       0.026702285 -0.09837724 0.13982971 -0.026439108
0000c0 78 e1 b3 3c 60 80 44 3c a8 ae b5 3d 20 55 12 3d
       0.021958098 0.011993498 0.08871204 0.035725713
0000d0 7e 09 6e bd 54 d4 33 3d f4 73 fc bd 2c 38 b8 bc
       -0.05811452 0.043903664 -0.12326804 -0.022487722
0000e0 e8 07 f8 3c d8 9c 92 3d c0 23 91 bb 30 bb 98 bc
       0.030277207 0.07158822 -0.0044293106 -0.018643945
0000f0 4c ed 07 3d 14 8f 08 bd 14 5c b6 bd c0 a8 0a 3b
       0.03318529 -0.033339575 -0.08904281 0.0021157712
000100 9c bf ba 3d 34 40 fe bd 18 f5 d1 3c 10 cd 60 bc
       0.09118578 -0.124145895 0.025629565 -0.013720766
000110 c0 60 81 bb 08 26 34 3d a0 c3 2b 3d 00 9a fd 3c
       -0.003948301 0.043981582 0.04193461 0.030957222
000120 80 fe 1b 3c 40 65 c1 3b 0a 9c de 3d e0 75 aa 3d
       0.009521127 0.0059019625 0.10869606 0.08323264
000130 6f a8 0a 3e b3 3e 10 3e ef 63 96 bd 3c c6 5e bd
       0.13540815 0.14086418 -0.073432796 -0.05438827
000140 30 7a ce bd 65 7b df bd 68 1b e0 3c 72 73 e4 3d
       -0.10081899 -0.109122075 0.027356818 0.11154832
000150 5c d1 0f 3d ec 1b 47 bd 1a 22 8b bd 2c 69 ce bd
       0.03511177 -0.048610613 -0.06793614 -0.10078654
000160 cf 27 0a 3e 24 5b dc bd a0 36 15 3c 37 a7 d6 bd
       0.13491748 -0.10759571 0.009107262 -0.104811125
000170 70 88 53 3c d7 77 94 bd 5c 34 f1 bd a3 db ac bd
       0.012910947 -0.0724942 -0.11777565 -0.0844033
000180 48 09 60 3d 60 9f d1 3c 2e 4e fb 3d 6a a9 e7 3d
       0.05469635 0.025588691 0.12270771 0.1131161
000190 1d bd 0c 3e eb 45 ca bd a4 50 a5 bd 03 e7 8d bd
       0.13744016 -0.09876617 -0.080720216 -0.069288276
0001a0 a6 9e ce bd 30 fc 7a 3c 5c af 74 3d 50 54 31 3d
       -0.100888535 0.015318915 0.05973755 0.043293297
0001b0 36 77 f5 bd e4 d6 c3 bc 8a 14 b8 3d 51 ca 0b 3e
       -0.11985628 -0.023906179 0.089882925 0.13651396
0001c0 3c 02 2c 3d 7c 07 f2 bd dc ef c7 bc 10 d8 af bd
       0.04199432 -0.11817834 -0.024406366 -0.085861325
0001d0 40 96 72 bb 8a 35 df bd ed 4e 05 3e de 21 af bd
       -0.0037015826 -0.10898884 0.13018389 -0.085513815
0001e0 74 97 46 3d 00 e9 02 ba 66 b3 e1 3d 68 50 a2 3d
       0.04848428 -0.0004993826 0.11020546 0.079254925
0001f0 08 55 51 3d 46 b0 e0 3d c6 77 eb 3d 8e 15 a6 3d
       0.051106483 0.109711215 0.11497454 0.0810958
000200 d0 85 70 3d aa 81 e8 bd 1e 2e f1 3d 04 64 c7 3d
       0.058721364 -0.113528565 0.11776374 0.09735873
000210 8e 52 a2 3d 31 bf 0f be b6 1c d2 3d 74 0c c5 3d
       0.07925902 -0.14037777 0.102593824 0.09621516
000220 b2 85 e9 3d 3d 9c 07 3e 90 00 75 3c 37 86 0d be
       0.114024535 0.13243194 0.014953747 -0.1382073
000230 dc 4e 31 3d 34 de 72 bd a2 6b c1 3d 66 ce d4 3d
       0.043288097 -0.05929394 0.094443575 0.1039093
000240 40 46 00 bd 28 0b 1d bd d6 e9 29 bd b9 20 ed bd
       -0.031316996 -0.038340718 -0.04148277 -0.11578507
000250 00 57 44 3c 78 18 f3 bd 18 7c 63 bd 40 cb b0 3b
       0.011983633 -0.118699014 -0.055538267 0.005395323
000260 3b f2 d5 bd 68 69 dd bc d8 a1 d2 bd b8 02 90 3c
       -0.104465924 -0.0270278 -0.102847755 0.017579421
000270 48 63 4d bd 00 57 1d bd 26 e3 9a 3d 6d c1 c6 bd
       -0.05014351 -0.038413048 0.075628564 -0.09704862
000280 c8 7d 26 3d df 64 0a 3e ba 95 f9 3d 80 a5 aa 3d
       0.040647298 0.13515042 0.12186761 0.08332348
000290 80 21 f9 ba 60 3f 3d 3d f8 48 39 bd a0 80 ac bc
       -0.0019007176 0.046203017 -0.045235604 -0.021057427
0002a0 d6 be ea 3d 72 84 fb 3d e1 04 81 bd 10 4b ea bd
       0.1146218 0.12281121 -0.06299759 -0.11440098
0002b0 41 26 0f 3e 34 cb eb bc d8 0d 14 3d 28 65 dc bd
       0.13979436 -0.028783418 0.036146015 -0.107614815
0002c0 c9 41 0b be a4 38 b8 3d d4 96 43 3d 9b e3 0b 3e
       -0.13599314 0.08995178 0.047751263 0.13661043
0002d0 c6 73 1f bd 44 7e db 3d f9 58 83 bd 24 3d 94 bd
       -0.03892877 0.10717443 -0.064134546 -0.07238224
0002e0 33 63 07 3e b4 27 02 bd 07 87 e8 bd 14 4b 73 bd
       0.13221435 -0.031776145 -0.113538794 -0.059397772
0002f0 4e fb 96 3d dc a0 38 3d 36 5e 04 be 3e 5c ef bd
       0.07372151 0.045075282 -0.12926564 -0.11687516
000300 52 42 01 be da 60 bc 3d 78 eb 14 bd 58 21 a0 bd
       -0.12622955 0.091981605 -0.036357373 -0.0781886
000310 f0 f7 bf 3c 80 1f 61 3d 20 ba 6a 3c 7e 41 0a bd
       0.023433656 0.05496168 0.014326602 -0.033753864
000320 fa 65 88 3d 9e 09 80 bd a2 de 98 bd c2 bd 0d be
       0.066600755 -0.06251834 -0.07464339 -0.13841918
000330 ba a6 eb 3d e8 80 46 bd 0e b8 ed 3d e2 d6 72 bd
       0.1150641 -0.04846278 0.11607371 -0.05928696
000340 a6 11 dd 3d a4 c4 d4 3d 9c 63 78 bd 00 8c a7 39
       0.10794382 0.10389069 -0.06064187 0.0003195703
000350 08 21 03 be 98 74 d7 3c 80 d0 a6 ba 78 5b 97 3c
       -0.12805569 0.026300713 -0.0012726933 0.018476233
000360 4e 59 fe bd 02 15 af bd f6 d9 ca bd 64 81 9f 3d
       -0.12419377 -0.08548929 -0.09904854 0.07788351
000370 6c b7 8e 3d 10 a8 42 3d a3 36 01 be bc 3f 49 3d
       0.06968579 0.04752356 -0.12618499 0.049133047
000380 1c 8e 83 bd 94 a4 01 be f4 7d 32 bd 12 29 14 bd
       -0.064235896 -0.12660438 -0.04357715 -0.03617198
000390 5a fc 6a bd 5c 94 7a bd cf ad a1 bd a0 11 ea bb
       -0.057369567 -0.061176643 -0.078944795 -0.0071432143
0003a0 28 78 9d 3c bc 59 e2 bd 44 52 b7 3d 04 93 bb 3d
       0.019222334 -0.11052272 0.08951238 0.091589004
0003b0 32 0b c8 3d 20 e6 3a 3d 90 2e 55 3c 50 9a 2c bd
       0.0976776 0.04562962 0.01301159 -0.04213935
0003c0 00 53 43 3c 06 e0 e3 3d d4 b6 85 bd 1c 97 1a bd
       0.011921644 0.111267135 -0.06529012 -0.037741765
0003d0 fc 70 6b 3d 00 3b f2 3a 64 d0 89 3d 72 8e b6 3d
       0.057480797 0.0018480718 0.067292005 0.08913888
0003e0 1b 88 91 bd a0 a6 4c bd e8 4b 91 3c 39 f5 e7 bd
       -0.07106038 -0.049963593 0.01773639 -0.113260694
0003f0 f9 36 b4 bd 92 69 e2 3d 4c 57 d9 3d 90 b4 40 3c
       -0.08799548 0.11055292 0.10612354 0.011761799

layer_2.bias f4 [50]
000000 b0 a5 49 bc c0 2f 6a bb 68 98 f2 bd 98 10 4e 3d
       -0.012307569 -0.0035734028 -0.118454754 0.050308794
000010 00 91 25 3a 9a 52 22 bd 90 95 08 bc 0e 1c d9 bd
       0.0006315857 -0.039629556 -0.00833644 -0.10601054
000020 0a 2a 2c bd 2c 6f 27 3d d0 b9 cd 3d 8c 9d f5 bd
       -0.04203228 0.040877506 0.100452065 -0.1199294
000030 e8 33 bf 3c a0 80 a3 bc 98 27 bd bc 6c b8 08 3d
       0.02334018 -0.019958794 -0.023090169 0.033379003
000040 84 cc b4 3d 00 82 b1 bc c8 7a b4 bd 0c cb d7 bd
       0.08828071 -0.021668434 -0.08812481 -0.10536775
000050 5c f9 b7 3d 9c cf ea bd 40 51 18 3c f3 f3 9c bd
       0.089831084 -0.114653796 0.009296715 -0.07663717
000060 4d 15 0a 3e aa cf f6 3d 5c ea 54 bd 64 4b a4 3d
       0.13484688 0.120513275 -0.051981315 0.08022192
000070 97 da 91 bd 50 53 23 bd 92 35 86 3d 36 06 17 bd
       -0.07121771 -0.039874375 0.065531865 -0.036871158
000080 36 82 c2 3d 13 f6 8a bd e2 b2 f0 3d a2 62 ff 3d
       0.09497492 -0.06785216 0.11752869 0.124699846
000090 94 b1 af 3d 5f a4 05 3e 00 9c 35 39 20 52 9b 3b
       0.08578792 0.13050984 0.0001731962 0.0047400147
0000a0 40 03 b1 3b 7e 5a 16 bd cf 8d e5 bd 32 a8 f6 3d
       0.0054019988 -0.036707394 -0.112086885 0.120437995
0000b0 ac 56 3e 3d f6 cc ac 3d 42 63 3b bd c4 b0 43 3d
       0.046469375 0.08437531 -0.045748957 0.047776
0000c0 72 38 81 3d 20 de 7c 3c
       0.06309594 0.015433818

output_layer.weight f4 [1, 50]
000000 f0 b6 b3 3c 5c a1 39 bd 44 20 25 3d 60 a8 94 bc
       0.021937817 -0.0453199 0.040313974 -0.018146694
000010 d8 92 b1 3c 44 48 fa bd 38 3f c8 3d 40 02 29 bc
       0.021676466 -0.12220815 0.09777683 -0.010315478
000020 62 2a 80 3d 9c 97 bd bd 24 8d b0 bc 2a c2 fa bd
       0.06258084 -0.09257433 -0.021551676 -0.12244065
000030 ae b6 87 3d 20 eb 27 bd 98 a8 13 3d a0 93 32 bd
       0.0662664 -0.040995717 0.036049455 -0.043597817
000040 47 6f 86 bd 8c 7a e0 bd de c1 bc 3d b7 f9 0b be
       -0.06564193 -0.10960874 0.09216665 -0.13669477
000050 00 f8 4b bb d8 1c 9f 3d 95 aa 0f be e6 8c 88 3d
       -0.0031123161 0.077691734 -0.14029916 0.06667499
000060 5a eb e2 3d 34 83 8c bc 20 d7 b9 3c 74 30 5f 3d
       0.11080046 -0.017152406 0.022685587 0.054489568
000070 fe f7 b0 3d d0 31 89 bc 88 58 93 3d 4e 1c cc 3d
       0.08641051 -0.016747385 0.0719462 0.09966336
000080 82 11 20 bd 42 5c d0 bd 8f 86 06 3e b5 d2 0c 3e
       -0.039079197 -0.10173847 0.13137268 0.13752253
000090 5a 9b eb 3d 96 55 9a 3d b5 54 00 be e7 6c d9 bd
       0.1150424 0.075358555 -0.12532313 -0.106164746
0000a0 60 ca ba bc 72 a3 69 bd c0 3a 38 bd 4c be 17 3d
       -0.022801578 -0.05704064 -0.044977903 0.037046716
0000b0 c4 c0 7e 3d 08 f4 05 3d 86 3d 00 bd 90 57 31 3c
       0.062195554 0.03270343 -0.031308673 0.010824099
0000c0 e5 3a ee bd 72 1f e8 bd
       -0.11632327 -0.11334123
